WocaR-PPO/src/release_models/WocaR-PPO/halfcheetah.model (torch_old, 223498 bytes, 51 tensors)

affine_layers.0.weight f4 [64, 17]
000000 ec 6f fc be 9b c4 93 bf 59 70 eb bd c9 18 93 3c
       -0.4930414 -1.1544374 -0.11496038 0.017956154
000010 d1 34 67 3e d6 20 27 bf d0 cc 0d be 4b 6d d5 3d
       0.22578742 -0.6528448 -0.13847661 0.104212366
000020 4c de 20 bf 14 b7 17 3c 57 a5 46 bf 68 48 97 be
       -0.628392 0.009259958 -0.7759604 -0.2954743
000030 8d c0 36 be b8 45 6a bd 39 37 89 be 3c a1 3b 3e
       -0.1784689 -0.057195395 -0.26799944 0.18323225
000040 94 9c 92 3d 66 2f 8c 3e a9 fa 9e 3f 7e 52 0c be
       0.07158771 0.27379912 1.2420245 -0.13703343
000050 b7 2c 1d 3e 65 93 c5 bd 27 89 a0 3e d2 90 0a be
       0.15349089 -0.09647254 0.3135464 -0.13531807
000060 09 c6 90 bd bb be 90 be 73 2e 00 be b6 dd ea 3e
       -0.07069022 -0.28270516 -0.12517719 0.45872277
000070 77 bc 10 3f 49 cb 46 3e 64 e9 03 3e 7a 55 8b 3d
       0.56537575 0.19413485 0.12882 0.06803413
000080 f2 17 ad bc dc e9 ec bc 80 18 5b bf 0e f9 82 bf
       -0.021129582 -0.028920107 -0.8558426 -1.0232255
000090 79 a6 58 3d 97 5c 06 3e 86 02 0d 3e 77 e2 60 3e
       0.052893136 0.13121258 0.13770494 0.2196139
0000a0 2f 45 9b be ad 6e de be ff 4f aa 3e 4e 82 35 3f
       -0.3032622 -0.43443814 0.33264157 0.70901954
0000b0 b4 ef d8 3d 76 68 ad 3e 6b a3 79 be d5 37 86 3d
       0.10592595 0.3386876 -0.24378745 0.06553618
0000c0 e4 ca 92 3d a6 7c 38 3d 50 20 e5 3e e3 59 25 be
       0.071676046 0.04504075 0.44751215 -0.1614757
0000d0 df 91 91 be 50 e3 a2 be d8 bd 47 be e0 a2 15 bd
       -0.28431603 -0.3181405 -0.19506013 -0.036532283
0000e0 13 26 34 3d ef 7f 86 3e 2b 15 d0 bc eb de e0 3e
       0.043981623 0.2626948 -0.025400719 0.43920073
0000f0 60 bc dd 3e f1 31 cb be 63 08 74 3c e4 0c 25 be
       0.4330778 -0.3968654 0.014894578 -0.16118199
000100 62 a9 34 3e b7 44 ee be 81 c4 50 bd bc 2c e1 bc
       0.1764274 -0.465368 -0.05096865 -0.027487151
000110 55 3e c5 3d d0 60 bd bd a5 de 3f 3e bd c3 cc bd
       0.096310295 -0.09246981 0.18737276 -0.099982716
000120 02 9b 06 be 92 25 00 3f 65 40 09 3e 7a 40 18 3d
       -0.13145068 0.5005733 0.13403471 0.037170865
000130 1c c3 87 3e c0 65 c5 3d a2 39 04 be 4a 5f 44 be
       0.26516044 0.09638548 -0.1291261 -0.19176975
000140 05 6a 05 be f7 80 b4 3b e1 a8 f7 3e dd db 00 3e
       -0.13028724 0.005508538 0.48371032 0.12583871
000150 d3 bf 1c 3e de 70 1a 3e 84 46 03 3f 05 29 d7 3d
       0.1530755 0.15082118 0.51279473 0.10505871
000160 59 15 24 3d fe 75 47 3d d9 07 a4 be 7b 97 06 3e
       0.04005942 0.04869651 -0.32037237 0.13143723
000170 41 bf 8a 3e 67 7e bf be 1e 14 d2 bb 1a 3a 00 3e
       0.2709904 -0.37401125 -0.0064110896 0.12522164
000180 d2 be 86 3d 83 08 a5 3d 5e b5 e3 3d b4 12 e9 bd
       0.06579365 0.08058264 0.111185774 -0.113805205
000190 54 0d fd 3d 4c f7 af 3d 77 ad 3a 3f d1 fb da 3f
       0.12356058 0.0859209 0.72920936 1.7108098
0001a0 c9 ec f0 3e 7f 42 56 be 56 ec f7 3e a8 9c 17 bd
       0.47055653 -0.20923804 0.48422498 -0.037014633
0001b0 19 c2 37 be e3 c5 7c 3d fb 54 83 3e 51 cb ec 3e
       -0.17945136 0.061712157 0.25650772 0.46248868
0001c0 f5 55 e7 bd 6b d5 c6 be 68 15 32 bd da 73 b2 be
       -0.11295692 -0.388347 -0.043477446 -0.34854013
0001d0 d0 af 74 3e 48 0c a7 3d 0f 02 28 bd 0a 1a 17 bf
       0.23895192 0.08156639 -0.04101759 -0.5902411
0001e0 f5 e2 e6 3e be b1 14 3d 56 8a 93 be f2 3f a2 bd
       0.4509503 0.03630232 -0.2881648 -0.07922353
0001f0 1c 9b ed 3d 84 e6 44 be 6f d6 06 3e 5b 5f 30 bf
       0.116018504 -0.1922856 0.13167737 -0.688955
000200 da 06 cb bd ca f0 b6 be 9b 58 0c bf ef b1 94 be
       -0.09913416 -0.35730582 -0.548227 -0.29042003
000210 5b 2b a2 bd 7d 8d 78 3e f8 ad c0 bc 48 90 28 be
       -0.07918426 0.24272723 -0.023520455 -0.16461289
000220 a1 00 ef bf 05 7a d8 3f 59 55 5b 3d d9 f3 0d be
       -1.8672067 1.6912237 0.05354819 -0.13862552
000230 22 c3 93 3d f3 ca dc be 45 9a 2d 3e dc 2a 00 bd
       0.07214953 -0.43123588 0.1695338 -0.031290874
000240 09 88 fa 3e bc b3 58 be d8 a5 69 3e f9 9a 2b 3d
       0.48931912 -0.21162313 0.2281717 0.04189584
000250 c7 a7 9b bb af 02 d5 bd 22 66 96 3e 77 f9 83 ba
       -0.004750225 -0.104009025 0.29374796 -0.0010068853
000260 e9 0a 01 3d 9c bb cf 3f 48 a1 52 be e0 a3 79 be
       0.031504545 1.6229129 -0.20569336 -0.2437892
000270 ee 61 aa 3e 45 40 07 bf 92 93 16 be 0e c8 74 3e
       0.3327784 -0.5283244 -0.14704731 0.2390444
000280 8d c8 cb bd f2 0d 71 bd bc dc 93 be 9a 18 8e 3e
       -0.099503614 -0.05885119 -0.28879344 0.27753145
000290 59 20 d6 3e ea cb 6f 3e 9a 72 3e 3e f8 eb ce be
       0.41821554 0.23417631 0.18598405 -0.40414405
0002a0 7d 8c f9 be f4 df 5e be 40 97 84 3f 46 1e b1 bf
       -0.48739997 -0.21765119 1.0358658 -1.3837364
0002b0 ad 3d d6 be ee be f0 3c 4b 5f 17 be f0 46 14 3e
       -0.4184393 0.029387917 -0.14782445 0.14480186
0002c0 b3 51 05 3e f7 1f e7 3e 7d 52 0d bf 18 a4 83 3e
       0.13019447 0.45141575 -0.5520399 0.2571113
0002d0 c4 d3 e6 be f7 02 7b be 16 82 07 3e 39 31 6f bd
       -0.4508344 -0.2451285 0.13233218 -0.05839655
0002e0 8f f9 1e be ea b6 f6 bd 1a 85 db 3c 53 bd 00 be
       -0.15524887 -0.12046607 0.026796866 -0.12572221
0002f0 e9 a1 cd be 7d 3c 63 3e b9 e7 c7 bd fa d4 e4 bc
       -0.4016259 0.22191043 -0.097609945 -0.027933586
000300 c3 16 f2 bd 6a 30 8e bd a8 91 ac be 02 22 cd be
       -0.11820748 -0.06942828 -0.33704877 -0.40065008
000310 9d 07 cc 3e d2 77 31 bb 57 52 9a 3e b2 7e 03 3e
       0.39849558 -0.0027079475 0.30140945 0.12841299
000320 5c af 0b 3e 79 5c f1 3d 03 ff 7e be 82 d7 2e 3c
       0.13641113 0.11785216 -0.24901967 0.010671498
000330 11 28 97 3f 08 d2 5c bf d3 38 bd be ca 6b ab bc
       1.1809102 -0.8625798 -0.36957416 -0.020925421
000340 3b b4 0e 3e fd cb 59 3e fd c7 3c be f5 92 cb 3d
       0.1393594 0.21269222 -0.18435664 0.09940139
000350 14 1c 52 bf d7 cc aa bc 22 67 88 3e 6b f7 fc 3e
       -0.82074094 -0.020849628 0.26641184 0.49407515
000360 b5 e6 1f 3e 82 f7 da 3d 8c 31 91 3e f7 41 43 3c
       0.15615351 0.106917396 0.28358114 0.011917583
000370 30 3b 3f be f7 5a d1 3b 30 2f f7 be da 0c 74 3c
       -0.18674922 0.0063890177 -0.4827819 0.014895642
000380 32 b3 68 3d a0 38 9a bd 6b 84 6e 3e aa cb 77 be
       0.05681152 -0.075303316 0.23292701 -0.24198785
000390 8c 40 df bd be 75 30 3f 80 e9 97 be d7 d8 40 3d
       -0.10900983 0.6892966 -0.29670334 0.047081795
0003a0 87 3a 9d be 0f bb d3 bd 43 e1 da 3d de da 7f be
       -0.30708715 -0.10338413 0.106874965 -0.24985835
0003b0 53 b5 6f 3d 69 2c d8 bd 1e 72 22 3f 99 14 af 3f
       0.058522534 -0.105553456 0.6345538 1.3678161
0003c0 6e b3 01 bf a9 b4 64 be 9a 0a e8 bd c3 5d 6b bb
       -0.5066441 -0.22334541 -0.11330147 -0.003591404
0003d0 09 29 91 3c 81 63 76 3e 86 33 19 bf e2 0d a7 3e
       0.017719762 0.24061395 -0.59844244 0.3262778
0003e0 0a 29 ff 3d a0 ee 80 3e d8 d6 8e 3e 48 78 81 3c
       0.124589995 0.25182056 0.27898288 0.015804425
0003f0 eb 51 19 3e f1 82 18 be 61 af 7e bc b3 80 68 bf
       0.14972655 -0.148937 -0.015544743 -0.9082138

affine_layers.0.bias f4 [64]
000000 39 d7 d0 3e c6 85 9a 3f b9 7a 5d 3f 56 8b 9f bf
       0.40789202 1.2072074 0.86515385 -1.2464397
000010 b0 b3 dc bf 55 41 b6 3f 9c 11 6a bd 18 e5 4b 3f
       -1.7242336 1.4238688 -0.0571457 0.79646444
000020 85 18 f8 3e 1a c4 e4 be 40 1b d6 be 04 61 d2 bf
       0.48456207 -0.44680864 -0.41817665 -1.6435857
000030 e2 e5 bc 3e 54 e1 39 be 01 08 6b 3f 87 c5 ef 3f
       0.36894137 -0.18152362 0.9180909 1.8732156
000040 5d 51 a5 bf 31 c5 9c 3f 5c 16 55 bf 4b fd c2 3f
       -1.2915455 1.2247678 -0.8323724 1.5233549
000050 36 85 0f bf 7a bd 6a bf 4a ba 1f bf ba 9d 1d 3d
       -0.5606264 -0.9169537 -0.6239363 0.038480498
000060 05 c1 c2 3f 2b 0b c9 bf 62 8c 19 bf c2 3f 59 3f
       1.5215155 -1.5706533 -0.5997983 0.8486291
000070 fb b8 f5 bf 04 8f a2 be 97 83 72 bf a4 ea 74 3f
       -1.9197077 -0.31749737 -0.9473204 0.95670533
000080 73 53 c8 3d 2c ec 7b bd f9 11 59 be 53 b5 4a bf
       0.09781542 -0.061504528 -0.21198262 -0.7918293
000090 0b 15 01 3f ba 18 fa 3e f5 9c 04 be 81 9e e5 3d
       0.50422734 0.4884699 -0.129505 0.11211873
0000a0 f7 13 3a 3e c4 32 dd 3e e4 09 eb bf 4d a2 2f bd
       0.18171678 0.43202794 -1.8362393 -0.04287939
0000b0 af ad 4d bf a1 91 a1 bf 43 f3 89 be 83 82 e3 3f
       -0.80343145 -1.2622567 -0.26943406 1.7774204
0000c0 c6 26 57 3f 8b 24 db bf 65 9a 03 3f 44 65 0f 3f
       0.8404354 -1.7120527 0.5140746 0.56013894
0000d0 e5 dc 82 3f 8e a3 a3 bf 20 13 a6 3d 3f be 23 bf
       1.0223662 -1.2784288 0.081091166 -0.6396217
0000e0 68 90 51 3f 27 c8 a5 be e2 95 a0 3e 7c 5a 02 bf
       0.8186097 -0.32379267 0.31364352 -0.5091932
0000f0 54 1f 2b 3f e5 b7 8a bd 3e ed 1d bd e1 99 e7 bf
       0.6684468 -0.06773356 -0.03855633 -1.8093835

affine_layers.1.weight f4 [64, 64]
000000 d1 0f e9 3e 1a be 22 bf 66 91 90 3d 49 32 8b 3e
       0.4551988 -0.6357132 0.070589826 0.27186802
000010 60 e8 98 be e9 92 d9 be d7 00 03 bf e9 22 ca 3e
       -0.29864788 -0.42494896 -0.51173156 0.3947976
000020 0a a1 49 3e f0 6a 8d bd 95 3a 0a 3d c0 a0 cf be
       0.19690338 -0.06905162 0.033747274 -0.4055233
000030 52 ed af 3d 10 20 4e 3e 36 9d 22 bf be 4b 90 3e
       0.08590187 0.20129418 -0.63521135 0.28182787
000040 a8 41 c6 3d fd 80 77 3e 08 73 c0 be 92 7d 58 be
       0.09680492 0.24170299 -0.37587762 -0.21141651
000050 0e 1d af 3e 89 66 08 3e d8 e0 63 3e 42 70 00 be
       0.34201854 0.13320364 0.2225374 -0.12542823
000060 ba 94 fc 3e 68 31 ce 3d 3f fd 93 3e d3 3b 4c bf
       0.4933222 0.10068017 0.2890415 -0.79778785
000070 f2 b2 30 be ef 39 0c 3e 30 53 3e be 52 f2 ed 3d
       -0.17255762 0.13693975 -0.18586421 0.116184846
000080 f0 31 fd be 72 73 48 be e6 88 3e 3f bf e1 6e bf
       -0.49452162 -0.19575289 0.7442764 -0.9331321
000090 04 8f 10 3f 4e 21 42 3e 9b 33 38 bd 8a fc ab 3e
       0.56468225 0.18958017 -0.04497109 0.3359111
0000a0 47 5f d4 3e 1d d5 69 bd 36 6e b9 be 1d 62 e9 be
       0.4147894 -0.057088006 -0.36216897 -0.45582667
0000b0 ca ef b2 bc 99 e1 86 3e e0 bb 04 be 0f e0 b9 3e
       -0.021842856 0.26343992 -0.12962294 0.36303756
0000c0 ce 06 a4 3c 61 8c 65 3d 12 4d e5 bc 8b f7 06 3f
       0.020022776 0.05604208 -0.027990852 0.5272147
0000d0 2f ef 19 bf 43 c1 07 bf bc 1d fa 3c 66 9c aa be
       -0.6013059 -0.5302927 0.030531757 -0.33322448
0000e0 6d 62 50 be b4 17 fe 3e 42 ae 1d bf c8 6e 8f be
       -0.20350046 0.4962746 -0.6159402 -0.28014207
0000f0 68 47 5e be 21 83 96 3e 6d 2e b3 bd 72 cc 9c be
       -0.21706927 0.29396918 -0.087490894 -0.3062473
000100 9b 42 57 3e a1 bd b3 3e 7c e5 75 3d 2f 40 16 bf
       0.21021502 0.35105613 0.060033306 -0.58691686
000110 39 f9 94 bd 12 05 ef 3e 60 41 3f bf b9 98 e1 be
       -0.07274098 0.46683556 -0.7470913 -0.4406183
000120 16 01 0e be f5 77 1a bf 7f 7e b7 bd f3 fa dc 3e
       -0.13867602 -0.6033929 -0.08959674 0.4316021
000130 f5 91 25 3f f7 79 d0 3d ae b3 e5 3e c5 5b 09 3e
       0.6467584 0.10179513 0.44863647 0.13413914
000140 ce c8 02 bd d4 4d 43 3f 25 1d 20 be fe 38 d1 3e
       -0.031929784 0.7629063 -0.15636118 0.40863794
000150 62 70 19 3d 0f 11 c7 bd 53 b2 e8 3e 7e d4 5d be
       0.037460692 -0.097200505 0.4544855 -0.2166309
000160 49 2b 17 3e 87 ee 6a 3d 9e 48 78 be 86 fc 17 bf
       0.14762606 0.057356384 -0.24246451 -0.59369695
000170 8c f1 04 3e b3 d0 a9 3e 60 e7 59 3d 71 0d 69 bf
       0.12982768 0.33167037 0.053199172 -0.91036135
000180 1e fb 0b 3d b7 e8 d5 be 97 db 9b be ae c9 dc be
       0.03417503 -0.4177911 -0.3044097 -0.4312262
000190 4d 81 31 3f 0a 86 4b 3e e5 39 d8 bd f7 46 40 3f
       0.6933792 0.1987535 -0.105579175 0.75108284
0001a0 63 23 2e 3e 00 69 8b 3f 6d 3a e4 be af c5 c2 be
       0.17005686 1.0891418 -0.44575825 -0.38041446
0001b0 03 f0 b4 be 8e 4e 17 bf ad 1a 9e bf 90 29 55 3f
       -0.35339364 -0.5910424 -1.2351891 0.83266544
0001c0 10 17 e0 3d 23 f8 aa bd c1 77 93 3e ec 1a 2f 3e
       0.10941899 -0.083481096 0.28802302 0.17100114
0001d0 9f 68 52 bd d3 b0 ae bd cb e0 07 bd da 2f 7a be
       -0.051369306 -0.0852982 -0.033173364 -0.24432316
0001e0 c5 4f 9d 3f 61 52 38 be b6 ea 90 3e aa 11 64 3d
       1.2289969 -0.18000175 0.2830407 0.05568091
0001f0 a7 08 c4 be 55 79 90 3e cc fb 4e 3f 79 1c 10 bf
       -0.3828785 0.2821757 0.8085296 -0.56293446
000200 02 bc b2 3e bc 35 48 3f 6e 50 a0 3e f9 bc 02 bc
       0.34909064 0.7820699 0.31311363 -0.007979625
000210 81 b1 f7 bd 8d 59 11 3f 8c 64 d0 bd 05 ef a2 3e
       -0.12094403 0.5677727 -0.10175428 0.31822982
000220 df 02 4f 3e 2e db 5a 3e f4 b6 f3 be 37 b5 8d 3e
       0.20215939 0.21372673 -0.4760052 0.27677318
000230 67 00 67 3e 50 44 6a bf 1d 6b ef 3e 0d 01 bb 3e
       0.22558747 -0.91510487 0.46761408 0.3652424
000240 fa d3 38 3e 88 91 0b 3e 08 fa 16 be bb 4d 50 3f
       0.18049613 0.13629735 -0.14743817 0.8136861
000250 19 fb 88 3c 1c e4 41 be 31 7d e0 3d 20 47 2f be
       0.016721295 -0.18934673 0.10961378 -0.17116976
000260 49 25 03 3e ed 30 91 be c7 92 c8 3d 5e 59 41 be
       0.12807192 -0.2835764 0.097936206 -0.18881747
000270 a5 6a 60 3e 3f 58 28 3e 4d ec 2d be 25 ea 98 3d
       0.21915682 0.16439913 -0.16984673 0.074665345
000280 6a 42 60 3d 8f 12 50 3e 06 c8 8c 3e 06 b0 61 be
       0.054750837 0.2031958 0.27496356 -0.22039804
000290 07 ca e1 3e a2 03 2d 3e f8 0c d7 3d ef 16 bd be
       0.44099447 0.16895917 0.105005205 -0.3693156
0002a0 f7 3b 79 be c8 c0 32 3f e5 0b e1 be b6 e8 8c 3e
       -0.24339281 0.6982541 -0.43954387 0.27521294
0002b0 0f 59 2e be f5 24 c7 bc 7a b4 d3 be e8 e3 c5 3f
       -0.1702616 -0.024309615 -0.4134863 1.5460176
0002c0 04 d6 16 be bc 31 a2 bc 59 d5 16 be aa 04 f7 3d
       -0.14730078 -0.019799106 -0.14729823 0.120614365
0002d0 5f a0 bb 3e 9c f7 0e bf f7 01 bb bd ff 4a 8d be
       0.3664579 -0.5584657 -0.09131234 -0.2759628
0002e0 d4 6b 51 3f 55 85 f4 bc ae 9c c8 ba 2a 51 fc 3d
       0.8180516 -0.029848734 -0.0015305483 0.12320168
0002f0 e4 b7 de bd 1b 1b c5 3e 31 07 48 3f a7 fd 83 be
       -0.10874918 0.38497242 0.78135973 -0.2577946
000300 90 a6 2c bf 94 ca 2b 3f 0f b8 87 be 40 72 05 3f
       -0.67441654 0.67105985 -0.26507613 0.52127457
000310 c7 45 49 bd 0a 45 1d 3f 17 f0 9d 3d 76 1a 2c 3e
       -0.04913881 0.6143347 0.07711809 0.16806969
000320 08 e9 e1 be f7 28 05 3f 96 e7 3c 3f 2e b1 a2 be
       -0.441231 0.5201563 0.7379087 -0.31775802
000330 9d 72 db be 8f 10 1b bd 78 50 52 3f 6b 7a 3a be
       -0.4286088 -0.03785759 0.82154036 -0.18210761
000340 42 d1 d9 be 3a d1 f3 be 15 e0 2c bf bc 15 66 be
       -0.42542464 -0.47620565 -0.6752942 -0.22469229
000350 f1 51 8e 3f 14 0a 43 3d d2 b6 78 be f8 72 08 3f
       1.1118757 0.047617033 -0.2428849 0.5330043
000360 3c 68 1f 3f 48 bd b4 3e 19 4b 96 be 0e 13 3a 3e
       0.62268424 0.3530066 -0.2935417 0.18171331
000370 bc a0 b7 be 65 cc 34 bf cb af 0f be 64 c5 20 3f
       -0.35864818 -0.7062438 -0.14031903 0.62801194
000380 c1 1e 19 3d dc 6d 8e 3e c1 9f 0e 3f 37 83 1f 3e
       0.037382845 0.2781819 0.55712515 0.15577398
000390 0b a7 80 be 87 2c 09 3f 40 e5 0c 3f 5b f2 95 be
       -0.25127444 0.5358357 0.5503731 -0.29286465
0003a0 b2 c7 e7 bd c2 d2 5a bf e6 c0 6e bf 56 c2 36 3e
       -0.11317386 -0.8547784 -0.9326309 0.17847571
0003b0 12 0a 35 3e 99 00 91 3e 96 bd 3a 3e 6a e2 71 3e
       0.17679623 0.28320768 0.18236384 0.23621526
0003c0 b9 74 12 bd ac 78 a6 be 4a 49 65 be eb d1 96 3e
       -0.035755847 -0.3251394 -0.22391239 0.2945703
0003d0 09 24 84 be 18 a7 92 bc ca 18 7c be 2c 71 e5 3d
       -0.25808743 -0.017901942 -0.24618831 0.112032264
0003e0 cf cd 00 be b8 47 7d bd c7 de dd 3e 17 1e 44 3e
       -0.1257851 -0.061835974 0.43334028 0.19152103
0003f0 5f f1 ef 3d 3f e4 a8 3e 1a 9f 9d be 5b c7 b0 3d
       0.1171596 0.32986638 -0.30785447 0.08631774

affine_layers.1.bias f4 [64]
000000 79 c2 03 3f be 09 80 3d 13 ef 80 3d 17 08 ee 3e
       0.51468617 0.06251858 0.062956 0.46490547
000010 5d 9b 44 3f 75 0e 23 3c 80 6a 36 bd f1 21 82 3e
       0.76799566 0.009952177 -0.04453516 0.2541652
000020 23 8a 08 be d7 2b 0c be a4 c2 07 3f 17 3b 5a bc
       -0.13333945 -0.13688599 0.53031373 -0.013319752
000030 90 c3 96 bd 90 8e 0d be 1e ea 22 3e 92 90 2e be
       -0.07361519 -0.13823915 0.15909621 -0.17047337
000040 3d 1d 07 3e 69 48 03 bf 25 de e1 bb 04 9a 7e be
       0.13194747 -0.51282364 -0.006892937 -0.2486344
000050 a6 de 00 bf 9d 38 09 3c e5 e5 3e bf 79 a3 54 3f
       -0.50339735 0.008375314 -0.7456954 0.8306194
000060 94 a0 10 be 37 e6 97 bc fb 9c e4 3d 64 62 53 bc
       -0.14123756 -0.018542392 0.11162754 -0.012901876
000070 15 6e d9 3e d0 36 c3 bd a6 1b ce bd 1d 43 42 be
       0.42466798 -0.09531939 -0.10063867 -0.18970914
000080 a1 20 88 bd 85 42 86 3d 68 31 a9 be 1c 7b 27 bd
       -0.066468485 0.06555656 -0.33045506 -0.04088889
000090 d3 4f 89 3e 94 67 67 3b 55 0b 34 3e 5e 9f f9 bd
       0.26818714 0.003530954 0.17582448 -0.121886
0000a0 af 3c fb bd a8 d2 06 bf ab 4c 8a 3e 1f de 11 be
       -0.12267434 -0.52665186 0.27011618 -0.14244889
0000b0 33 b3 ab bd da d9 1c 3e 31 93 50 3e e7 e9 44 3f
       -0.08383789 0.15317479 0.20368649 0.76919407
0000c0 2f b7 f0 3e fb 74 c0 be 68 30 f4 be 19 f7 42 be
       0.47014758 -0.3758925 -0.4769318 -0.19039573
0000d0 38 27 4f bb c5 7f 96 3e 11 0d c7 3d 78 46 ae bd
       -0.003160907 0.29394355 0.09719289 -0.085095346
0000e0 b7 92 cf bd fb 59 1c bf f2 81 a5 be 47 e4 9d 3c
       -0.101354055 -0.610748 -0.32325703 0.01927389
0000f0 52 21 09 3d 76 33 a2 3e 42 d8 04 3e b5 43 bd be
       0.033479042 0.31679887 0.12973121 -0.3696572

final.weight f4 [1, 64]
000000 c6 73 a6 3d bb d6 84 3c d2 dc da bc c5 8f cd bc
       0.08127551 0.016215673 -0.026716623 -0.025092969
000010 0f c7 90 3e 66 1f 50 bc 0a 76 8d 3c 1b 88 9f 3c
       0.2827687 -0.0127027985 0.0172682 0.01947408
000020 64 a8 74 3b 46 64 3e 3c c5 d7 aa 3d b2 55 e4 bd
       0.0037331814 0.011620587 0.08341936 -0.111491576
000030 93 97 d2 bc 13 3f 2c 3b 53 e9 23 bc 95 1b de bc
       -0.025707042 0.0026282712 -0.010004359 -0.027112762
000040 3a 8f 37 3d d3 03 68 be 61 32 0e 3c 66 99 9a bb
       0.044814326 -0.22657709 0.008679003 -0.0047179936
000050 3e 7c 7d bc 37 df ad bb f8 bb bd bd 44 1b 8b 3d
       -0.015471516 -0.0053061503 -0.09264368 0.0679231
000060 f6 c6 09 bc 12 a3 40 bc f3 e0 67 bd 9e c8 3c 3c
       -0.008409252 -0.011757629 -0.056611013 0.01152244
000070 41 28 87 bb 20 86 2d 3a e4 7f a6 bc 58 88 02 bd
       -0.0041246717 0.00066194125 -0.020324655 -0.03186831
000080 e8 03 8d 3c 8e ce 0e bd 57 c4 84 be 07 0d 23 3c
       0.017213777 -0.034864955 -0.25931045 0.009951836
000090 1e e8 1f 3d b1 23 2a bc 8a 84 9e 3c b1 9a e0 bb
       0.039039724 -0.010384486 0.019350309 -0.006854378
0000a0 5d 0a 0d bd 1a 8d 69 be 7b 39 74 3c 53 d3 22 3b
       -0.03443371 -0.22807732 0.014906283 0.0024845197
0000b0 85 fe b6 3c 16 68 0f 3c fa a3 7f 3c ac ad 1c 3e
       0.022338161 0.008752843 0.01560306 0.15300626
0000c0 6d 99 98 3d f0 7e b7 3e c9 87 af bc e3 e6 46 bc
       0.07451139 0.35839033 -0.021427052 -0.012140009
0000d0 25 3d b5 bb 9a 5a cf 3e 41 a5 67 bc 13 09 97 bd
       -0.0055309706 0.4049881 -0.014138521 -0.07374778
0000e0 05 72 8b 3c 05 0f c4 3b 14 7c fc bc d3 c4 bb 3c
       0.017022142 0.005983236 -0.030820884 0.022921002
0000f0 f7 86 ef bc 97 e1 0b 3d ad c7 0b 3d 3e 8d 3a bd
       -0.029239161 0.034150686 0.034125973 -0.045544855

log_stdev f4 [6]
000000 9c 6a 55 bf 8e 88 60 bf ac dc 6f bf 20 43 8f bf
       -0.833658 -0.87708366 -0.93696094 -1.119236
000010 46 9d 6e bf f0 b9 6c bf
       -0.9320873 -0.9247122

affine_layers.0.weight f4 [64, 17]
000000 9a de e6 be 8e 47 73 3e 12 59 e1 3d 27 46 75 3e
       -0.45091707 0.23757765 0.11003317 0.23952542
000010 bf 85 42 bd a7 2c ec bd 85 28 3b be fb 9c 32 bd
       -0.04749083 -0.11531954 -0.18277176 -0.04360674
000020 b8 be 13 bc 0a 17 26 be 92 61 61 be 38 87 12 be
       -0.009017639 -0.16219726 -0.22009876 -0.14309394
000030 23 b6 23 3c cc 44 aa be 0d dc 30 bd 86 3e fa bd
       0.009992155 -0.33255613 -0.043178607 -0.12218957
000040 71 6c 31 3e ab 68 6e 3e d1 28 fb be 70 80 bf 3d
       0.17326523 0.23282115 -0.49054578 0.093506694
000050 05 76 46 3e 61 2b 39 3e 84 cf 54 bd f4 bc 85 3e
       0.19380958 0.18082954 -0.051955715 0.26120722
000060 3c 29 67 3d f3 69 42 3e 21 e0 15 be a4 9c 17 3e
       0.05643581 0.18985729 -0.1463628 0.14805847
000070 fd 25 ec bc 3f 63 61 bc 34 cd b9 3d 04 11 00 bd
       -0.028826708 -0.013756572 0.090723425 -0.031266227
000080 a4 17 7c 3d aa 3a 99 be 7a ca 09 be a5 04 12 3f
       0.061545983 -0.2992757 -0.13456145 0.57038337
000090 79 7b b7 3e 96 94 06 3e b9 81 de 3d e9 54 d2 3e
       0.3583639 0.13142619 0.108645864 0.41080406
0000a0 69 24 46 3d 6d 41 8e 3d 5c 43 c1 3d 2d 23 be bc
       0.048374567 0.06946073 0.09436676 -0.023210132
0000b0 74 87 30 3e d0 af 5c 3e 16 cf 16 3e 1c b2 b7 3d
       0.17239171 0.21551442 0.14727435 0.089695185
0000c0 ed fa 14 3e 66 5c c7 bd 79 56 7f 3e 8b 1c d5 3e
       0.14548846 -0.097344205 0.2493533 0.4162334
0000d0 4e 88 ab bd 0f bc 4e be df 5b ed 3d ad a5 00 be
       -0.083756074 -0.20188926 0.11589789 -0.125632
0000e0 c3 bc 4f 3d 82 fe 91 3e c0 d4 6c be 63 29 ce bc
       0.050717127 0.28514487 -0.23128033 -0.02516622
0000f0 c2 64 02 3d 40 ed a6 3d 15 cd 86 3d 16 8d 91 3d
       0.03183437 0.081507206 0.06582085 0.07106988
000100 1c 9a 12 be ab a9 5d be fb 32 d3 3e bf bb 4c bc
       -0.143166 -0.21646754 0.41249833 -0.012495934
000110 bc 12 40 3e a2 b9 7c be 2c b1 3c 3e 29 36 8a 3e
       0.18757147 -0.24680188 0.1842696 0.26994446
000120 26 fe 0a be f0 ee 0f 3e a2 df fa bc 05 55 ed bb
       -0.13573512 0.14055991 -0.030624215 -0.007242801
000130 66 0a 80 be fb 73 62 3d fe c3 39 be fc 6f 2a 3e
       -0.25007933 0.05528639 -0.18141171 0.16644281
000140 c0 16 9d 3d 12 1a 30 be bc 8d 47 3e d7 d6 75 3d
       0.07670355 -0.17197445 0.19487661 0.06001934
000150 98 e2 77 be 05 c1 02 3e 62 9e 17 3f de f8 19 3e
       -0.24207532 0.12768944 0.5922605 0.15036342
000160 c7 00 9f 3d 7a 74 80 3e 3b 6f 22 3e 89 f6 b8 3c
       0.0776382 0.25088865 0.15862744 0.022578495
000170 b4 6c 93 3e e2 49 5e be 9e b5 b3 3d 4c 40 93 3d
       0.2879387 -0.21707872 0.08774875 0.07189998
000180 43 13 07 3d 9c 94 da be 0c a9 94 bd af 0c 8f be
       0.032977354 -0.42691505 -0.07258806 -0.27939364
000190 3e cb c3 be de bc 10 3e 2d 7b 5c 3e 8b b9 76 3e
       -0.38241 0.14134547 0.21531363 0.24094217
0001a0 c6 b4 54 bd 7e e6 5a be 35 db a8 3d 76 50 35 3e
       -0.05193021 -0.21376988 0.082449354 0.17706475
0001b0 85 31 99 3e 07 11 81 bd 35 39 8d bd a6 dd 8b 3e
       0.29920593 -0.06302076 -0.06895677 0.27317542
0001c0 a9 58 b9 be 5d ae 86 3e e0 40 17 3e 02 63 44 3c
       -0.36200455 0.26304904 0.14770842 0.011986496
0001d0 28 b4 7e 3e 7f 7e f5 bd 21 36 36 3e a6 a0 10 3e
       0.24873412 -0.11987018 0.17794086 0.14123783
0001e0 43 d1 a7 be f5 36 a4 3e 96 b0 09 bf 2a 6e 22 bd
       -0.32776842 0.3207318 -0.53785074 -0.039655842
0001f0 11 18 00 3f ac b8 3c 3e 01 1e 67 3e 19 88 d7 3d
       0.5003672 0.18429822 0.2257004 0.105240054
000200 f3 7d c2 3c cc df cb bb 74 12 9b bd d3 4f c3 bd
       0.023741698 -0.006221747 -0.07571879 -0.0953671
000210 e9 81 63 3e c1 46 de 3d 58 53 80 be 7d fe 2a 3d
       0.22217526 0.10853339 -0.25063586 0.041746605
000220 77 a5 04 3e aa e0 94 be f8 d6 06 bb 85 3e a2 3e
       0.12953745 -0.29077655 -0.0020574909 0.31688324
000230 90 46 6d 3e 5b a2 12 be 33 b3 6f 3e fa f1 07 be
       0.23171449 -0.14319746 0.23408203 -0.132759
000240 b8 3d 9c 3d 22 07 73 bc b2 dd 2a be 26 ed 3e bd
       0.076289594 -0.014833244 -0.16686133 -0.04661288
000250 7e a5 9d 3e 7b 36 19 bc 33 0d d6 bd 84 80 3e 3e
       0.30790323 -0.009351368 -0.10451736 0.18603712
000260 8b 2d e3 3d 24 d6 88 be 31 6f 3f 3d 69 8f d5 3d
       0.11092671 -0.26725876 0.0467369 0.10427744
000270 01 0b 63 be c0 f6 06 3f 07 70 f2 3d dd fa 4a 3e
       -0.22172166 0.5272026 0.11837774 0.19822259
000280 35 72 07 bd a6 cd 61 bd e5 00 92 3d a7 64 fe 3d
       -0.0330679 -0.055127762 0.07129077 0.12421542
000290 4e c1 ef 3d 55 ac 42 be 62 57 fe 3d 14 92 60 bd
       0.11706792 -0.19011052 0.12419011 -0.05482681
0002a0 26 e1 cb be a8 4e 52 be 1b 57 22 3e 42 68 ff be
       -0.39820212 -0.20537817 0.1585354 -0.4988423
0002b0 82 02 5f be f6 e3 c8 3d 71 bc ef bd 9f 38 7e bd
       -0.217783 0.09809105 -0.11705864 -0.062065717
0002c0 da 7a 61 3d a8 95 8a 3c 0c 80 08 be 01 54 7d 3e
       0.0550488 0.016917065 -0.13330096 0.24739076
0002d0 a4 90 8c 3d 69 b8 b3 be c3 10 4f 3e 34 18 0b 3d
       0.068635255 -0.3510163 0.20221238 0.03395863
0002e0 71 da 7e 3d 1c 9d 47 bc 87 70 84 be 52 49 9c 3e
       0.06222004 -0.012183454 -0.25867102 0.3052469
0002f0 84 42 ba be c8 08 9b 3e c7 36 60 3e 2b 74 d2 bc
       -0.36378872 0.30280137 0.21895896 -0.025690159
000300 5f a8 6c bc a0 2c 32 3e 49 a6 1d 3e 2e b4 aa 3e
       -0.01444444 0.17399836 0.15395464 0.3334059
000310 aa e9 7f 3e 57 76 38 3e 32 f0 04 3e 7f 6d 62 bd
       0.2499148 0.18013893 0.12982252 -0.055280205
000320 80 42 17 be 2a de cf 3d cb 0d e1 3c 57 73 34 3d
       -0.14771461 0.10149796 0.027472397 0.04405531
000330 8b a5 8e be 64 b6 17 3e e6 12 ff 3c 76 01 c5 3d
       -0.27860674 0.1481567 0.031136941 0.09619419
000340 e6 e3 73 3c b9 b1 a2 3e 89 a0 14 bd 1e d5 58 3c
       0.014885878 0.31776217 -0.03628591 0.013234405
000350 be 69 a8 bd 76 a9 46 3e 8f 5c 81 3e d7 eb f5 3e
       -0.08223294 0.19400582 0.2526593 0.48031494
000360 ad 05 d9 3d 49 8a 88 3c 60 81 01 3a 7f b9 e8 bc
       0.10596786 0.016667502 0.0004940238 -0.028408764
000370 72 d0 6a bd 41 37 f2 3d d1 90 55 3e 49 18 12 be
       -0.057327695 0.11826945 0.20856024 -0.14267077
000380 65 d5 43 bd 6e 63 94 3b 90 81 27 3e c5 0a 80 3e
       -0.04781093 0.0045284545 0.16358018 0.25008217
000390 bd 42 21 be d7 da 30 be c4 7d 8c 3d 17 fc a7 be
       -0.15748115 -0.17270981 0.068599254 -0.32809517
0003a0 93 60 5e bd 21 73 1a be 14 22 92 3e 75 c2 64 be
       -0.05429132 -0.1508298 0.28541625 -0.22339804
0003b0 1d b9 4c be 9b 08 8d bc 0c b8 1a 3f 76 dc 0f be
       -0.1999249 -0.017216017 0.60437083 -0.14048943
0003c0 79 a3 97 3e 84 a5 83 3e 58 8d 21 3e d9 06 5e 3d
       0.29616907 0.25712216 0.15776575 0.05420575
0003d0 b5 8a 47 3e 43 6d 1a be a2 f5 e8 bd a8 a8 95 3d
       0.19486506 -0.15080743 -0.11374976 0.07307559
0003e0 2c 59 ee 3c 9f 13 0b be c8 a0 6b be b6 a5 33 bb
       0.029095255 -0.13581704 -0.23010552 -0.0027412004
0003f0 b0 cd ac 3d f4 41 35 3e b2 e2 fb 3c 8b 13 1c be
       0.08437669 0.1770094 0.030747745 -0.1524183

affine_layers.0.bias f4 [64]
000000 d1 51 44 bd bb fc 43 3e 64 e7 a1 3d 74 c6 ed bd
       -0.04792959 0.19139378 0.079054624 -0.116101176
000010 57 78 5a be 73 d9 7d 3c 14 c7 7c 3e 53 2e 8a be
       -0.21334969 0.015493738 0.24685317 -0.26988468
000020 21 8b a3 be 4b 8b c5 bc 2a 27 99 be de 71 2d 3d
       -0.31942084 -0.024114272 -0.29912692 0.04234492
000030 2c 84 aa 3e 30 ec 3d be c1 1b 4b 3b ec 54 bc 3e
       0.33303964 -0.1854713 0.0030991884 0.3678354
000040 5e 2a a5 be de 78 03 3e f4 f1 62 3d 3a da 09 bc
       -0.32258886 0.12839076 0.055406526 -0.008413846
000050 46 6d 25 bd b6 5b 51 bd 0a 4b 81 be 65 3c d4 3d
       -0.040387414 -0.051112853 -0.25252563 0.10363082
000060 dc 34 b5 3c ec e0 1a 3e 49 53 4f 3e be 4e d4 bb
       0.022119932 0.15124863 0.20246615 -0.0064791134
000070 cf c1 aa bd ea 67 90 bd 51 16 00 3d 5f 3b b1 bd
       -0.08337747 -0.0705107 0.031271283 -0.08653902
000080 9a bc 72 bd 43 3b a1 3c e3 e4 bb 3d 6f 48 6f bd
       -0.059261896 0.019681579 0.09174516 -0.058418687
000090 7e a6 60 be 21 2e 9b bd 1c 07 d2 bb ca 9e 31 be
       -0.21938512 -0.07577158 -0.006409539 -0.1734573
0000a0 db 2c 23 3e 76 2a 9b 3e 79 15 a2 bb c9 46 83 bd
       0.1593508 0.30305833 -0.0049464074 -0.064099856
0000b0 83 1f c6 bd bc 19 0a be 10 c4 f3 bd d2 3b 85 bd
       -0.09673979 -0.1348638 -0.1190263 -0.065055504
0000c0 32 eb 6f bd 1b 51 fd 3d 29 9b c5 bd fe b7 64 be
       -0.05857391 0.12368985 -0.09648735 -0.22335812
0000d0 39 29 38 3d 0f 26 6a bd cd 52 86 3e 5e 0d 16 3d
       0.044961188 -0.0571652 0.26235047 0.03663384
0000e0 f1 3e e0 3d d2 7c e3 3d 6e b0 c5 be 96 b2 13 be
       0.10949505 0.11107792 -0.38611168 -0.14423594
0000f0 ad c2 4e be a9 5c eb bd fe 76 8c 3d 01 70 f3 3c
       -0.2019145 -0.11492283 0.068586335 0.029716494

affine_layers.1.weight f4 [64, 64]
000000 56 70 49 be ca af 08 be 6a 1e 00 bc e4 86 61 3d
       -0.19671759 -0.13348308 -0.007819751 0.055060282
000010 76 ec b9 bd 3a 7d 17 3e 9c 98 12 bf da fc 7d be
       -0.090783045 0.14793864 -0.57264113 -0.24803486
000020 fc 62 7c bc f6 d3 e4 3e bb 08 26 be e9 08 a9 be
       -0.015404459 0.44692963 -0.16214268 -0.3301461
000030 c3 c3 6e bd 70 57 89 bc 96 ec 32 3e 1a e6 3b bd
       -0.05829216 -0.016765326 0.17473063 -0.04587374
000040 fb c2 7f 3e 70 f6 63 3e e9 9d 88 3c a0 e3 b1 3e
       0.24976723 0.22261977 0.01667686 0.34743977
000050 de 24 20 bf 36 d4 e6 be eb ea 81 be fd 5b 08 bd
       -0.62556255 -0.4508378 -0.2537454 -0.03329085
000060 6a 24 9e bc 54 95 5f 3e 28 fa 58 3c a8 84 aa bc
       -0.019304473 0.21834308 0.013243236 -0.020815209
000070 23 f8 57 bd 50 72 84 be c5 0a a4 be e2 03 15 3e
       -0.052726876 -0.25868464 -0.32039467 0.14552262
000080 08 a2 e3 be 7b 81 39 3d e2 41 76 be 7b 4f b7 3e
       -0.44459558 0.045289498 -0.2404857 0.35802826
000090 42 1b 15 3e 56 b4 25 39 32 f0 a0 be bb ec 23 bd
       0.1456118 0.00015802807 -0.31433254 -0.040020686
0000a0 f7 0b cd bd 5a 30 04 be 28 72 5c be 93 d8 f1 bd
       -0.10012048 -0.1290907 -0.21527922 -0.118088864
0000b0 bb 81 40 bd 6f ae b9 bd 60 c1 e4 bd 62 40 01 3e
       -0.04699872 -0.09066474 -0.11169696 0.12622216
0000c0 1f 94 89 3e e8 87 9b be d2 81 28 3d 4f e2 0c 3e
       0.2687082 -0.30377126 0.04113943 0.13758205
0000d0 9f f2 25 3e 0e 92 1d 3e d3 58 33 be 6d f3 5a 3d
       0.16205834 0.15387747 -0.17514353 0.053454805
0000e0 36 cd 46 3e c9 d6 a4 bc e3 58 c5 3d 3b 05 90 bd
       0.1941422 -0.020121949 0.096360944 -0.07032248
0000f0 97 7e ad 3d 94 98 04 3f 50 6e c9 3e 82 56 46 3e
       0.08471411 0.51795316 0.39341974 0.19368938
000100 4f c0 ec 3e 6d 8f 16 bd 71 eb 82 be de b7 11 be
       0.4624047 -0.036757875 -0.25570253 -0.14230296
000110 ef 8e 68 be d0 01 41 be 5b 56 57 be 3f a2 ea 39
       -0.22710775 -0.18848348 -0.21029036 0.0004475284
000120 30 4c ad be eb 6f c9 3d 7c af 35 3d 0e 4d f9 3d
       -0.3384719 0.098358 0.044356808 0.121729
000130 ed 30 5b bd d1 58 79 3e c1 13 e3 bd 13 12 94 be
       -0.053513456 0.24350287 -0.11087752 -0.2892004
000140 87 9d 3b bd c4 00 19 3e 92 f3 30 3e 63 57 81 3e
       -0.045804527 0.14941698 0.17280415 0.25261983
000150 0b 01 91 be 03 f2 96 be 65 60 7c bb 4f 25 40 be
       -0.28321108 -0.29481515 -0.0038509604 -0.18764232
000160 bb 99 52 be 2f d7 88 be 17 46 a6 3e 82 a6 80 be
       -0.20566456 -0.26726672 0.3247535 -0.25127035
000170 88 fe b6 3e 5f 0a d6 be 40 93 a6 be 04 f0 b6 bc
       0.35741067 -0.41804788 -0.32534218 -0.022331245
000180 eb de 30 be 9b 86 6d bd 4c 91 5f be 47 ba c9 3d
       -0.17272536 -0.057989698 -0.2183277 0.09849983
000190 a3 bb 06 3e 6e fe 36 bd 41 fa 60 3c a5 c9 15 3d
       0.13157515 -0.044676237 0.01373154 0.036569256
0001a0 1b 02 48 3e 86 c1 62 3e 51 5a 10 be 1e 45 62 bd
       0.19532053 0.22144136 -0.14096953 -0.055241697
0001b0 3a 83 75 3e a8 39 86 3d e2 9b 1e be 7f 5c 52 3e
       0.2397584 0.06553966 -0.15489152 0.20543097
0001c0 94 11 a4 3e 6a 3d 98 3c d4 19 3b 3e 32 50 31 bd
       0.3204466 0.018583972 0.18271571 -0.04328937
0001d0 a6 01 89 3e 88 1a 25 3d 8b e9 e4 3d 0c 00 2e 3d
       0.2675907 0.040308505 0.11177357 0.042480513
0001e0 0f c5 41 3e 20 89 78 3d d6 a9 58 3c ec ff 6e 3c
       0.18922828 0.060677648 0.013224086 0.014587384
0001f0 65 e3 19 3c f3 af 28 be 70 4b 5c be db 7d 2a 3e
       0.009392594 -0.1647337 -0.21513152 0.16649573
000200 98 09 a7 3d 76 93 b8 3c c7 a5 82 3d 39 8d 4b 3e
       0.08156127 0.022531252 0.06379276 0.19878091
000210 a8 e0 07 3d 6d 25 9b ba 12 f0 22 3e 65 0c a2 be
       0.033173233 -0.0011836715 0.15911892 -0.3165008
000220 78 f3 14 be 3b 34 b7 3d 38 bf 8a 3d ef 35 a2 be
       -0.14546001 0.08945509 0.06774753 -0.31681773
000230 17 a0 6d be ba 0d 1a 3e ad 71 f3 bd eb e4 36 3d
       -0.232056 0.15044299 -0.11886916 0.044651907
000240 2c e9 64 3e c8 90 ac 3d 37 b3 9f 3c 12 92 a9 bc
       0.22354573 0.08426052 0.019494636 -0.020699535
000250 90 f3 20 be e9 6b e6 3b 0d f0 3c 3e f8 b3 0e bf
       -0.15717912 0.007031907 0.18450947 -0.5574336
000260 2c f9 98 3e eb fb fb 3d 5f 7c 60 bd 8c 8c 01 bf
       0.29877603 0.12303909 -0.05480611 -0.5060508
000270 5f f0 20 bd c9 d6 00 3e 54 f7 2a 3e e8 69 f8 3d
       -0.039291736 0.12581934 0.1669591 0.12129575
000280 34 3d 22 be f9 1a c4 be 54 f5 b8 be b9 20 35 be
       -0.1584366 -0.38301829 -0.3612467 -0.17688264
000290 8f d2 88 bd f8 90 8e 3e 40 a0 f1 bc c9 64 5b bd
       -0.06680786 0.27844977 -0.029495358 -0.053562913
0002a0 fd a7 58 be fa 49 a4 3d 2f 3f 05 bf 74 47 06 3e
       -0.21157832 0.080219224 -0.52049536 0.13113195
0002b0 23 aa d7 be cd a6 d5 3d 4e 82 67 3e 3a 2d 07 be
       -0.42121992 0.10432205 0.22608301 -0.13200846
0002c0 f0 c1 65 bc e1 52 05 3e 73 9f a3 3e 41 a7 c0 bd
       -0.014023289 0.13019897 0.31957588 -0.09406901
0002d0 f4 3e 51 3e f4 2d e3 bd 54 12 07 be 0e b4 c0 3d
       0.20434171 -0.11092749 -0.13190585 0.09409343
0002e0 c2 de 5d be 27 da 28 bd 1e 69 b1 bd 49 83 e4 bd
       -0.21667007 -0.04122367 -0.08662628 -0.11157853
0002f0 c6 ec 61 ba e0 8c 29 3d 87 5e 5a bd 71 63 1c be
       -0.0008618351 0.041394114 -0.053312805 -0.15272309
000300 00 3b 87 3e 7e 1e 74 3d be 9d c0 bc 31 0e d5 bd
       0.264122 0.059599392 -0.023512717 -0.104030974
000310 f0 e2 1a be fb 08 13 be 33 46 16 bd 0e 31 2c be
       -0.15125632 -0.14358895 -0.03668804 -0.16815588
000320 30 fa 70 be 58 32 d9 bd 98 db 45 3c 0d 23 17 be
       -0.23532939 -0.106053054 0.012076281 -0.14759465
000330 c9 8f 1c 3e a1 48 37 be 76 7f 2b bd 92 6c 80 3e
       0.15289225 -0.178988 -0.041869603 0.25082833
000340 61 c2 9b be 99 0a 8b be 58 1b 08 be 7f 4c cd 3c
       -0.30421737 -0.27156523 -0.13291681 0.02506089
000350 df f6 cf bc 06 dd 15 3e 39 fd 94 3e 35 38 b2 3d
       -0.025386272 0.14635095 0.29099444 0.08702127
000360 92 c7 de 3d 09 b8 70 bc 1e bf 87 3e 6c 03 13 bb
       0.10877909 -0.014692315 0.26512998 -0.002243246
000370 3a e7 6a be 27 e1 92 3c a0 8a 89 be d5 68 e9 bc
       -0.22939768 0.017929627 -0.26863575 -0.02849237
000380 01 47 17 3e 5f 04 95 3e 7a be 2d be c1 41 8d be
       0.1477318 0.29104897 -0.16967192 -0.2758923
000390 8d dd 1d be 3b 8e b2 bd 34 21 34 3d 04 0a c9 3d
       -0.15416546 -0.087185346 0.043976977 0.098163635
0003a0 a8 22 3b 3e 42 95 4d 3d c8 77 c9 3e 2c 24 c0 3e
       0.18274939 0.05019117 0.39349198 0.37527597
0003b0 12 a4 0f 3d d8 cc d5 bc 23 b5 63 3d ca d1 97 be
       0.03506858 -0.026098654 0.055592667 -0.29652244
0003c0 01 55 8f be df 7d c6 3e a5 63 60 3e 44 5b eb 3e
       -0.2799454 0.38767907 0.21913011 0.45968068
0003d0 73 ba af 3d 77 52 7e 3c ca 4e 9f 3d 34 2d 91 be
       0.08580484 0.015522591 0.077787 -0.283548
0003e0 0a 1f 8a bd ff 43 b5 be 28 c4 e0 be f9 56 39 3e
       -0.067442015 -0.3540344 -0.43899655 0.18099584
0003f0 86 17 d3 be be d8 05 3e 57 7b 09 3c cb 63 6d 3e
       -0.41228884 0.13070962 0.008391223 0.23182599

affine_layers.1.bias f4 [64]
000000 20 bd d4 3c 67 8f 25 bd 83 9b 56 bd 0d 4c f1 3d
       0.025969088 -0.040419962 -0.0523944 0.11782084
000010 e6 df aa 3d d3 76 b3 3d 99 d0 c1 3d 82 de 6f be
       0.083434865 0.08762898 0.09463615 -0.23424724
000020 34 1d 11 be c9 2a 24 be 1e fe 6d bd 43 fe ed bc
       -0.14171296 -0.16031946 -0.058103673 -0.029051905
000030 ff dc 3c bd 3a ce 9c 3d 0e f2 88 3b dd 4a a2 bc
       -0.046109196 0.07656522 0.004179246 -0.019811088
000040 d4 9d 16 be 87 31 4e 3e e7 6b fa 3c c5 80 ed bd
       -0.14708644 0.2013608 0.03056903 -0.115968265
000050 64 4b 85 3d 1a 2f fc bc 53 49 04 be 6f 92 00 3d
       0.0650852 -0.030784179 -0.12918596 0.03138965
000060 51 bd 35 3e 38 e7 25 be 0a a5 2e bd 2a 3c d5 bd
       0.17748 -0.16201484 -0.042637862 -0.10411866
000070 45 70 cd bd 16 8f 03 3e 6a c2 8f bd db d1 a9 3d
       -0.10031179 0.12847552 -0.070195034 0.0829198
000080 ba 29 03 be 86 dc a6 bd 67 82 e9 bc a8 ee 83 3d
       -0.12808886 -0.0814753 -0.028504563 0.064420044
000090 bf 2d 05 3d 51 16 3c 3d 46 1b 16 3d 37 71 3a 3d
       0.03251433 0.04591972 0.036647104 0.045518126
0000a0 c6 44 f4 bc 40 36 a8 bc 5e 07 9f 3d bb 12 33 bc
       -0.02981795 -0.02053368 0.07765077 -0.010929759
0000b0 0e f4 4f be 58 3c 5a 3e e1 e1 a3 3e 5d 30 f2 bd
       -0.20307943 0.21312082 0.3200827 -0.11825631
0000c0 6a c3 27 be 2f 6e d4 bd 3f aa 57 3d c8 f3 fe 3d
       -0.16383138 -0.10372578 0.052652594 0.12448841
0000d0 6e e6 d3 bd 94 61 2d 3e a9 45 65 3d b7 d5 0a be
       -0.10346685 0.16931754 0.055974636 -0.13558088
0000e0 e6 04 c8 bd 1e 3a 06 3d 4b cb bb bd 9f 5a 13 be
       -0.09766559 0.03277027 -0.091696344 -0.14390038
0000f0 a0 27 8e 3c da 81 2d 3e 6b dd 40 3e 4f b8 1b 3d
       0.017352879 0.16944066 0.18834464 0.038017567

final_mean.weight f4 [6, 64]
000000 e4 37 37 be f3 9a 8d bd 46 ea a0 bd 1b f9 d5 3d
       -0.17892414 -0.0691432 -0.07857184 0.10447904
000010 ec 37 88 bd b6 14 18 3d b8 6d b5 bc ff 4d c2 bd
       -0.06651291 0.037129126 -0.022147045 -0.09487533
000020 f9 23 23 3d 66 eb d0 bd 26 d8 27 bd fe 5f 74 bd
       0.039829228 -0.10201149 -0.04097762 -0.059661858
000030 2f 85 bf bd c9 78 a2 bd 66 2a 20 3d 17 75 e5 bd
       -0.09351575 -0.07933194 0.039102934 -0.11203974
000040 9d 3b 99 bd 16 5a 44 3d c3 cc fe 3c 94 81 73 bd
       -0.074820735 0.047937475 0.031103497 -0.059449747
000050 23 76 93 3d ce f4 b0 bd c7 f8 b8 bd b7 4e 11 bd
       0.07200267 -0.08640443 -0.090318255 -0.03547546
000060 01 5f 6f 3d 45 6c 79 bd 70 fb 39 3d 82 4f 6c bd
       0.058440212 -0.06089427 0.045405805 -0.057693012
000070 59 b7 2f bd 5e bc 03 3d 83 e0 b9 bc 38 0e 8d bc
       -0.042899463 0.032162063 -0.022690063 -0.017218694
000080 13 e8 d3 bd 3b 4e dc bd 62 c3 1c 3c 27 f7 99 3d
       -0.10346999 -0.10757109 0.009568067 0.07517844
000090 0e a7 09 3e 0f af 30 3c 1c bc a4 3c b8 9a 42 bc
       0.13442633 0.010783925 0.020109229 -0.011877708
0000a0 d8 6d 56 bd 2d 32 71 bd 88 3a a8 bc 27 9f 45 3d
       -0.05235085 -0.058885742 -0.020535722 0.048247483
0000b0 61 4e b3 bc 62 cb 90 3d f1 91 ba bc f5 86 1e 3b
       -0.02188796 0.07070042 -0.022774668 0.0024189327
0000c0 c7 f8 d2 bd ee 13 4c bc 81 46 b1 3b fc d3 8b 3d
       -0.10301357 -0.0124559235 0.005410016 0.06827542
0000d0 ac 46 40 3d 7e 8f 48 3d ce 85 5e 3d 54 52 f3 bc
       0.046942398 0.04896497 0.054326825 -0.029702343
0000e0 61 41 82 3d 0b 03 89 3d a2 7c f3 3d 92 62 61 bd
       0.06360126 0.066900335 0.11889006 -0.055025645
0000f0 58 1d 62 3c 20 7a 8d 3d 6b 9b 70 3b 8a dd 8a 3d
       0.013800941 0.06908059 0.003671373 0.067805365
000100 7e a8 6d 3c b2 38 77 3c 37 92 ae bd 48 4b 7e bd
       0.014505504 0.015089201 -0.08523982 -0.062083513
000110 79 9f e6 3d 11 36 61 3d 6c 29 f6 bc f7 f9 13 bd
       0.11260886 0.054983202 -0.030049048 -0.036127057
000120 32 12 07 3d 15 94 41 bc 22 f6 5b bd af 3f 04 3b
       0.032976337 -0.011815091 -0.053701527 0.002017956
000130 3b 34 d5 bd a7 e0 24 bd a6 3d fc 3c 60 ae 1b bc
       -0.10410353 -0.040253308 0.030791115 -0.009502023
000140 02 9b 8b bc 9b 41 1f 3d 3d ef ad bc c7 3d 35 3e
       -0.017041687 0.038880926 -0.021232242 0.17699347
000150 e4 28 c7 bd e5 89 05 be 6a 3e 7b bd 30 50 17 bd
       -0.09724596 -0.13040884 -0.06133882 -0.036941707
000160 cd e1 89 bc b6 38 d9 bc f1 96 e1 3c a8 33 af 3d
       -0.016831303 -0.0265163 0.027537795 0.085547745
000170 7b c5 47 3d 91 9e 2b 3d b2 45 cf 3b 9f 9b 0a bd
       0.048772316 0.041899268 0.006325447 -0.033839818
000180 d3 4c a3 bd 80 8c 3d be af 81 8a bd 90 69 84 bd
       -0.079736374 -0.18510628 -0.067630164 -0.06465447
000190 87 63 7a 3d 28 a2 e0 bd 7d 89 dd 3c 58 33 8e bd
       0.061130073 -0.10968429 0.027043099 -0.06943387
0001a0 62 7a 9d 3d 42 a0 0e be db df 87 bd de 1e 06 3e
       0.07689358 -0.13928321 -0.06634494 0.13097712
0001b0 82 9e df bc 98 32 44 3d 47 77 fa bd f9 0f 2c 3d
       -0.027297262 0.047899812 -0.122297816 0.04200742
0001c0 55 a8 33 3b e7 b9 9e 3d f9 03 03 be c3 f7 9f 3d
       0.0027413566 0.07750302 -0.12794484 0.07810929
0001d0 39 07 87 bd 8c 79 8d bb 43 9d 1b bd 21 f1 18 bb
       -0.065931745 -0.004317468 -0.037991773 -0.0023337083
0001e0 10 ed 80 bd 75 68 3c 3d 0c 5f c0 3d bc d2 ed 3d
       -0.06295216 0.045998055 0.09393129 0.1161246
0001f0 17 57 c2 3d 1c 2f 23 3d 9e 1d ae bd 06 f5 d2 bc
       0.09489267 0.03983985 -0.08501743 -0.025751602
000200 12 d6 7e bd 4e 8f 14 bc be 2e a1 3a 7d aa 6c 3d
       -0.062215872 -0.00906737 0.0012297255 0.057779778
000210 8e b3 c2 bd 3d 16 7c 3c 73 70 27 bd a1 64 f5 bc
       -0.095069036 0.015386161 -0.040878724 -0.02995521
000220 2b 4a 45 bc 55 81 97 bd 3d 16 96 bc d1 c4 49 bd
       -0.012041609 -0.07397715 -0.01832115 -0.049259964
000230 d5 55 3c bb b6 fa bd bc 99 ec f4 bc 37 07 1b bd
       -0.0028737683 -0.023190837 -0.029897975 -0.037848677
000240 00 6f 73 bd ed cc 54 bc 8d 90 93 3d d8 e8 f4 bd
       -0.05943203 -0.012988311 0.07205305 -0.11958474
000250 46 c4 e2 3c bd bd 13 bc 8c a2 03 bd 6a 5a 03 3d
       0.027681481 -0.009017405 -0.03213744 0.032068647
000260 96 f2 52 3d 31 64 0a bd 48 5c d2 bc 77 7e 5d bd
       0.05150088 -0.033786956 -0.025678769 -0.054075684
000270 e5 6f 62 3c a4 32 9e 3d 8f 27 24 3d f7 66 2a bd
       0.013820623 0.07724503 0.04007679 -0.0416021
000280 11 35 9c bd f8 85 30 3c ce 4e 8f 3c 34 12 2d 3d
       -0.07627309 0.010774128 0.017493632 0.042253688
000290 80 18 7b 3d fe 10 9f 3d aa 8d 30 3c 4e 3d fa bb
       0.061302662 0.07766913 0.010775963 -0.0076367026
0002a0 ca eb c4 3c ff c5 0a 39 ad a2 97 ba bd 7d 3a bb
       0.024038214 0.00013234465 -0.0011568867 -0.0028456294
0002b0 7b ba 0c 3d 7b 08 38 3d 9b ca b2 3d c0 d9 c0 bc
       0.03435753 0.044929963 0.0873005 -0.023541331
0002c0 39 b9 a3 bd 3b 0b 0e 3c f0 0e f3 3c 36 b2 18 bd
       -0.07994313 0.00866967 0.029670209 -0.03727933
0002d0 70 1d 23 3d 8d 03 34 3d dd 6f 3a bc cf fe b8 bc
       0.039822996 0.0439487 -0.011379209 -0.02258244
0002e0 4c fe df 3b fa 57 18 3d 3f 09 fc bc 4e 08 7c bd
       0.0068357345 0.037193276 -0.030766128 -0.061531357
0002f0 59 0d bb bc d1 aa ac 3c 99 70 9a 3b 79 4d 47 3d
       -0.022833513 0.021077545 0.0047131297 0.048657868
000300 2c e0 3e bd 2e 38 4c bc 20 c6 b7 bd 0c 46 e0 bb
       -0.046600506 -0.012464566 -0.08973336 -0.0068442877
000310 75 8c 88 bc 87 c3 b5 bd 7a e8 3a bd e4 4d 22 3b
       -0.016668538 -0.088751845 -0.045631863 0.0024765665
000320 44 ec 2e bc 43 5a 9e 3d b0 6d 64 bd f2 95 70 3a
       -0.010676447 0.0773206 -0.05576867 0.0009177617
000330 a4 72 dd bc 2b 19 3d 3c 5e de a5 bd 0c 08 8c 3c
       -0.027032204 0.011541645 -0.08099054 0.01709368
000340 78 b2 42 bd fd ac 37 be c0 6c 0b 3d 98 77 c9 3d
       -0.047533482 -0.17937084 0.03403926 0.09837264
000350 73 b5 2d bd 80 e3 37 3c 31 d7 74 bc 28 7c 26 be
       -0.04240937 0.011223674 -0.014943884 -0.162583
000360 f2 0c a3 bd e1 d6 36 3e 57 0f 96 bc d2 a3 45 3d
       -0.079614535 0.17855407 -0.018317861 0.048251934
000370 c7 d9 1e be 18 04 60 bd 8e 86 9e 3b 3a ab 6f 3d
       -0.15512763 -0.054691404 0.0048378175 0.058512904
000380 2d e0 4e 3d 6d 47 97 3d 24 b5 58 3d f4 fe 78 bd
       0.05050676 0.0738667 0.052907124 -0.060790017
000390 d5 85 80 3c f5 88 67 3d 23 90 fd bd 94 be 1c be
       0.015688816 0.056527097 -0.123810075 -0.15307075
0003a0 29 10 80 3d d0 3d 99 3c ce ab 09 be 0d a7 1c bb
       0.06253082 0.018706232 -0.13444445 -0.002390328
0003b0 88 17 5b bc 22 7a 48 bd ed 29 86 bd 63 66 3b 3d
       -0.0133723095 -0.0489446 -0.065509655 0.04575194
0003c0 48 eb 89 bd 80 b9 80 3d 9c b6 61 3d 0d 3e 9b 3c
       -0.067343295 0.06285381 0.05510579 0.018950487
0003d0 e7 cf 46 bd 2d 97 8b bb 8c be 7f bc 76 45 e5 3b
       -0.048538115 -0.004259965 -0.015609395 0.006996806
0003e0 79 fa b0 bd 2d e4 9b bc b6 8d f6 bd e2 e3 91 3d
       -0.08641524 -0.019029701 -0.12038748 0.07123543
0003f0 e6 f4 03 bd 87 c3 09 3e ed d7 a2 3d 98 c9 af 3c
       -0.032215975 0.13453494 0.07951341 0.021458432

final_mean.bias f4 [6]
000000 e2 de ea 3d 74 db 3c 3b 74 1a ae 3d 98 14 09 bd
       0.11468293 0.0028817328 0.08501139 -0.033466905
000010 03 aa 72 3c 0d c9 3a be
       0.014811042 -0.18240757
