WocaR-PPO/src/release_models/WocaR-PPO/wocar_halfcheetah.model (torch, 883450 bytes, 54 tensors)

embedding_layer.weight f4 [64, 17]
000000 46 c9 16 3c 28 ae 93 3e 9c ce cc 3d 06 af 07 be
       0.009203261 0.28843808 0.10000345 -0.1325036
000010 87 92 8e 3d 16 a9 c5 be 76 6b 22 be 84 42 02 be
       0.069615416 -0.38605565 -0.15861306 -0.12720686
000020 00 30 13 be 79 9a 6a be ee 2e bb 3d 67 f0 02 3d
       -0.1437378 -0.22910489 0.091398105 0.031967547
000030 1e b5 2d bd 3f fd c3 3c 12 ce 01 be 20 03 1c 3e
       -0.042409055 0.023924468 -0.12676266 0.15235567
000040 42 87 33 bc b7 30 74 3e a6 36 7d 3e cb 25 14 be
       -0.010957541 0.23846708 0.24727878 -0.14467542
000050 0d 02 21 bd d3 96 1f bd c7 1f 48 be c3 59 d2 bd
       -0.039308596 -0.038962197 -0.19543372 -0.10271027
000060 68 15 5d bd 36 7d d5 be cb ab 28 3e ba e2 2e 3e
       -0.053975493 -0.4169709 0.16471784 0.17078677
000070 ee c4 da 3d d6 19 16 3d 85 ea 92 3d da 63 0d bc
       0.106820926 0.036645733 0.07173637 -0.0086297635
000080 78 4b 77 3c 3d 8b 25 3e 3e d4 30 be 45 fe 54 3f
       0.015093677 0.16166396 -0.17268464 0.83200485
000090 75 a9 9c 3d 49 17 0f bb a4 47 69 3d 79 8b 9e 3e
       0.07649509 -0.0021833947 0.056953087 0.30965784
0000a0 21 f9 d0 3d e8 47 bd 3d 45 66 1a be 49 40 9d bd
       0.102037676 0.09242231 -0.15078075 -0.07678277
0000b0 b0 85 22 3e 37 e7 c7 3d 9e 08 17 3e 54 0e 75 bd
       0.1587131 0.097608976 0.14749381 -0.059828117
0000c0 24 38 b2 bd 47 dc aa 3d 56 e7 99 3d 07 62 75 3c
       -0.08702114 0.08342796 0.07514827 0.014976985
0000d0 7a b5 38 3d 07 fe 96 be 5b 49 1d 3e a7 c9 ed bb
       0.045094945 -0.29490682 0.15360014 -0.007256705
0000e0 6e 5f 46 3c be 55 5b bd 84 5e b8 3d 1c c1 dc 3c
       0.012107713 -0.053548567 0.090024024 0.02694755
0000f0 83 98 66 bd 93 2b 12 bd 5d 4f 01 be 30 66 4a be
       -0.05629779 -0.035686087 -0.12627931 -0.19765544
000100 52 eb e1 bd 4f a9 47 be 4b 6d cf 3d 2c 4d bb bd
       -0.11031212 -0.1949818 0.10128268 -0.09145579
000110 4f 0b 24 bd e6 30 94 3c 8b 04 7d bd 8e ff 65 bc
       -0.040049847 0.018089723 -0.06177191 -0.01403798
000120 ca 98 01 39 ee 87 3d 3d ee c0 92 bc a0 0b c3 bc
       0.00012359317 0.04627221 -0.017914262 -0.023809254
000130 c0 19 ca 3c b3 df 90 3e 94 be 97 bd b7 59 86 3d
       0.024670482 0.2829567 -0.07409397 0.065600805
000140 1b 11 b9 bd bf be fc 3c 71 a0 be bd aa 84 ef bd
       -0.09036466 0.030852674 -0.093079455 -0.116952255
000150 a8 8a e6 bd 77 35 18 3c 36 2b f0 3d a3 cc ed bd
       -0.11256915 0.009290091 0.11726992 -0.11611297
000160 00 2a fa bc 1b 6d 0c be b7 db ad 3d f8 91 2e 3c
       -0.030537605 -0.13713495 0.08489173 0.010654919
000170 48 26 41 3d b5 26 c2 3c 3e 51 a7 be 7c 21 00 be
       0.04715565 0.023700098 -0.3267917 -0.12512773
000180 ce 7a 3b 3e 41 85 3b be 21 e1 15 3e ca 6d 90 bd
       0.18308565 -0.18312551 0.14636661 -0.070521906
000190 27 25 67 3d 04 6f fb 3b b4 11 b0 bd c7 45 83 bd
       0.056431916 0.007673146 -0.085971266 -0.06409793
0001a0 53 27 fa bc 5e 1e 9d 3b c5 ad 56 be ad 3a fb bc
       -0.03053633 0.00479488 -0.20964725 -0.030667627
0001b0 7b f2 dc 3d 86 43 3f 3d a3 7d 81 3d b8 73 48 3e
       0.10788437 0.046695255 0.063227914 0.19575393
0001c0 59 80 5d bd 7a a9 66 bd 1c e2 2a bd 27 da 25 bc
       -0.05407748 -0.05631397 -0.04171954 -0.010122812
0001d0 9c e8 89 bd b0 bc 3f be 07 86 5d bc 06 43 8d 3d
       -0.0673382 -0.18724322 -0.013520724 0.06897549
0001e0 49 c8 ce 3c 1c b6 31 bd 9b 2d 08 be 8a b6 5b b9
       0.025241988 -0.043386564 -0.13298647 -0.00020953469
0001f0 78 e2 9c 3b a5 01 39 bd 54 9c c1 bc d6 27 46 3c
       0.0047877394 -0.045167584 -0.023634113 0.012094459
000200 9a 10 c2 bd e4 59 07 3c 57 5a f2 3c ea a0 02 3c
       -0.09475823 0.008261178 0.029584093 0.007972935
000210 a1 cd 08 be c9 12 b1 be 0e fa fa bd af 5d 16 3e
       -0.13359691 -0.34584644 -0.122547254 0.14684175
000220 10 4f 33 bd aa 3f 62 be 03 08 fa bc 79 53 14 3e
       -0.04377657 -0.22094598 -0.030521398 0.14484967
000230 9d 1d 65 bd 37 50 3c bd 12 13 bd bb 82 6f 27 bd
       -0.055936445 -0.045974936 -0.0057700956 -0.040877827
000240 43 a4 ae 3c be dd d5 3c 0d 6f c7 bd 9b a7 c7 bd
       0.02131856 0.026106711 -0.09737978 -0.09748765
000250 3d 5d de bd 94 ce 06 3e 53 7b 01 bd fb 60 c0 bd
       -0.108576275 0.13164741 -0.03161175 -0.093934976
000260 cf be bd bd cf ba 62 3c 7e 7c a4 3c be 81 f2 b8
       -0.092649095 0.013838484 0.020078894 -0.000115636256
000270 f1 e1 ab bc 92 c3 c0 bd 27 36 c3 bd a5 39 0f 3e
       -0.02098176 -0.09412302 -0.09531813 0.13986833
000280 9a 5f fc bc c4 71 56 bd c8 43 82 3e 85 45 9f 3d
       -0.030807305 -0.05235459 0.25442338 0.07776932
000290 39 e2 42 3e 8c 8c bd 3d 66 26 6a 3d a4 dd be 3e
       0.1903161 0.09255323 0.057165526 0.37278473
0002a0 1d 52 0a 3e 77 1b 01 bd 46 15 c2 bd b3 90 7c 3e
       0.13507886 -0.031520333 -0.09476714 0.24664573
0002b0 3c b5 18 be 6b ea b0 bd 47 32 0d bd 54 ea 19 bd
       -0.14912885 -0.08638462 -0.034471776 -0.03757699
0002c0 91 00 1a bd ee f1 cf bc 78 be 17 3e 52 de 86 bd
       -0.037598196 -0.025383916 0.14818752 -0.06585373
0002d0 af da 52 be b9 c2 d2 3c fb 41 43 be e1 36 93 3d
       -0.20591234 0.025727617 -0.19068138 0.07188202
0002e0 0d 17 87 bd f0 2c 80 bc dc 91 ab bd a2 a8 2d 3d
       -0.065961935 -0.015646428 -0.0837743 0.04239715
0002f0 46 dd ba 3d 00 9e 49 3e 29 7c 12 3e 6b f7 9b 3d
       0.09124236 0.19689178 0.14305176 0.076155506
000300 ba c2 74 bd 11 5a b5 bd 00 34 e8 3c 12 49 b9 bd
       -0.05975602 -0.088550694 0.028345108 -0.0904714
000310 9f 37 f5 3d 33 20 5a 3e c7 92 74 3d 37 6d 7d 3e
       0.119734995 0.21301346 0.05971029 0.24748693
000320 f4 37 4c 3d f8 ca e1 3d a1 d3 21 3e 54 a9 ec bc
       0.04985805 0.11025041 0.15803386 -0.028889336
000330 a2 60 08 be fd 88 8b be 4d 8e db 3d b0 15 df 3c
       -0.13318112 -0.2725295 0.10720501 0.027232021
000340 35 f5 e9 3c 6a 66 8b 3d 46 b6 ef bd a7 70 89 3d
       0.028559307 0.06806643 -0.11704688 0.0671094
000350 ba 12 ed bd df 93 ab 3c fa 1e 85 3e 37 52 a8 3d
       -0.115758374 0.020944534 0.26000196 0.08218806
000360 41 01 81 3d 3c 56 15 3d cd c4 28 3d 85 43 d7 3d
       0.06299067 0.036459193 0.04120331 0.10510925
000370 1b 22 ad bc ab 8b 13 3b 3f 59 8d 3d 29 24 e5 bd
       -0.021134427 0.0022513669 0.06901788 -0.111885376
000380 5a b4 1f bc 78 12 e1 3d ac 15 87 bd b7 7d 25 3d
       -0.009747589 0.10989851 -0.065959305 0.040403094
000390 71 53 fd 3c da a1 30 bc 91 36 71 bd 50 7a 51 bc
       0.030923577 -0.010780776 -0.05888993 -0.012785509
0003a0 1e ab 76 bd f9 a8 42 3e 43 ea 11 3e 41 8f 6f bd
       -0.060221784 0.1900977 0.1424952 -0.058486227
0003b0 05 b4 49 3d 5a 8d 91 ba f7 a2 05 bd 5d 9e 86 be
       0.049243946 -0.0011104748 -0.03262612 -0.26292697
0003c0 a9 ee 89 bd 18 c7 0d bd da 61 cb bc 6e 02 32 be
       -0.06734974 -0.0346137 -0.024826933 -0.1738374
0003d0 a4 93 b0 bd dc 0a 92 3c 0a a9 17 bd 55 7b 26 be
       -0.0862191 0.017827444 -0.037026443 -0.16257985
0003e0 61 51 22 be cc 22 4f be 8b eb 8d be 55 c9 49 bd
       -0.15851356 -0.20228118 -0.27718768 -0.04926427
0003f0 a8 a3 7c be 09 48 b3 bd e1 f8 2f 3c 27 ac 52 be
       -0.24671805 -0.08753974 0.01074049 -0.20573483

embedding_layer.bias f4 [64]
000000 eb 6f 56 bd bc dd 87 be 27 98 fd be b0 22 ce 3d
       -0.052352827 -0.26536357 -0.49530146 0.1006521
000010 9d 7a 62 bd 7b 77 27 3e f1 74 25 be c8 e9 67 3c
       -0.055292714 0.16354172 -0.16157891 0.014154859
000020 4a 9f d7 bd e4 2c f5 bd 1a bb ed 3d 2d c7 cc be
       -0.10528429 -0.11971453 0.116079524 -0.3999571
000030 84 81 3c 3e 81 79 f6 3c 22 9c bc 3e 3d cd e5 3d
       0.18408781 0.030087234 0.3683787 0.11220787
000040 68 f6 32 3e e7 65 5a be df 0d f9 3c 1e db 86 3d
       0.17476809 -0.21327935 0.030402122 0.06584762
000050 dd 35 10 be b6 9f 84 bd 7e b9 68 3d 54 a8 a2 3c
       -0.14083047 -0.06475775 0.056817524 0.019855656
000060 7c 7e 89 3d 50 22 63 3e d2 19 55 3c 9f 8c ae bc
       0.06713578 0.22181058 0.013006644 -0.021307288
000070 b9 d4 0d 3e a4 d7 4e 3e 2e d6 65 be e9 12 ca bc
       0.13850679 0.20199448 -0.22444984 -0.02466722
000080 4b b2 27 3e cc e6 b2 3a 6d f5 65 be 8f 4c 1e 3e
       0.16376607 0.0013649105 -0.22456904 0.15458892
000090 92 39 94 3c 81 58 a5 3d e9 a6 0a be 3e f0 b1 bd
       0.018093858 0.080735214 -0.13540234 -0.08688401
0000a0 9a 2a 86 3e 73 b4 15 3d bc f1 b4 bc 37 2b 3e 3d
       0.26204377 0.036549043 -0.022087924 0.04642793
0000b0 44 b5 b0 3e 6d a5 1d be 35 ff 03 3d d6 ae 80 3e
       0.34513295 -0.15395136 0.032225806 0.2513339
0000c0 5b ad 64 be a8 01 4d be 12 88 cc 3d 75 b5 bb bd
       -0.22331755 -0.20020163 0.09986891 -0.091654696
0000d0 39 b6 31 be 43 5d a0 bd 78 e5 fd 3e 1f fb 03 3e
       -0.17354669 -0.07830288 0.49589133 0.12888764
0000e0 c6 ff a9 be 88 df d6 3e e6 e1 3c 3e bc aa 92 ba
       -0.33202952 0.41967416 0.18445548 -0.0011189799
0000f0 75 06 76 bb 0f ae d5 bd 9c c4 86 3d 35 fe b1 be
       -0.003754047 -0.1043359 0.06580469 -0.34764257

lstm.weight_ih_l0 f4 [256, 64]
000000 24 c6 33 be 9c e1 07 be 27 fe b1 be 5a c4 64 be
       -0.17556053 -0.13269657 -0.34764215 -0.22340527
000010 6e 7f 7a 3e be a4 ba 3e 0b b1 18 3e b2 7a 02 bf
       0.24462673 0.36453813 0.14911287 -0.5096847
000020 2e e2 cd bd 05 c3 49 bd e6 09 9d be a0 72 5c bd
       -0.10052906 -0.04925825 -0.30671614 -0.053820252
000030 28 92 12 3f 7c 76 a0 3d 47 cb eb 3d 2d 48 c8 3d
       0.57254267 0.07835099 0.115133815 0.097793914
000040 b5 5d 88 bd 04 3e c2 be d4 6d 9f 3e a8 e6 ef 3d
       -0.06658498 -0.3793794 0.3113848 0.11713916
000050 9d 9a 94 be e4 69 a6 bd bd ea a2 3e 15 ad 3c be
       -0.2902421 -0.08125666 0.31819716 -0.184254
000060 a8 25 de be d6 2c 9a 3e 2d 4e b9 bd 85 ba ad bd
       -0.43388104 0.30112332 -0.09048114 -0.084828414
000070 16 c9 80 be 80 04 4d bd 0e da 2e be a0 4f d7 bd
       -0.25153416 -0.05005312 -0.17075369 -0.10513234
000080 be c6 aa bc 52 70 f1 3c 9d a7 39 be fa 41 92 3d
       -0.02084672 0.029472504 -0.18130346 0.0714149
000090 e8 23 9c 3d 39 7c 12 be f7 ea 17 bf d0 7c 96 bb
       0.07624036 -0.143052 -0.593429 -0.0045925155
0000a0 84 ea 42 3b fd e4 c7 3e 9d a5 15 be 6e 2f 9b 3e
       0.0029741833 0.39041892 -0.14613958 0.30309623
0000b0 e1 e1 ee 3d d5 f6 22 3d de 5c f1 3b 35 e9 f2 3e
       0.11664177 0.03978618 0.007365807 0.47443548
0000c0 fb 5b c9 3c 29 52 03 be 2f 4b f7 3e b1 24 b0 be
       0.024579993 -0.1282431 0.48299548 -0.34402993
0000d0 d6 63 55 3d 75 40 46 be 23 61 d5 3e 1d 2e 80 3e
       0.052097164 -0.19360526 0.41675672 0.25035182
0000e0 7c a4 9c be 80 3c 2c 3e 39 a6 d2 be 27 e9 0c be
       -0.30594242 0.16819954 -0.41142443 -0.13760816
0000f0 7d 9c b2 3e f1 d6 4c be b4 15 86 be 56 c9 0e bf
       0.34885016 -0.20003869 -0.26188433 -0.55775964
000100 e0 1b 6b bb 5b 6b b2 3c 37 0c 8f 3d 19 e2 98 bd
       -0.003587477 0.021779707 0.06984752 -0.07465
000110 0c 98 3f 3b e3 59 80 be 77 f1 ae 3d e3 72 04 3d
       0.0029234914 -0.25068578 0.085421495 0.032336127
000120 32 85 a3 3d 40 4a 7e bd ce da 3c be c5 d1 65 bd
       0.07984389 -0.06208253 -0.18442842 -0.056108255
000130 77 10 e0 bb 5c 14 b5 3d 15 8a 3a be be 6d 99 be
       -0.0068379003 0.08841774 -0.18216737 -0.2996654
000140 5f 0f 1b bd 00 79 29 be 5e 87 10 3e bc 96 8b bd
       -0.037856456 -0.16550064 0.14114138 -0.0681586
000150 b3 93 a6 be 36 10 94 3e b8 26 f4 bc e3 27 df 3b
       -0.3253456 0.28918618 -0.029803619 0.006810175
000160 e4 e3 51 bd 53 b7 29 be 01 c5 6a be e2 64 cc bd
       -0.051242724 -0.16573839 -0.22926714 -0.09980179
000170 29 04 57 be 25 26 cf bc 48 c9 3b bd e9 9b 20 bd
       -0.2099768 -0.025286743 -0.045846254 -0.039211188
000180 aa 78 f7 bd 2c 32 2a 3e cb a8 3e 3e e4 98 bd bd
       -0.12083562 0.16620702 0.18619077 -0.09257677
000190 1f c6 66 bd a4 d6 5e bd e2 42 27 3d 56 50 23 bd
       -0.056341287 -0.054403916 0.04083527 -0.039871536
0001a0 8f 2b 47 3e bd b5 63 bd ab 8d c2 bd 78 a2 38 be
       0.1945021 -0.05559324 -0.09499677 -0.18030727
0001b0 66 e3 ab bd 90 7e 34 3e 2e 8e ac bc 03 dc 97 3b
       -0.08392982 0.17626405 -0.02106389 0.0046343817
0001c0 3b 60 8e be 3a 49 68 bb e8 9d 1e 3d 0a 7e 2e be
       -0.27807793 -0.0035444037 0.03872481 -0.17040268
0001d0 68 3f 8e 3c f0 63 34 be 5e e5 2e be 7d ed 3f bc
       0.017364219 -0.17616248 -0.17079684 -0.011714336
0001e0 52 d8 9a be ce 80 ad bd f3 96 d8 bc 0a de 7a bd
       -0.30243164 -0.08471833 -0.026439166 -0.06124691
0001f0 a0 6e 20 3d 63 24 8e bd 5e 86 b2 bd f3 51 90 bd
       0.039168 -0.06940534 -0.08717035 -0.070468806
000200 99 9b 8c be 8a 10 03 be 50 64 4a 3f e5 1b 4a be
       -0.27462462 -0.12799278 0.79059315 -0.19737203
000210 a7 b8 bd 3d 43 36 d4 3d 74 48 a3 3c b4 79 a3 3a
       0.09263735 0.10361912 0.01993201 0.0012472183
000220 97 12 b0 bc 41 0e d1 3d 69 79 a4 3d 1a 2c 8b bc
       -0.02149324 0.10207797 0.0803097 -0.016988803
000230 be 58 22 be 4c 93 1b be 96 16 f4 be 7a 71 c0 3b
       -0.15854165 -0.15192908 -0.47673482 0.0058729025
000240 60 92 d3 bd fb 88 30 3e 86 4c 29 bd e7 4b db bc
       -0.10330653 0.17239754 -0.041332744 -0.026769591
000250 8d 1a 62 be 18 11 b6 be fa 60 e5 bd 07 fb a1 bd
       -0.22080441 -0.35559916 -0.112001374 -0.07909208
000260 fb d4 e4 3c c5 f9 4d bf b7 b1 8e 3c 1a be a6 bd
       0.027933588 -0.80459243 0.017418725 -0.08141728
000270 25 e8 de 3d f3 dd 70 3e 58 64 4d be ef 8e f3 bd
       0.10884122 0.23522167 -0.2005781 -0.11892497
000280 fd a1 be bc c6 f7 bb bc cd eb 03 be d9 82 fe bd
       -0.023270601 -0.022945296 -0.1288292 -0.12427301
000290 04 82 de be 15 08 2b bc 09 0b 89 bd 72 9f d2 be
       -0.4345857 -0.010438939 -0.06691558 -0.41137272
0002a0 0e 09 d9 bb 59 ef a8 3e 85 d2 c1 bd 24 3a 60 3e
       -0.006623394 0.32995108 -0.094639815 0.21897179
0002b0 2d 16 78 bd 66 68 e7 be 34 5d f9 bc 3c a8 53 be
       -0.060568023 -0.45196837 -0.03043995 -0.20669645
0002c0 52 c1 b0 bc 27 24 cc bc 98 90 ed 3d 8c 2c 17 3d
       -0.021576557 -0.024919583 0.11599845 0.036907718
0002d0 4b 04 9f bc 5d eb ae 3d 1d 0e f2 be 19 58 4a bd
       -0.019411227 0.08540986 -0.47276393 -0.049400423
0002e0 68 92 08 3f 34 42 c0 be 92 3b 0e 3e 2a 0e 2f 3e
       0.533484 -0.3755051 0.13889912 0.17095247
0002f0 22 13 7c be 0e 93 b8 be d0 f3 ce 3e f5 3b 71 3e
       -0.24616674 -0.36049694 0.4042039 0.23558028
000300 89 2a 6b be c5 be fa bc a9 10 08 be 10 4d a2 3e
       -0.22965445 -0.030608544 -0.13287605 0.3169942
000310 0a 3d c3 3e 1e fa d9 3d 24 a9 ed bd 0e a2 e3 bd
       0.38132507 0.10643409 -0.11604527 -0.11114894
000320 c5 77 2d be 63 5a 97 3d 6f 21 c9 bd 34 17 bc bc
       -0.1694022 0.07390287 -0.0982083 -0.022960283
000330 50 94 9d 3d b9 15 51 3e 5f d2 85 3d 92 fc 00 be
       0.07694304 0.20418443 0.06534266 -0.12596348
000340 10 03 e5 be f1 a8 14 be 20 29 2c be d0 27 97 3e
       -0.447289 -0.14517571 -0.16812563 0.29522562
000350 c0 e0 e8 bc b9 cd d3 bd 55 23 85 3d 51 06 aa be
       -0.028427482 -0.10341973 0.0650088 -0.33207944
000360 68 99 fc bd 55 91 bc 3c ba 4f 78 3c dc b6 a3 3e
       -0.123339474 0.023018518 0.015155727 0.31975448
000370 63 90 e9 be af 3e 2a 3d 0b 80 79 3d 2a 5a f6 bb
       -0.4561797 0.041563686 0.060913127 -0.0075180726
000380 e8 84 69 bd a1 d8 a1 bc 69 75 0a 3c e9 70 4c 3d
       -0.057011515 -0.019756617 0.008450844 0.049912367
000390 98 c6 81 3e 67 9e 41 bd f9 94 19 bd c6 c5 ef 3e
       0.25346828 -0.047270205 -0.037495587 0.46830577
0003a0 08 20 77 be c6 2e 40 3a d8 fb c8 bd 69 3f ee 3d
       -0.24133313 0.00073311885 -0.098136604 0.11633188
0003b0 ea 39 81 3e e6 69 64 3e 3f 98 73 bd 35 79 8c 3e
       0.25239497 0.22306022 -0.059471365 0.27436224
0003c0 e1 d9 7e 3d 2b d5 29 3e 6b 2d b9 bd 9a ed aa be
       0.062219504 0.16585223 -0.09041866 -0.333844
0003d0 da 40 85 bd 7c 6d 5c be 25 68 14 3e e0 24 a2 3d
       -0.0650651 -0.2152614 0.14492853 0.079171896
0003e0 cb 80 b0 be 0a 7c a0 3e d5 ac 6d bd 85 7a cd 3e
       -0.3447326 0.31344634 -0.058026154 0.40132537
0003f0 7c a6 7a 3d ea 8f 68 3e 76 9f ae bd 3a 74 66 be
       0.061193928 0.22711149 -0.085265085 -0.22505274

lstm.weight_hh_l0 f4 [256, 64]
000000 73 6e 84 be 0f ee b4 3e 7b 62 c7 3d 40 e3 50 3e
       -0.25865516 0.35337874 0.097355805 0.20399189
000010 0b cd 80 3e 40 b6 04 3e 18 14 6c bc 11 63 95 be
       0.25156435 0.12960148 -0.014409088 -0.29177144
000020 61 e4 fe bb b6 47 84 3e e8 40 e3 bd a3 d5 70 be
       -0.0077786897 0.2583596 -0.11096364 -0.23518996
000030 0f 0c a1 3e f0 01 2f be 3a 75 fb bd d0 7d a0 be
       0.31454512 -0.17090583 -0.122782186 -0.31345987
000040 f4 87 62 be 40 fb 0e be c6 87 72 3e 01 4e 69 be
       -0.22122175 -0.13963032 0.23684606 -0.22783662
000050 b3 e3 c9 3c 4c 95 d9 3d 0f c6 3a 3d 39 e1 0f 3e
       0.024644708 0.10624179 0.04559904 0.1405076
000060 de 67 73 be 4f bd c8 3e 74 aa 33 3e 23 fa 3f 3e
       -0.23770091 0.3920693 0.17545491 0.18747763
000070 a3 c4 06 be 45 ec ff bd 84 9c 07 3f c3 0c 87 3d
       -0.13160948 -0.12496237 0.529732 0.06594231
000080 11 2c 33 bc 95 01 16 3e 49 cb 52 bb 59 83 43 bd
       -0.010935799 0.14649041 -0.0032164624 -0.047732685
000090 39 e9 24 3d 3b d2 0b 3e 80 b4 a2 bc 9a d5 34 bd
       0.04026148 0.13654415 -0.01986146 -0.04414902
0000a0 57 18 ff 3d a3 96 95 3d db 07 fd 3d de 68 fa 3e
       0.12455814 0.07304122 0.12355014 0.48908132
0000b0 55 3f b3 3d 2e cc 39 3c fd ab 39 be cb e6 b1 be
       0.08752314 0.011340184 -0.18132015 -0.34746394
0000c0 79 f3 82 3d a9 66 55 3e 2b f1 7c bd 14 48 3e 3e
       0.06394095 0.20839943 -0.061753433 0.18582183
0000d0 d8 45 2c 3e df c5 13 be fa 19 cb bc c8 1d 07 3d
       0.16823518 -0.1443095 -0.02479266 0.032987386
0000e0 bf 3d 90 be dc ca 07 bf 8e ca a1 3e 38 c8 71 3d
       -0.2817211 -0.53043914 0.3159985 0.059028834
0000f0 e5 1e 0d be 75 e2 80 be 15 1e a8 3d cb 21 23 bd
       -0.13781317 -0.25172773 0.08208863 -0.03982715
000100 6b bd d4 be 7b da 98 3e 9c ed a1 3d 15 cc b2 bd
       -0.41550764 0.29854187 0.079066485 -0.08730332
000110 2d 3b ed bc 2e 40 22 3f 10 ae 33 3d e8 83 a2 bc
       -0.028958881 0.6337918 0.04386717 -0.019838288
000120 0e 0b 91 be 12 33 03 3e c4 1b 95 be d9 03 c0 be
       -0.28328747 0.1281245 -0.29122746 -0.37502936
000130 39 52 08 3d 4d 0d 71 be c7 3c 7b be 43 cb 0d be
       0.03328154 -0.2354023 -0.24534903 -0.1384707
000140 a3 fd ce bd 0a d4 15 3e 6b 12 2c bd e9 3e ea bd
       -0.10106971 0.14631668 -0.042009752 -0.114377804
000150 3b 09 12 be 0f 8d 12 be 21 a7 13 bf d0 11 ed bc
       -0.14261334 -0.14311622 -0.57676893 -0.028939158
000160 de 86 16 be d6 52 1c 3f a0 67 16 3e 49 f0 6a 3e
       -0.14699885 0.610639 0.14687967 0.22943224
000170 2e aa 37 bd 0f 56 a6 be 93 bf 17 3f a2 7b 1c bc
       -0.04484003 -0.32487532 0.59276694 -0.009550961
000180 cf bc a9 bb 05 30 e5 3d ae 01 0c bd 75 20 dd be
       -0.0051799784 0.111907996 -0.03418129 -0.43188825
000190 c8 62 b9 bc ca 89 e0 3e 54 7f 87 bd 8f 37 30 be
       -0.02263011 0.43855125 -0.06616083 -0.17208694
0001a0 4a 99 92 3e 4d 29 27 3e c9 9e 8b 3d 09 6c a1 3e
       0.28632575 0.16324349 0.06817395 0.31527737
0001b0 89 e9 1c bc bb d4 80 3d 67 74 69 3d d1 b3 ed be
       -0.0095771635 0.06290575 0.056995776 -0.46426252
0001c0 bb 86 09 3f a2 a1 e3 bd 26 da 2e be 56 08 c8 3e
       0.5372121 -0.111148134 -0.17075405 0.3906886
0001d0 d8 c9 9a bb b2 71 d6 3e ad 91 67 3e b3 28 91 bd
       -0.0047237687 0.41883618 0.22614165 -0.07087841
0001e0 2b 92 89 be 79 65 f1 bd b5 65 4a 3d 8a 38 a7 bb
       -0.2686933 -0.117869325 0.0494134 -0.0051031755
0001f0 b7 56 70 3e 17 e9 e0 3c 19 f3 9d 3d df a5 5d 3b
       0.23470579 0.027454896 0.07712383 0.003382079
000200 51 fa 79 3e cd 9f 70 be 76 d4 35 bd b5 7f 61 3e
       0.24411894 -0.23498459 -0.04439207 0.22021373
000210 01 d7 70 3e d9 be 58 bd 2c 5d df be 11 e7 d0 be
       0.23519517 -0.05291638 -0.43625772 -0.4080129
000220 49 7a 97 3e 6b f0 3f 3d 5e 25 e5 3d 85 ba 78 be
       0.29585484 0.04686014 0.11188768 -0.24289902
000230 e7 1d 75 be fe 36 ed bd 5c b6 0d be ab 6e 75 3e
       -0.23937188 -0.115827546 -0.13839096 0.23967998
000240 08 cb c4 bb b2 15 e3 3d 4d ae 11 3e ef 5e f2 bd
       -0.0060056485 0.110881224 0.14226647 -0.118345134
000250 94 37 95 3e 80 4f a1 3e b9 c6 5e be 66 0a 0e bf
       0.29143965 0.31505966 -0.21755494 -0.55484617
000260 5a 60 71 3d 16 cc 0e be b3 ba e2 bc ee 18 0b 3d
       0.05892978 -0.1394504 -0.027676916 0.03395932
000270 b0 ee 6a be 21 85 d5 3b 8a 87 1c 3d 1b 5e 33 bd
       -0.22942615 0.0065161143 0.038215198 -0.043790918
000280 5a 85 9f 3d 05 d5 0d 3e 64 c3 cc bc 64 e6 39 be
       0.07789107 0.13850792 -0.024995513 -0.18154293
000290 59 1d ef 3e a5 db f3 3c 09 2e fa 3a 03 9c 20 3d
       0.46702078 0.02976782 0.0019087206 0.039211284
0002a0 9c e4 68 bd 86 b3 94 bd 50 3d b2 bc f9 32 02 bd
       -0.056858644 -0.07260804 -0.021757752 -0.031786893
0002b0 f0 57 af 3d bf 94 02 3c 5c 27 db bd 43 c0 fb bd
       0.085616946 0.007970034 -0.107008666 -0.122925304
0002c0 b1 05 97 3d f1 6e 7e bd 3a cc e4 be 56 74 da 3d
       0.073741324 -0.06211752 -0.44687063 0.106667206
0002d0 e3 b4 25 be 01 54 5d be 79 1a fe bc b8 e4 e1 bd
       -0.16182284 -0.21614076 -0.031018483 -0.11029953
0002e0 6e 23 f2 bd 1b 8e fe be dc fa 54 be 01 66 8d bc
       -0.11823164 -0.49717793 -0.2079882 -0.017260553
0002f0 8e 0e c3 bd c6 a9 96 3e 27 31 03 bf e9 fd a5 3e
       -0.095242605 0.29426402 -0.51246876 0.3242028
000300 85 69 6d be 8c bd 26 3c db ea 8e bd 4b 25 13 be
       -0.23184784 0.010177027 -0.06978389 -0.14369695
000310 52 e0 c8 bc 5d 35 98 3e 93 69 ef 3d 9f bc 50 3e
       -0.024521027 0.29728213 0.116900586 0.20384453
000320 67 16 28 bd 60 4b 9b bd 0c 0a e6 bd 0c 7d 99 bd
       -0.04103699 -0.07582736 -0.11232385 -0.07494554
000330 3f 63 fe 3d 7f 81 1d 3d 86 9d b9 3d 7d cc 5b be
       0.124212734 0.038453575 0.09063248 -0.21464725
000340 58 ad 91 bc e9 5f e3 3e 4f 45 88 bd ea 1c 2a 3d
       -0.017782852 0.4440911 -0.066538446 0.04153148
000350 cf 71 68 bc b5 33 8c 3c 48 8d d7 3c 2e 94 2a 3e
       -0.01418729 0.0171145 0.026312485 0.16658089
000360 f6 75 dd bd e0 f2 a9 38 b3 96 b7 3b 83 b2 86 bd
       -0.10813515 8.103787e-05 0.0056026815 -0.06577017
000370 70 48 aa 3d 26 75 a3 3d 2b f1 61 bc f5 e5 22 bc
       0.083145976 0.07981329 -0.013790409 -0.009942521
000380 ee a9 ec bd d2 9c 6d bd 17 98 a4 3d 85 fd d2 be
       -0.11555849 -0.058010884 0.08036821 -0.41209045
000390 d9 00 30 be 4e ce 9a 3e ad 6e 86 be 94 ec e1 3d
       -0.17187823 0.30235523 -0.26256314 0.11031452
0003a0 2e 05 18 3c 4c b9 44 3e bc 6e da 3c f7 1f 15 3e
       0.009278579 0.1921131 0.02666413 0.14562975
0003b0 d0 19 fa bc fc 3b 38 bb d8 84 23 3e 5e 84 fa 3d
       -0.030529886 -0.0028111925 0.15968645 0.12232278
0003c0 1d c8 b6 3e 3c 38 08 bd b4 1f 8e 3e 05 04 db 3d
       0.3569955 -0.033256754 0.27758563 0.10694126
0003d0 98 37 66 3b e8 28 6b bd 4a ef c1 3d 79 e7 2e bd
       0.0035128351 -0.057412058 0.09469469 -0.04270122
0003e0 a3 ae c9 3d ba b8 a3 3c 32 93 9e 3d 97 3b 53 3d
       0.098477624 0.019985545 0.07742919 0.0515705
0003f0 18 71 c3 3d e0 45 f6 3d 7a 45 b9 3d de 9e 91 bd
       0.09543055 0.12025046 0.09046455 -0.0711038

lstm.bias_ih_l0 f4 [256]
000000 f1 23 48 3d 95 54 bb bd 93 7b 03 bf 57 d4 81 3d
       0.0488624 -0.09146992 -0.51360434 0.06339329
000010 c2 7a 3a be 18 9a a1 be c6 ab e4 3e c2 6b f2 3e
       -0.18210891 -0.31562877 0.44662303 0.47347838
000020 a6 80 9a 3e 50 12 0c 3c 30 81 70 be a1 bf 85 bd
       0.30176276 0.008549288 -0.23486781 -0.06530691
000030 f3 0c 0e bb cc 40 71 be 79 09 74 3e 6b 4b 35 be
       -0.0021675199 -0.23559874 0.23831739 -0.17704551
000040 a6 91 29 be f2 6b 93 be 9e 09 a8 3e bc 19 45 be
       -0.16559467 -0.28793293 0.32819837 -0.19248098
000050 74 21 7f be fa cb 8d be 5c 0f 6b 3d 89 74 34 3e
       -0.24915105 -0.27694684 0.057387695 0.1762258
000060 4d bc c9 be 8d c1 5d be 98 fc 31 be 58 bd f2 3d
       -0.39401475 -0.21655865 -0.17381513 0.11852521
000070 de 31 03 3e 0b 65 d3 bd b9 d1 8f be b9 7b cd bd
       0.12811992 -0.10322007 -0.28089693 -0.10033364
000080 4b 3d b5 3e ca 99 4e be 57 ea c7 be 63 7d 22 be
       0.35398325 -0.20175853 -0.39045975 -0.15868144
000090 bd f1 1e 3f 26 86 c8 bd 70 6d e1 3d e7 b0 c9 be
       0.62087613 -0.09791212 0.11007202 -0.39392778
0000a0 74 3e 4e be 7c 3a 02 bf ae 83 47 bd da 04 0f be
       -0.20141011 -0.5087049 -0.048709564 -0.13966694
0000b0 89 c5 46 be 8c 8a c4 be c5 66 b1 bd 09 25 8b 3d
       -0.19411291 -0.38386953 -0.0866218 0.06794173
0000c0 29 04 b2 be 3d 2d b6 be 9e 93 6b bc c9 c0 2f be
       -0.347688 -0.3558139 -0.014378456 -0.17163385
0000d0 46 7d 9b 3d db 28 8c be ac 66 8e bd b5 5e 83 be
       0.075922534 -0.2737492 -0.06953177 -0.25658193
0000e0 b5 cc f1 3a 73 c9 6c 3e 94 e6 49 be 33 87 26 be
       0.0018447848 0.23123722 -0.19716865 -0.16262512
0000f0 4f b6 0a bd 89 b9 22 be 68 a6 b4 3d da 37 26 3e
       -0.03386527 -0.15891089 0.08820802 0.16232243
000100 05 b1 d3 3d c4 8c 5d 3c 9e ff fb bd 9f 12 82 bc
       0.10336498 0.013522331 -0.123046145 -0.01587802
000110 18 8f 6c be b9 d8 23 be cf 77 85 3e 73 c2 92 3e
       -0.23101461 -0.16000642 0.2606797 0.28663978
000120 54 24 82 3d f3 38 5c bb 99 15 8a bd 2f 47 a0 3e
       0.06354585 -0.003360328 -0.06742401 0.3130431
000130 49 bd b7 3d 65 a7 a9 bc d2 fb 13 be ea 51 0c 3d
       0.0897165 -0.020709703 -0.1445153 0.034257807
000140 64 1b 4c be 77 e7 95 3d f0 f3 09 3e 16 12 02 be
       -0.19932324 0.07319539 0.13471961 -0.12702212
000150 84 8f e5 bd d8 d6 9d bc b0 cb 70 ba c8 93 29 bd
       -0.11209014 -0.019267485 -0.0009185625 -0.0414007
000160 f5 5c 89 be a1 32 7b 3e e5 67 a6 be ed f4 c7 3c
       -0.26828733 0.24531032 -0.3250114 0.024408782
000170 f8 97 37 3e 26 48 6f bc 75 88 f5 3e 2b fc 00 be
       0.17929065 -0.014604604 0.4795567 -0.12596194
000180 16 02 8c bd 1e 57 1b bc 0f 00 d1 3d 52 e2 c6 be
       -0.06836335 -0.00948122 0.10205089 -0.38844544
000190 14 e2 e9 3e 02 22 36 be a9 9f 45 be 50 37 d7 bd
       0.45680296 -0.1778641 -0.19299187 -0.10508597
0001a0 6f 46 10 bc 13 e7 9d 3d 99 3f a4 3e 3b e1 3e 3d
       -0.008805855 0.077100895 0.3207977 0.046601515
0001b0 c1 32 e9 3e 65 77 2f be 10 bc ce bc da fc 4d 3d
       0.45546535 -0.17135389 -0.02523616 0.050289966
0001c0 c7 54 6e be 91 89 1e be 8b ab 79 3d c5 c7 93 bd
       -0.23274527 -0.15482165 0.06095461 -0.072158374
0001d0 0f 40 c0 3d 1a 50 44 3e 47 a3 c8 bd 37 d3 24 be
       0.09387218 0.19171181 -0.09796768 -0.16096197
0001e0 47 2e af 3e 30 e2 05 3d 1f 80 27 3e c1 e3 74 3e
       0.34214994 0.032686412 0.16357468 0.23915006
0001f0 5a aa ab be 6b 8f 9c 3e 28 35 51 bd c2 a5 e2 bd
       -0.33528405 0.3057817 -0.051076084 -0.11066772
000200 87 88 68 bd e8 e6 0b 3e ec ac 14 3d f7 2d 0b be
       -0.056770828 0.13662302 0.036297724 -0.13591753
000210 e4 0d d0 bd e0 d8 0e bd 67 fa fb 3e c3 e6 a8 3e
       -0.101588994 -0.034874797 0.4921448 0.32988557
000220 36 c2 73 be 41 a2 ab 3e 14 66 bd bb 61 f4 3a 3e
       -0.23804554 0.33522227 -0.005779991 0.18257286
000230 f5 32 24 be 1d a1 10 be ba f8 84 3e 96 49 1f be
       -0.16035064 -0.1412396 0.25971013 -0.15555415
000240 c8 42 d2 bd 0b e3 31 bd cb 44 8d be fb 17 7a bd
       -0.10266644 -0.043429416 -0.27591547 -0.061058026
000250 1d d4 01 be 0a e0 aa bd 6e 60 8a bc da 36 90 3e
       -0.12678571 -0.08343513 -0.016891684 0.28166848
000260 07 40 40 bc 88 1e 63 3e bc 65 92 3d 44 c3 76 be
       -0.011734015 0.22179615 0.071483105 -0.24097925
000270 ef b7 be bd 20 89 64 be d0 fc c1 be d4 e3 0d be
       -0.09312426 -0.22317934 -0.37888193 -0.13856441
000280 13 6f 87 be ef a9 30 be 7b 3e 0f be e3 af d8 bd
       -0.2645193 -0.17252325 -0.13988678 -0.10580423
000290 fe 94 03 bf c7 4a 37 bd a0 07 55 be df 5d a3 3e
       -0.5139922 -0.044749048 -0.2080369 0.31907555
0002a0 90 b6 84 bd 1d d4 49 3c 9b d3 df 3d 59 9b 09 3e
       -0.064801335 0.012318638 0.109290324 0.13438167
0002b0 0d 81 bd 3e eb 49 73 3c fd f8 0e bc 7d 62 86 3e
       0.3701252 0.014849166 -0.008726356 0.26247016
0002c0 d5 10 d5 3d b5 e0 84 bd fb 7c 17 3e 30 87 f9 bc
       0.10403601 -0.06488172 0.1479377 -0.03045997
0002d0 4f 7d 82 3e e2 ef 77 3e 50 3e 91 3d 36 db 2f be
       0.25486228 0.24212602 0.07091963 -0.17173466
0002e0 7c 86 8d ba 8e e5 50 3e 95 49 4c 3e b9 3c 80 be
       -0.0010797526 0.20400068 0.19949944 -0.25046328
0002f0 2b af aa bd f9 a0 32 3c 04 d0 c5 3e ab b5 1c be
       -0.08334192 0.010902637 0.38635266 -0.15303676
000300 47 29 1e 3d 36 21 d5 3d 0c 26 f3 be 80 1b 1b be
       0.038613584 0.10406725 -0.47489965 -0.15147209
000310 ad 69 46 bd 83 f3 d6 bd 3d 53 31 3f e3 5c 37 3f
       -0.048440624 -0.10495665 0.69267637 0.7162611
000320 ae 7c 12 3f d8 74 0c be 6f f2 f8 3c e8 92 ba bd
       0.57221496 -0.13716447 0.030389039 -0.091100514
000330 64 a7 51 be 25 3c 01 bf f0 9e 8d 3e ca 03 34 3e
       -0.2047401 -0.504824 0.27660322 0.1757957
000340 1e d2 c6 bc c8 57 c7 3d de 5e 77 3e d6 45 2e bd
       -0.024270114 0.0973354 0.24157283 -0.04254707
000350 71 e3 82 bd ca 00 8e 3c 26 d0 cc be a1 00 f5 3e
       -0.06391037 0.01733436 -0.40002555 0.47852042
000360 05 82 0a be 7f 36 67 3e 1f 6e c9 be 9d fc 9e bd
       -0.13526161 0.22579382 -0.39341828 -0.07763026
000370 8b 0a 82 be df cd 2a bd 9c 1d 0a 3f 22 9a 68 be
       -0.2539867 -0.04170024 0.5395143 -0.22715047
000380 57 c6 ba 3d 70 c1 52 be c7 ae 1a bf b1 58 5a be
       0.091198616 -0.20581603 -0.6042294 -0.21322896
000390 7e c8 3b 3f 21 b5 d8 bd f9 9c 62 be 7e 40 59 bd
       0.733528 -0.105814226 -0.22130193 -0.05304002
0003a0 a0 27 18 be 48 d9 eb be 9a ad 8b be 4d e1 46 be
       -0.14858866 -0.4606421 -0.27280885 -0.19421883
0003b0 f9 87 23 3e 99 56 90 be 2a 3d 09 be 62 02 dc bd
       0.15969838 -0.2819107 -0.13402238 -0.10742642
0003c0 88 4a 94 3c 76 d1 da be 75 a0 24 3e e6 58 32 be
       0.018101946 -0.4273793 0.16076834 -0.17416725
0003d0 a1 49 15 3d b2 df 4c 3e e6 07 96 be e8 42 c4 bd
       0.03644717 0.20007208 -0.293029 -0.09583074
0003e0 2f e3 bb bd d3 d3 18 3e d1 7a ac 3c b8 ad aa 3b
       -0.09174191 0.14924555 0.021054657 0.005208697
0003f0 38 62 e0 be 9f 02 dd 3d 66 7a c2 3e bb ee 52 3e
       -0.43824935 0.107915156 0.37984008 0.20598881

lstm.bias_hh_l0 f4 [256]
000000 15 c9 a9 3d 6f 13 af bd d1 84 10 bf 98 ec d8 bd
       0.082903065 -0.085486285 -0.5645266 -0.10592002
000010 a8 a6 1d be bb 8e 86 be 41 93 0a 3f 49 86 b7 3e
       -0.15395606 -0.2628077 0.5413094 0.3584464
000020 61 1e b7 3e d7 32 bf bd 45 b7 70 be 06 a5 d7 bb
       0.35765365 -0.09335869 -0.23507412 -0.0065809516
000030 0e 4c d6 bd 33 f4 4b be 58 7f 63 3e 40 a4 aa bc
       -0.10463725 -0.19917373 0.22216547 -0.020830274
000040 bf e4 a5 be a6 75 c6 bd 20 31 e9 3e 45 7e 22 be
       -0.32401082 -0.096904084 0.45545292 -0.1586848
000050 c3 26 a6 be 2a aa 2c be f4 d7 4e 3d 75 9b a7 3e
       -0.32451448 -0.16861787 0.050498918 0.32735792
000060 e5 c4 bd be 39 10 51 be ef 3a 77 be 19 86 62 3e
       -0.3706428 -0.20416345 -0.24143575 0.22121467
000070 60 f8 0a 3e 23 eb fc bd e3 40 36 be 3b 66 b9 bd
       0.1357131 -0.12349536 -0.1779819 -0.09052702
000080 74 c9 73 3e 49 cd 31 bb d1 8b bb be eb ec 73 be
       0.23807317 -0.0027130416 -0.3663011 -0.23820846
000090 c9 42 01 3f 69 83 23 bd 8f 13 1b bc b0 4c 8d be
       0.5049253 -0.039920244 -0.009465112 -0.2759757
0000a0 ae d8 ef bc 20 10 ce be 6b 14 07 be 9b 20 1d bd
       -0.029278126 -0.40246677 -0.13191383 -0.038361173
0000b0 29 28 4f ba a3 02 c3 be 69 f9 ad bc 09 16 61 3e
       -0.00079024077 -0.3808795 -0.021237092 0.21981062
0000c0 91 70 ea be 8d 54 b8 be 5e 8c 84 3d 01 7e 27 be
       -0.45789006 -0.36002007 0.064720854 -0.1635666
0000d0 ca cf e3 3d fd 9e b1 be 05 95 7e bd af 60 19 be
       0.11123617 -0.3469161 -0.062153835 -0.14978288
0000e0 d6 a7 c9 bd ec f5 b2 3e 8c fb f0 bd ee 34 63 bd
       -0.09846465 0.34953249 -0.11766729 -0.0554704
0000f0 47 21 0c 3e a2 fa bb bd 00 3e 94 3e a6 52 28 3e
       0.1368457 -0.09178664 0.28953552 0.16437778
000100 08 96 2e bd df 1e b6 3d 78 c3 84 be ed 1b 72 be
       -0.04262355 0.08892607 -0.2593038 -0.23643465
000110 83 03 78 be 0c 29 41 be ae b0 81 3e ab 46 70 3e
       -0.2422009 -0.18863314 0.25330108 0.23464458
000120 38 2b 3d 3e dc 16 d2 3c 59 5f 0e be 9a 7b 4d 3e
       0.18473518 0.025645666 -0.1390356 0.20066682
000130 8d b0 ad 3d d0 f3 82 3d 52 13 a2 be fd 60 0a bd
       0.0848094 0.0639416 -0.31655365 -0.0337839
000140 49 8f 42 be c0 44 1c bd 75 03 0f 3e e2 af 00 be
       -0.18999971 -0.038151503 0.13966163 -0.12567094
000150 53 c2 73 be 5f 7b 9f bc a7 77 a7 3d 1d 69 3a bd
       -0.23804598 -0.019468008 0.08177119 -0.0455104
000160 07 83 5d be 3b 99 90 3e 00 ce 90 be 97 5d 47 3c
       -0.21632014 0.28241906 -0.28282166 0.01216831
000170 3f af 1a 3e e4 06 4e 3e 8f c1 01 3f 9c 06 d8 bc
       0.15105914 0.20119816 0.5068597 -0.02637034
000180 73 56 35 be e9 a2 99 3d c0 ea 3b 3d 8b b6 a9 be
       -0.17708759 0.07501776 0.045878172 -0.33147082
000190 e8 97 e7 3e 8d a5 42 be 41 12 66 be 20 0a 20 be
       0.45233083 -0.19008465 -0.22467901 -0.15628862
0001a0 43 15 db 3b bf 53 75 bd 34 1a 49 3e 55 a8 12 be
       0.006685884 -0.05989432 0.19638902 -0.14322026
0001b0 93 79 84 3e 73 89 df 3c da 4a 61 3d bf 41 ae 3d
       0.25874004 0.02728722 0.055003025 0.08508634
0001c0 61 dd 6d be c4 b9 92 be da 80 6a 3d ae 8f ee bc
       -0.2322898 -0.28657353 0.05725179 -0.029121246
0001d0 00 49 24 3c 38 ef 53 3d ce fc 5d 3d 3c 01 35 be
       0.01002717 0.05174181 0.05419617 -0.17676252
0001e0 83 d9 3c 3e a5 d1 52 bd 10 89 28 3d 1c 37 bc 3d
       0.18442349 -0.051469464 0.041146338 0.09190199
0001f0 0e 53 cd be c7 2b 7a 3e 86 ef 2e bc 5c 82 98 3d
       -0.40102428 0.24430762 -0.010677224 0.07446739
000200 c7 74 28 be 81 d2 70 3d 8f 1b b5 bd c4 b8 83 bd
       -0.16450797 0.058794502 -0.08843147 -0.064317256
000210 f3 7b d6 bd 90 9d 9f bd d9 af 0d 3f 1d e6 04 3f
       -0.1047286 -0.077937245 0.5534645 0.51913625
000220 29 07 b6 be 4d 29 e7 3e 72 f8 99 bb 31 e8 10 3e
       -0.35552338 0.45148697 -0.0046988064 0.14151074
000230 a3 a3 2c bd 38 2b 74 be 1c 35 a2 3e 8c ae 47 be
       -0.042148244 -0.23844612 0.31681144 -0.19500178
000240 16 df 35 3d 92 1f 03 3d 1c f3 7e be 59 55 1c bd
       0.044402204 0.03201253 -0.24897426 -0.03816733
000250 d1 a9 7a be 6b 85 21 3c 0d db b6 3d 23 5a a3 3e
       -0.24478842 0.0098584695 0.08928499 0.31904706
000260 f1 c5 2c be 10 47 10 3e eb 40 8f 3d 93 02 50 be
       -0.16872384 0.14089608 0.06994804 -0.20313482
000270 49 7b 6d be e5 29 2d be 9a 2d 73 be 6e c1 4e be
       -0.23191561 -0.16910513 -0.23747864 -0.20190975
000280 91 3e 99 be 11 b5 87 be 48 21 e2 bd 82 0b e1 bd
       -0.29930547 -0.2650533 -0.11041504 -0.10988523
000290 11 7e f8 be 61 4b 17 3e 85 59 cc bd b3 ff b4 3d
       -0.4853368 0.14774849 -0.09978012 0.08837833
0002a0 62 0f 11 be cf f7 80 3e 7f f4 f2 3d 53 f8 f9 37
       -0.14166024 0.25189063 0.1186304 2.9798748e-05
0002b0 06 99 87 3e f7 1c 92 3c 2c 03 a6 3d 3c 16 e2 3d
       0.26483935 0.017836077 0.08106074 0.11039397
0002c0 38 35 d2 bc d8 19 b3 3b f9 08 b7 3e 5f b6 54 3d
       -0.025660142 0.0054657273 0.35749033 0.051931735
0002d0 88 19 f3 3d 9e 30 50 3e 40 80 26 3d 7f bf d5 bd
       0.11870104 0.20331046 0.040649652 -0.104369156
0002e0 39 72 4b bd dd d1 91 3e 51 4f 95 3d c6 00 70 be
       -0.049669478 0.28480425 0.07290519 -0.23437795
0002f0 73 1a 17 bd aa 1f d6 bd 3e 9d 8d 3e 5a 5e bc be
       -0.03689046 -0.10455258 0.2765903 -0.36790735
000300 79 46 7d 3d 8e 3f 8d 3e b3 77 d3 be 22 f5 86 be
       0.061834786 0.2758755 -0.4130226 -0.26358896
000310 71 ca d4 3d a7 7f c8 bd fc 21 3d 3f 94 0f 29 3f
       0.10390175 -0.09789973 0.7387998 0.66039395
000320 f5 c7 ee 3e ef be 81 3d c8 5c 4c bd aa a2 77 bc
       0.4663693 0.06335246 -0.04989317 -0.015114466
000330 da d8 7f bd e0 e0 ed be 1c cb 08 3e 6d 88 aa 3e
       -0.062462665 -0.46460629 0.1335873 0.3330721
000340 93 90 8d bd 4a cf b0 3d e0 5a 53 3a f8 a1 6b bd
       -0.06912341 0.08633287 0.00080625527 -0.057527512
000350 2f e4 bd bd a0 51 6f 3b 9a 42 e0 be 73 d7 9c 3e
       -0.09272038 0.0036517158 -0.43800813 0.30633125
000360 7d 2a 5b be 72 3e 97 3e 52 33 c7 be 62 76 1a be
       -0.21402927 0.2953983 -0.38906342 -0.15084222
000370 ec e8 6c be c9 b5 d9 3c 83 97 cf 3e fe 3f 9f be
       -0.23135728 0.02657594 0.40545282 -0.3110351
000380 46 d3 e3 3d 6f 66 a3 bd fa 5c 1c bf ca 0a 86 be
       0.111242816 -0.07978522 -0.6107937 -0.26180106
000390 0d 0a 33 3f 6b b2 84 be 5a 96 13 be 7f 0e 7d bb
       0.6993721 -0.25917372 -0.14412823 -0.0038613377
0003a0 44 6c 40 be f3 95 ed be 8d 28 d6 be 4d ed 0b be
       -0.187913 -0.46403465 -0.41827813 -0.13664742
0003b0 10 59 11 3e 51 8a ac be 19 a0 81 bd 6e 3e 0a be
       0.14194131 -0.33699277 -0.06329364 -0.13500378
0003c0 d0 af 49 be 92 e6 9f be c7 ff 79 3e 7b 0f 90 be
       -0.19695973 -0.312306 0.24413978 -0.2813681
0003d0 e7 a2 7f 3d 1f c6 1a 3e a4 93 8d be 9f 43 b7 bd
       0.062411215 0.1511464 -0.27651703 -0.089484446
0003e0 73 1e c5 bd 5b 36 dc 3c ed 26 a9 3c 5c 5e c7 bd
       -0.09624948 0.026881387 0.020648444 -0.097347945
0003f0 87 a6 72 be 29 dd 1b bd a2 04 cc 3e 6b fa f1 3d
       -0.23696338 -0.03805271 0.39847285 0.118153416

final.weight f4 [1, 64]
000000 95 15 0e 3d 93 ea f8 3d 20 9e 27 3e ca ee 17 bc
       0.03468855 0.121541165 0.16368914 -0.00927324
000010 2b 5e 66 be 67 b1 78 3d db 70 bb 3e c1 e8 ab 3e
       -0.2249686 0.06071606 0.3660954 0.33576015
000020 ef b7 b9 be 21 2a 29 3e b7 bd 8f bd d4 04 f9 3d
       -0.36273143 0.16519977 -0.07018607 0.12159124
000030 87 14 43 be aa 06 c2 be af b2 9c 3d f4 83 6b 3e
       -0.190508 -0.3789571 0.07651269 0.22999555
000040 e3 c4 82 bd 46 b8 cc 3d c5 3e 74 be 49 6a 8d bd
       -0.063852094 0.09996085 -0.2385207 -0.06905038
000050 3c 64 e8 bd fa ac b8 be e2 48 c9 bd 76 95 84 3e
       -0.11347243 -0.3606947 -0.098283544 0.2589528
000060 c6 38 eb ba fb 77 87 3e 4a 9e 05 bd 25 96 01 be
       -0.0017945997 0.26458725 -0.03262166 -0.12654932
000070 a9 c4 30 bd 89 c3 b9 bd ec 64 a4 3e 58 03 1c be
       -0.0431563 -0.090704985 0.32108247 -0.1523565
000080 b9 b5 49 bf 0b a3 09 be 48 92 02 bf a5 ae a6 bd
       -0.7879291 -0.13441102 -0.5100446 -0.081387796
000090 21 99 d5 be 3f 89 32 3e 8b 3f 33 be 18 0d d5 be
       -0.4171839 0.17435168 -0.17504708 -0.41611552
0000a0 9c fd 79 bd 25 d6 f4 bd 13 36 ce bd 3e 48 ac 3c
       -0.061032876 -0.11954907 -0.100689076 0.021030542
0000b0 4e e0 08 3e 16 29 02 be 61 41 52 3e 33 2e 12 bc
       0.13366815 -0.12710986 0.20532753 -0.008922148
0000c0 79 25 6c 3d ab ec fc 3d d0 06 13 3e 9c 14 c7 bd
       0.057652924 0.12349828 0.14358068 -0.09720728
0000d0 f8 e8 9c 3d ee f8 c2 bd fa e7 3c 3e bb 40 08 3e
       0.07661623 -0.09520136 0.18447867 0.13305943
0000e0 e9 ae 32 3d d3 05 38 3e a6 ca c7 3d a3 b8 9a bd
       0.04362384 0.17970972 0.09755449 -0.07554748
0000f0 ad f5 62 be 5b 7a 8e bd 4a 30 55 3e 4e 9c 1d be
       -0.2216403 -0.06956931 0.20819202 -0.15391657

log_stdev f4 [6]
000000 82 10 43 bf 65 69 36 bf 38 d5 4d bf a6 eb 7d bf
       -0.76197064 -0.7125457 -0.8040347 -0.99187696
000010 2d 8f 4b bf c3 8b 31 bf
       -0.79515344 -0.69353884

affine_layers.0.weight f4 [64, 17]
000000 28 ae 36 3e 4a 72 bf be ec 19 33 bd 63 4b 64 bc
       0.17839873 -0.37391883 -0.043725893 -0.013933989
000010 eb 72 18 be 2d 64 44 bd 0e 5e 44 be 9a dc 3c 3d
       -0.14887588 -0.047947098 -0.19176504 0.04610882
000020 41 3c 1c bd 57 b4 34 3e c8 1a 25 3e 47 3f 6e 3e
       -0.0381434 0.17646919 0.16123497 0.23266326
000030 81 9c f6 3d c3 fd c2 3e 09 7b 14 3e 58 e9 c2 bd
       0.120415695 0.3808423 0.14500059 -0.09517163
000040 8f 6b 01 be 38 00 8a 3e fc 6b ad bc 4e 82 23 3e
       -0.12638687 0.26953292 -0.021169655 0.15967676
000050 e0 98 ae be 29 16 a5 3d e6 0d c9 3d 8f 80 56 bd
       -0.3410101 0.08060867 0.09817104 -0.052368697
000060 c4 68 9e bd 6d c7 ef bd 68 da 0f be fc e4 28 3e
       -0.07734826 -0.11707959 -0.14048159 0.164936
000070 dc 12 1e 3e e7 ba 0d 3e 0d 70 85 bd f2 69 20 bd
       0.15436882 0.13840829 -0.065155126 -0.039163537
000080 b5 17 50 be b4 2d e3 3b 25 49 db be e5 ed fc 3c
       -0.20321544 0.0069329385 -0.42829242 0.030875156
000090 85 1c a4 bd 71 f7 0b bd 6d c5 1e 3d 59 48 6d 3e
       -0.08013252 -0.034171525 0.0387625 0.2317213
0000a0 0b 86 60 3e 49 3e 43 3e cd 27 43 be e9 a8 02 3d
       0.21926133 0.19066729 -0.19058152 0.031899367
0000b0 fe ea e0 3e 1b 63 da 3d 47 7f 01 bd ae bf da bd
       0.43929285 0.10663434 -0.03161552 -0.10681091
0000c0 9b 79 aa 3c cc 67 ce 3d 2f d0 f4 3d 5d 42 13 3e
       0.02080994 0.100783914 0.1195377 0.14380784
0000d0 c5 5a 09 3e b1 13 46 3e 4a 02 ee bd a1 f6 5c 3e
       0.13413532 0.19343449 -0.1162153 0.21578456
0000e0 1d f4 93 3e ce 6d 4b be 2f 0f c0 3c 29 1b 93 bd
       0.2889718 -0.19866106 0.02344474 -0.07182915
0000f0 35 0a 20 be ed 69 d6 bd e4 82 02 be 20 6f ed bc
       -0.15628894 -0.104694225 -0.12745243 -0.028983653
000100 d0 7f c3 bd ec 18 87 be 1e 13 6e 3b 6b 79 a7 bd
       -0.09545863 -0.263862 0.0036327313 -0.081774555
000110 32 f7 92 3e 6f 84 01 bf c4 44 99 be a1 c4 0f bd
       0.2870422 -0.505927 -0.29935277 -0.03509963
000120 fc 60 65 3e 02 20 5e bd 51 5c 63 3d 71 d7 2a bd
       0.22400278 -0.054229744 0.05550796 -0.041709367
000130 17 9a 9d bd 1c 7c 62 3e fd a5 86 3d ab 30 91 3d
       -0.07695406 0.22117656 0.065746285 0.07089361
000140 ad 17 1e 3e 59 3d 0c 3e c5 d3 50 be dc 5b 2f bb
       0.15438719 0.13695277 -0.20393284 -0.0026757633
000150 9e 38 e2 bd ec 06 02 3e 54 db 06 be 1e 4d a5 be
       -0.11045955 0.12697953 -0.13169605 -0.32285398
000160 a3 9c 01 be 9d 00 8b be c7 76 bd 3d a9 9d dd 3d
       -0.12657408 -0.27148905 0.092511706 0.10821087
000170 e7 52 df bd 15 06 02 be 0b e7 0c be b7 13 03 3e
       -0.10904484 -0.12697633 -0.13760011 0.1280049
000180 d6 d9 7f be ca 17 52 be 1c e1 64 bd e9 47 5c be
       -0.24985442 -0.20516887 -0.055878744 -0.21511807
000190 3d be 87 bd 91 2e f8 bd 5f d6 b8 3c e6 af c8 3e
       -0.06628082 -0.12118257 0.022563158 0.391967
0001a0 3b b1 fe 3d 4b b7 67 3c 7c f3 a7 3e be e6 77 3e
       0.12436148 0.014142822 0.3280295 0.24209115
0001b0 01 aa 24 be 1b 4b b3 be 0c 72 c8 3d 25 ae 32 bd
       -0.16080476 -0.35018238 0.09787378 -0.04362311
0001c0 df fc d8 3e b6 46 4c be 85 94 61 3d 33 e1 9c 3e
       0.42380425 -0.19948849 0.05507328 0.30640563
0001d0 da 37 14 3e 57 2e da 3d c0 90 17 be 36 dd 11 3e
       0.1447443 0.1065337 -0.14801311 0.14244542
0001e0 ce 84 2e 3d ed 0c 76 3e f4 e3 04 be 98 94 33 bd
       0.04260712 0.24028368 -0.12977582 -0.043842882
0001f0 eb 7b f8 bc eb f8 59 bd 6a fd 61 be 82 55 a2 3d
       -0.030332526 -0.053215902 -0.22069326 0.079264656
000200 84 15 a1 be e8 d6 d1 3d 1f a6 d1 3d b3 fe 30 be
       -0.31461728 0.10246068 0.10236763 -0.1728466
000210 7e c1 db 3d 72 8d a7 bc 09 93 fa bc 7e 9f f7 bd
       0.10730265 -0.020453189 -0.03058769 -0.120909676
000220 2d c5 2a 3e 11 51 bd 3d 26 0a 97 bd 04 3c 6d bc
       0.16676779 0.09243978 -0.073749825 -0.014479641
000230 f3 dc f1 3d 4d b7 59 3e 48 16 90 3d a2 af 79 3e
       0.11809721 0.2126133 0.070355 0.24383405
000240 6f 75 fd bd ea 8d 85 be e8 70 ac be 2a c7 58 3d
       -0.12375914 -0.26084834 -0.3367989 0.052924313
000250 a1 36 e2 3c ae 7d 32 bd b2 0d 9f bd bb 87 1a 3e
       0.02761394 -0.04357689 -0.07766284 0.1509084
000260 5f fd bf bd e0 0a 8c 3d c3 c7 c5 3c 59 c6 ec bd
       -0.093744986 0.06838012 0.024143105 -0.11561269
000270 c3 e4 29 3e 8d 78 a2 3c 8a e1 a7 3d 35 db 67 3e
       0.16591172 0.019832874 0.08197315 0.22642215
000280 d9 0e 8e be 11 5b 75 3e ea 35 63 bc a9 0a 41 3e
       -0.27745703 0.2396052 -0.013867835 0.18851723
000290 e9 0e 14 3e df 93 ef be 3d a4 a6 bc 1b d1 a1 bd
       0.14458813 -0.46792504 -0.020341987 -0.07901212
0002a0 72 f9 87 3d da dd 88 be 42 8e 02 3e 18 9c 29 3d
       0.06639375 -0.2673176 0.1274958 0.04140863
0002b0 9c 8d f9 3b 60 91 83 3e b3 cf 8b be 15 98 ee 3b
       0.007615758 0.2569685 -0.273069 0.007281313
0002c0 74 18 56 be 69 5b 95 be ed d9 95 be fd 06 51 bd
       -0.20907766 -0.29171303 -0.29267827 -0.051032055
0002d0 94 f3 05 be 0d ef ac bc dd f6 f0 3e 38 82 71 3d
       -0.13081199 -0.021110082 0.47063342 0.058962077
0002e0 96 54 5e 3c b8 63 09 be b5 c4 81 be 7f 03 07 be
       0.013569972 -0.13416946 -0.25345388 -0.13184927
0002f0 11 c2 69 bd 52 18 7d 3e cf f1 b9 3d 24 19 bb 3d
       -0.05706984 0.24716309 0.090793245 0.091356546
000300 d2 65 06 3e 7c a6 c9 be 2d 74 61 be ea 14 3a be
       0.13124779 -0.3938483 -0.22016974 -0.1817204
000310 fc 90 51 3d f8 82 70 bc 5c 8a 74 3e e9 96 df bc
       0.05116366 -0.014679663 0.23880905 -0.02729364
000320 05 6f 8d be 8d b9 06 be bc 50 0c be fd 71 c6 bc
       -0.27623764 -0.1315672 -0.13702673 -0.024224276
000330 a6 35 3e 3e a0 09 90 3d b2 23 31 3e f7 4e 29 be
       0.18575153 0.07033086 0.17298773 -0.16534029
000340 dd f6 5e 3d cc ba 84 bd 8d 1f 7a be bb 10 a4 3d
       0.054434646 -0.06480941 -0.24426098 0.080110036
000350 dc 47 94 3d f5 bf b9 3d d2 40 82 3e a6 f0 1d be
       0.072402686 0.09069816 0.2544008 -0.15423831
000360 82 ad 2d be 6b 05 37 be 53 e4 0c be 36 8e cb 3d
       -0.16960719 -0.1787316 -0.13758974 0.09939234
000370 bd 64 26 3d b8 37 c1 bd e1 54 7c 3c de 61 6c 3d
       0.040623415 -0.09434456 0.015401096 0.05771052
000380 69 12 9c bc 9b c4 07 3d 71 fa eb bd 2a ef cd 3d
       -0.019051747 0.033146482 -0.11522377 0.100553825
000390 a4 c0 5e bc 0c 81 b1 3d e8 d5 8b ba 29 9f 2a 3d
       -0.013595734 0.08667192 -0.0010668607 0.041655693
0003a0 f8 fd 4a 3d 65 8d ae 3c f9 17 fc bd 80 e3 77 be
       0.04955861 0.021307657 -0.1230926 -0.24207878
0003b0 59 40 68 3e 1b 23 73 3e 48 e8 3d 3e 19 45 d1 3d
       0.22680797 0.2374386 0.1854564 0.102182575
0003c0 71 f0 3c 3d e7 0f 80 be fb 1f cd 3c 5b ae 56 3d
       0.04612774 -0.25012133 0.025039664 0.052412372
0003d0 3d b0 08 3d 23 24 ce bd a5 d6 b6 3e aa cc 04 bd
       0.0333712 -0.10065486 0.35710636 -0.032421745
0003e0 92 a7 e3 bc 39 b9 de 3e fe c5 84 3e ea dd c6 3b
       -0.027789865 0.4350069 0.25932306 0.0060689347
0003f0 e2 52 1b 3d e1 4b d5 bd 56 9b 5b be 24 30 11 3e
       0.03792084 -0.104148634 -0.21445975 0.1417852

affine_layers.0.bias f4 [64]
000000 00 00 00 00 00 00 00 00 00 00 00 00 00 00 00 00
       0.0 0.0 0.0 0.0
000010 00 00 00 00 00 00 00 00 00 00 00 00 00 00 00 00
       0.0 0.0 0.0 0.0
000020 00 00 00 00 00 00 00 00 00 00 00 00 00 00 00 00
       0.0 0.0 0.0 0.0
000030 00 00 00 00 00 00 00 00 00 00 00 00 00 00 00 00
       0.0 0.0 0.0 0.0
000040 00 00 00 00 00 00 00 00 00 00 00 00 00 00 00 00
       0.0 0.0 0.0 0.0
000050 00 00 00 00 00 00 00 00 00 00 00 00 00 00 00 00
       0.0 0.0 0.0 0.0
000060 00 00 00 00 00 00 00 00 00 00 00 00 00 00 00 00
       0.0 0.0 0.0 0.0
000070 00 00 00 00 00 00 00 00 00 00 00 00 00 00 00 00
       0.0 0.0 0.0 0.0
000080 00 00 00 00 00 00 00 00 00 00 00 00 00 00 00 00
       0.0 0.0 0.0 0.0
000090 00 00 00 00 00 00 00 00 00 00 00 00 00 00 00 00
       0.0 0.0 0.0 0.0
0000a0 00 00 00 00 00 00 00 00 00 00 00 00 00 00 00 00
       0.0 0.0 0.0 0.0
0000b0 00 00 00 00 00 00 00 00 00 00 00 00 00 00 00 00
       0.0 0.0 0.0 0.0
0000c0 00 00 00 00 00 00 00 00 00 00 00 00 00 00 00 00
       0.0 0.0 0.0 0.0
0000d0 00 00 00 00 00 00 00 00 00 00 00 00 00 00 00 00
       0.0 0.0 0.0 0.0
0000e0 00 00 00 00 00 00 00 00 00 00 00 00 00 00 00 00
       0.0 0.0 0.0 0.0
0000f0 00 00 00 00 00 00 00 00 00 00 00 00 00 00 00 00
       0.0 0.0 0.0 0.0
