WocaR-PPO/src/release_models/WocaR-PPO/wocar_hopper.model (torch_old, 204679 bytes, 51 tensors)

affine_layers.0.weight f4 [64, 11]
-0.08815295 -0.0686595 0.46760404 0.10744675 0.107881665 -0.18951614 0.111714855 -0.18675895
0.35927463 0.21064487 -0.033300973 -0.18895659 -0.15684372 -0.11484889 0.06143685 -0.08198668
0.48985302 -0.43044975 0.04801448 -0.19496909 -0.13234745 -0.18198282 -0.14433427 0.108401075
-0.39410463 -0.14997229 0.12863351 0.4175184 -0.30727756 -0.19317394 0.23369569 0.15647244
-0.063853696 0.5896803 -0.039571237 -0.20704022 -0.11070196 0.34346932 -0.21949579 0.12985002
0.043037094 -0.009959272 -0.043185797 0.08109088 0.2068231 0.09479062 -0.34453377 -0.08199079
0.22627625 0.35453886 0.13651459 0.1635628 -0.17112526 -0.27904177 -0.24588802 0.05973567
0.027419811 -0.04636739 0.08397237 -0.33099845 -0.50843984 -0.185731 -0.13325319 0.3300364
0.20271257 0.20977305 0.036664 0.017923346 0.3004866 0.11726319 0.057047874 -0.49713618
-0.16163242 0.038812317 -0.02327789 -0.0068317954 0.4694179 -0.2405043 -0.049881145 0.10793096
-0.026821489 0.18119076 -0.124696575 0.54048425 0.007736665 0.014839627 0.0024722288 0.1286605
-0.13451007 0.09520015 -0.0847462 0.04219821 0.11893759 0.5170159 -0.18400729 -0.050035227
0.086175494 0.08044624 0.07994811 0.019285208 0.013173874 -0.061981007 0.08156968 0.009348597
0.042702165 -0.19112664 0.2222721 -0.24372487 -0.15284811 0.815062 0.050508957 -0.08598466
0.18405406 0.29613325 -0.061734047 -0.47939175 0.29454154 0.207422 -0.21337771 -0.14059412
0.081917204 -0.2212287 0.118169345 0.29645413 -0.08167805 -0.045961525 -0.24575034 0.1857401
0.14665702 -0.093783945 -0.15780655 0.017330162 0.611878 0.005467058 -0.057352368 0.022414763
-0.3539466 0.18394612 -0.2704747 0.11336605 -0.14125082 -0.018192422 0.12739046 -0.13073988
-0.04179667 0.0068472293 -0.00014933005 -0.042131513 0.15324761 -0.34126887 -0.0232798 0.03321157
-0.050241683 -0.22340046 0.13895242 0.024087127 -0.19296356 -0.0695473 0.17516589 0.36235633
-0.35488573 0.13043827 -0.2221827 -0.27388743 -0.15079668 -0.11868154 -0.02186103 0.5110869
0.24901965 0.37805083 -0.100562416 0.052574378 0.017531658 0.03254274 -0.030174442 0.019356048
0.019055475 0.17943087 -0.72934335 -0.34018773 -0.2856717 0.40325 -0.19452092 0.023983493
-0.014923995 -0.17392695 0.29316857 0.4202352 0.12716031 -0.3002539 -0.036704447 -0.1183401
0.20238076 0.010583215 0.042764824 -0.07373676 -0.21066126 -0.17010553 -0.016399786 0.014319948
0.06373295 0.1106505 0.18924324 -0.7296827 0.16858119 -0.01828346 0.04074418 0.16104014
0.17975874 0.45517668 0.07492967 -0.05119128 0.0060976245 0.30818093 0.0656705 0.14184384
-0.07990507 0.0738567 -0.022732623 -0.15813132 0.074755184 -0.05391894 -0.051902495 0.012365151
0.09760527 0.16039886 -0.3951961 0.058305327 -0.045436013 -0.16443251 -0.06265366 0.11929843
-0.09583272 0.12068682 0.09754454 0.07127817 -0.5582061 0.3509218 0.052405644 -0.026945332
0.108870864 -0.08288221 0.06124481 -0.019736929 0.1268944 0.13125798 -0.38891506 -0.097847946
0.014252733 -0.14000158 0.17969248 0.14578922 0.10652594 -0.11898145 -0.04809758 0.52753997
00000000: 8989 b4bd 5a9d 8cbd cc69 ef3e 0b0d dc3d
00000010: 10f1 dc3d 8510 42be c2ca e43d bd3d 3fbe
00000020: d8f2 b73e 4ab3 573e 9a66 08bd d67d 41be
00000030: a49b 20be e535 ebbd 35a5 7b3d a2e8 a7bd
00000040: 04ce fa3e e963 dcbe d5aa 443d faa5 47be
00000050: 1786 07be b459 3abe 5dcc 13be 6201 de3d
00000060: 15c8 c9be 5692 19be 81b8 033e f9c4 d53e
00000070: 7c53 9dbe 64cf 45be ec4d 6f3e 503a 203e
00000080: bac5 82bd 4af5 163f 7315 22bd 5a02 54be
00000090: b6b7 e2bd 36db af3e 81c3 60be 67f7 043e
000000a0: aa47 303d 372c 23bc 97e3 30bd fa12 a63d
000000b0: 6fc9 533e 9621 c23d bb66 b0be caea a7bd
000000c0: f6b4 673e 1e86 b53e 7bca 0b3e 027d 273e
000000d0: 763b 2fbe 90de 8ebe 12ca 7bbe 64ad 743d
000000e0: 839f e03c bbeb 3dbd b5f9 ab3d a178 a9be
000000f0: 1d29 02bf 4430 3ebe 8673 08be 88fa a83e
00000100: e293 4f3e bfce 563e fe2c 163d fbd3 923c
00000110: 61d9 993e af27 f03d 08ab 693d a288 febe
00000120: f882 25be aaf9 1e3d 46b1 bebc 41dd dfbb
00000130: 8b57 f03e c246 76be 2c50 4cbd e80a dd3d
00000140: bdb8 dbbc 128a 393e eb60 ffbd 2d5d 0a3f
00000150: da83 fd3b e821 733c 1e05 223b 94bf 033e
00000160: 02bd 09be 4cf8 c23d 6a8f adbd 08d8 2c3d
00000170: 8d95 f33d 275b 043f 686c 3cbe bdf1 4cbd
00000180: c77c b03d 00c1 a43d d6bb a33d 03fc 9d3c
00000190: 3bd7 573c ccdf 7dbd 010e a73d dc2a 193c
000001a0: 77e8 2e3d b4b6 43be 4c9b 633e 0393 79be
000001b0: 3784 1cbe e7a7 503f 7be2 4e3d ba18 b0bd
000001c0: ab78 3c3e c79e 973e d7dc 7cbd d672 f5be
000001d0: 26ce 963e 6f66 543e b07f 5abe e8f7 0fbe
000001e0: 35c4 a73d c789 62be c502 f23d d6c8 973e
000001f0: d246 a7bd 2742 3cbd faa5 7bbe a732 3e3e
00000200: 422d 163e cc11 c0bd 0a98 21be fcf7 8d3c
00000210: 09a4 1c3f 0225 b33b 51ea 6abd 2a9f b73c
00000220: 7d38 b5be 5f5c 3c3e a97b 8abe 762c e83d
00000230: 0ea4 10be 4608 95bc a572 023e ade0 05be
00000240: fc32 2bbd b95e e03b 7b95 1cb9 1892 2cbd
00000250: f1ec 1c3e cbba aebe 47b5 bebc db08 083d
00000260: 39ca 4dbd 17c3 64be 8b49 0e3e 5e52 c53c
00000270: 3d98 45be d16e 8ebd b05e 333e c586 b93e
00000280: 95b3 b5be 9c91 053e dd83 63be f93a 8cbe
00000290: 726a 1abe 4f0f f3bd e715 b3bc 97d6 023f
000002a0: 02ff 7e3e e18f c13e abf3 cdbd 3b58 573d
000002b0: 8d9e 8f3c 894b 053d 6430 f7bc 9390 9e3c
000002c0: 3a1a 9c3c babc 373e 3fb6 3abf 162d aebe
000002d0: 9043 92be c976 ce3e 7e30 47be 0879 c43c
000002e0: c683 74bc e819 32be 311a 963e 1129 d73e
000002f0: 5036 023e e1ba 99be 6757 16bd 4b5c f2bd
00000300: e73c 4f3e 3965 2d3c 2b2a 2f3d 4c03 97bd
00000310: 96b7 57be 2530 2ebe d858 86bc 379e 6a3c
00000320: 6c86 823d bb9c e23d fbc8 413e 7ccc 3abf
00000330: 8ca0 2c3e 32c7 95bc 5fe3 263d b5e7 243e
00000340: ad12 383e eb0c e93e ba74 993d f3ad 51bd
00000350: 95ce c73b e4c9 9d3e 417e 863d 833f 113e
00000360: 45a5 a3bd 2e42 973d c439 babc 2ded 21be
00000370: 3f19 993d 1bda 5cbd b697 54bd 3497 4a3c
00000380: 46e5 c73d 993f 243e 2557 cabe 91d1 6e3d
00000390: 1d1b 3abd ff60 28be 9050 80bd bc52 f43d
000003a0: f243 c4bd a72a f73d 6fc5 c73d 4afa 913d
000003b0: 98e6 0ebf 06ac b33e 4da7 563d 75bc dcbc
000003c0: b0f7 de3d 26be a9bd d6db 7a3d 57af a1bc
000003d0: 9bf0 013e 7e68 063e e01f c7be 8164 c8bd
000003e0: 4c84 693c 935c 0fbe 4e01 383e c549 153e
000003f0: 462a da3d 8cac f3bd f801 45bd dc0c 073f

affine_layers.0.bias f4 [64]
0.3419694 -0.17290053 0.5693709 -0.121865705 0.6453913 -0.45242184 -0.3498644 0.14694014
0.32556188 0.1412514 -0.2644241 0.6362343 0.49913734 0.10100461 0.21194723 -0.39288467
-0.09647865 -0.1512919 -0.36460572 -0.25893664 -0.018754723 -0.47505224 0.0603031 -0.29895514
-0.042241573 0.57296085 0.4829087 0.20027402 -0.48630795 0.9667308 -0.4049188 -0.18316305
0.5342101 -0.75262654 0.07766884 0.2857979 0.30946508 0.27174178 -0.31188834 -0.25121692
-0.2895414 -0.3772676 -0.30757985 1.0085293 0.1623422 -0.64776826 -0.17601493 0.14397557
-0.2572664 -0.184519 -0.30237013 -0.14290735 -0.15825807 -0.5149785 0.57595986 -0.08180979
-0.989833 0.23862733 0.46745166 -0.540083 -0.41330487 0.2417133 -0.39102045 -0.8550599
00000000: 9d16 af3e d60c 31be 4bc2 113f ba94 f9bd
00000010: 5d38 253f d6a3 e7be 6d21 b3be 7a77 163e
00000020: 0cb0 a63e 35a4 103e 9862 87be 40e0 223f
00000030: ee8e ff3e 81db ce3d b208 593e 2e28 c9be
00000040: 9996 c5bd 44ec 1abe 9aad babe 5893 84be
00000050: 81a3 99bc 0c3a f3be 6200 773d a610 99be
00000060: 8005 2dbd 90ad 123f cf3f f73e a214 4d3e
00000070: 5bfd f8be ab7b 773f 8451 cfbe 188f 3bbe
00000080: fec1 083f 22ac 40bf d710 9f3d 1a54 923e
00000090: 3572 9e3e bd21 8b3e d4af 9fbe 819f 80be
000000a0: c53e 94be 3829 c1be 1b7b 9dbe 7d17 813f
000000b0: 093d 263e 24d4 25bf 423d 34be 556e 133e
000000c0: 6cb8 83be 8cf2 3cbe 42d0 9abe 4e56 12be
000000d0: 670e 22be a2d5 03bf 1b72 133f e48b a7bd
000000e0: b265 7dbf b95a 743e d355 ef3e e142 0abf
000000f0: b29c d3be b183 773e d533 c8be 35e5 5abf

affine_layers.1.weight f4 [64, 64]
0.18667361 0.07014449 -0.38299647 0.11892952 0.04077691 -0.15925469 0.07689022 0.5378964
-0.04471403 -0.036968462 0.2910756 0.65404654 -0.46074373 -0.049083326 -0.04689093 0.10007575
-0.1627908 -0.45309514 -0.12567945 0.043910522 0.061859515 0.04649941 -0.044086147 -0.13037945
0.035287272 -0.3327952 0.2883544 -0.14550829 -0.19640864 -0.14489408 -0.3168192 -0.15033312
-0.054107327 -0.2184415 -0.3424527 0.25205687 0.26572776 0.3261421 -0.38509536 -0.079858206
0.0137702525 0.17463078 -0.48088506 0.12709166 0.114187546 0.47345603 -0.1566598 0.25247905
-0.3958193 0.026115209 -0.22593725 0.04949126 -0.25589445 0.07524597 0.047711633 -0.024661304
-0.19355738 0.0009908695 0.06148167 0.2087992 0.24593812 -0.13713567 0.21311763 0.03821056
0.13600387 0.18708569 -0.45471242 -0.18226792 -0.52127934 0.1318694 -0.38693354 0.27746847
-0.19188909 -0.38705194 0.20034346 0.37454394 0.13531558 0.3504603 -0.22272567 -0.04425065
0.078574054 0.009742735 0.14004861 0.044619557 -0.15848963 0.05194248 0.3387816 -0.15684175
-0.015827132 0.0669285 -0.07868637 -0.03501513 0.031938992 -0.16772301 0.0191182 -0.014217978
0.10826875 0.09208309 -0.10092768 0.22419427 -0.2724808 -0.04770031 -0.43014824 0.0073150913
-0.053717308 -0.36910573 -0.026184173 0.002162975 0.18560384 0.44725513 -0.0513297 0.012651441
0.17629205 0.044907875 0.31190327 -0.053890407 0.020444255 -0.1806278 -0.095575035 0.2914254
-0.3460301 0.1059649 -0.37093744 -0.09415124 0.022526989 -0.27857083 0.11299036 -0.15911764
-0.019166196 0.08796312 0.5154048 -0.045024186 -0.09878877 0.112134345 0.1843162 -0.031061335
0.2566232 -0.043993972 -0.10385237 -0.2986366 0.048718475 -0.039305735 -0.11613149 0.020766523
0.049285483 -0.29388553 -0.0657248 -0.49145293 0.30671623 -0.21956833 -0.12291653 -0.3338443
0.4384809 0.019161602 -0.14444548 0.15179472 0.10862886 0.23240376 0.0642573 -0.33325225
-0.17000374 -0.028435115 0.018708438 0.24176908 0.25809 -0.25671884 0.2537084 0.08778687
-0.11765496 0.21378596 -0.44949502 0.048522387 -0.32283163 0.014261999 0.15403813 -0.079544455
-0.16137025 -0.14316459 0.14698564 -0.15662265 0.16027887 -0.20889713 -0.22286128 -0.09101997
-0.12827499 0.016314618 0.14494981 -0.3114581 0.13592188 0.004917489 -0.13545208 -0.105392285
0.030920684 0.05522907 -0.28911406 -0.03841043 -0.057669256 0.27401432 0.25370356 -0.5277214
-0.051959973 -0.008779692 -0.07040722 -0.40785405 -0.20185125 -0.0019084562 0.07658814 0.16221818
0.40550682 0.17892995 0.099008106 -0.106494 -0.2235168 -0.122025125 -0.15016177 0.18522961
0.21036728 0.18481158 -0.08741637 -0.2302875 0.36092773 -0.20722899 -0.35397318 -0.09918097
-0.2565287 -0.21957581 -0.0052801515 -0.65050334 0.11669079 0.12641615 -0.0039512566 0.102820225
-0.37156042 0.14344619 -0.0011003715 -0.3566897 -0.26525274 -0.33067113 0.2398757 -0.49292222
0.018129855 -0.13782988 0.062244706 0.13385694 0.12243326 -0.103485405 -0.58110005 0.55597526
0.20573685 -0.036608405 0.10955293 0.44163728 0.023684284 -0.37187806 0.11086171 0.02513072
00000000: 5e27 3f3e eaa7 8f3d 1d18 c4be 5291 f33d
00000010: b005 273d a913 23be 9f78 9d3d 94b3 093f
00000020: 0f26 37bd 3e6c 17bd dc07 953e 986f 273f
00000030: 9ae6 ebbe 990b 49bd b410 40bd 84f4 cc3d
00000040: a2b2 26be 16fc e7be 1db2 00be 85db 333d
00000050: 6760 7d3d 2a76 3e3d ad93 34bd 3182 05be
00000060: 6389 103d 2264 aabe 30a3 933e 2000 15be
00000070: 591f 49be 1d5f 14be 2036 a2be edf0 19be
00000080: a59f 5dbd 21af 5fbe f655 afbe 990d 813e
00000090: 780d 883e 19fc a63e 382b c5be b38c a3bd
000000a0: a09c 613c 69d2 323e 9136 f6be 5124 023e
000000b0: 29db e93d d468 f23e 6d6b 20be ef44 813e
000000c0: d4a8 cabe 90ef d53c 185c 67be 59b7 4a3d
000000d0: 9904 83be 8f1a 9a3d 466d 433d 8106 cabc
000000e0: e833 46be 10e0 813a 34d4 7b3d 75cf 553e
000000f0: 34d7 7b3e 4b6d 0cbe 823b 5a3e ad82 1c3d
00000100: 9944 0b3e 6493 3f3e 11d0 e8be 71a4 3abe
00000110: 9072 05bf c608 073e 271c c6be 5910 8e3e
00000120: 937e 44be ac2b c6be d626 4d3e 39c4 bf3e
00000130: 2b90 0a3e 886f b33e 3312 64be 2b40 35bd
00000140: 6feb a03d fe9f 1f3c e768 0f3e ffc2 363d
00000150: 1b4b 22be a3c1 543d c874 ad3e 209b 20be
00000160: e7a7 81bc cf11 893d 5226 a1bd 066c 0fbd
00000170: 76d2 023d 95bf 2bbe c59d 9c3c 86f2 68bc
00000180: 02bc dd3d 0f96 bc3d 2cb3 cebd 2f93 653e
00000190: 9a82 8bbe 6661 43bd 643c dcbe 6fb3 ef3b
000001a0: ae06 5cbd 6dfb bcbe 3180 d6bc b3c0 0d3b
000001b0: ef0e 3e3e a0fe e43e 173f 52bd fd47 4f3c
000001c0: e785 343e 52f1 373d c9b1 9f3e 30bc 5cbd
000001d0: b67a a73c 7ef6 38be d8bc c3bd b635 953e
000001e0: db2a b1be 2004 d93d 83eb bdbe 5ed2 c0bd
000001f0: 858a b83c d6a0 8ebe 7d67 e73d bcef 22be
00000200: 6d02 9dbc 0226 b43d 92f1 033f 486b 38bd
00000210: c451 cabd b1a6 e53d 63bd 3c3e 5774 febc
00000220: 1e64 833e 0633 34bd 8db0 d4bd e5e6 98be
00000230: 068d 473d 0dff 20bd 59d6 edbd 8e1e aa3c
00000240: 93df 493d 2a78 96be b99a 86bd b89f fbbe
00000250: e909 9d3e 85d6 60be a9bb fbbd a4ed aabe
00000260: 9280 e03e cbf8 9c3c 84e9 13be 1370 1b3e
00000270: cf78 de3d 40fb 6d3e 5599 833d 0aa0 aabe
00000280: 7615 2ebe c2f0 e8bc 7042 993c 5092 773e
00000290: 5f24 843e a770 83be 11e6 813e 9ac9 b33d
000002a0: 15f5 f0bd b5ea 5a3e 3624 e6be 69bf 463d
000002b0: 304a a5be 29ab 693c 2cbc 1d3e 34e8 a2bd
000002c0: 3e3e 25be bd99 12be 6783 163e b061 20be
000002d0: 2520 243e 21e9 55be bf35 64be ae68 babd
000002e0: 855a 03be 3ca6 853c b96d 143e 7077 9fbe
000002f0: 1b2f 0b3e e322 a13b f3b3 0abe e9d7 d7bd
00000300: 604d fd3c e137 623d c206 94be 4154 1dbd
00000310: 9936 6cbd 9b4b 8c3e 6fe5 813e c018 07bf
00000320: fbd3 54bd b3d8 0fbc a931 90bd 3fd2 d0be
00000330: 18b2 4ebe 2a25 faba 3eda 9c3d 861c 263e
00000340: 979e cf3e 6a39 373e c3c4 ca3d 8719 dabd
00000350: 97e1 64be 4fe8 f9bd 02c4 19be d5ac 3d3e
00000360: 856a 573e 3f3f 3d3e 5b07 b3bd 7dd0 6bbe
00000370: 85cb b83e d633 54be f93b b5be 641f cbbd
00000380: bb57 83be 7bd8 60be 1f05 adbb 6387 26bf
00000390: 95fb ee3d 3c73 013e 8b79 81bb 6993 d23d
000003a0: 2b3d bebe 8fe3 123e 573a 90ba 08a0 b6be
000003b0: 35cf 87be ba4d a9be faa1 753e 4d60 fcbe
000003c0: 1085 943c 4723 0dbe 4ef4 7e3d cb11 093e
000003d0: 4abe fa3d 28f0 d3bd f9c2 14bf 6554 0e3f
000003e0: aeac 523e b2f2 15bd 495d e03d 481e e23e
000003f0: 8b05 c23c cd66 bebe 770b e33d f1de cd3c

affine_layers.1.bias f4 [64]
-0.097298704 -0.15327156 -0.09100265 -0.32115266 0.24831699 0.08563586 0.25521013 -0.071292005
0.17217293 -0.10158004 0.03394309 0.22914076 0.06295882 -0.13490817 -0.017137198 -0.29291746
0.1547204 0.23566152 0.013005934 0.04902811 0.13105345 0.22168143 -0.21354274 0.118021965
-0.3371021 -0.09264791 0.4071149 0.120909326 -0.018128008 -0.10740327 -0.082046494 0.10405027
-0.1153424 0.17635569 -0.031780306 -0.24140924 0.055995632 0.0849531 0.14830512 -0.013978715
0.04807507 0.15329139 0.16382198 -0.10150569 0.22373316 0.06587458 -0.24743937 -0.3547652
0.1634434 -0.11735547 0.14015006 -0.16699845 -0.033731192 -0.1802249 -0.046755042 -0.060999427
-0.043863643 -0.2107699 0.086663984 -0.15183417 0.091955274 0.24703936 0.09813901 0.1816466
00000000: 8b44 c7bd 38f3 1cbe 995f babd 1f6e a4be
00000010: cf46 7e3e db61 af3d e7aa 823e 8b01 92bd
00000020: 1a4e 303e 3209 d0bd e907 0b3d e0a3 6a3e
00000030: 8ef0 803d 5e25 0abe 4f63 8cbc 47f9 95be
00000040: 066f 1e3e 4151 713e d716 553c b3d1 483d
00000050: e032 063e 7500 633e f3aa 5abe 80b5 f13d
00000060: a598 acbe 30be bdbd 5d71 d03e 4f9f f73d
00000070: 3081 94bc 3ff6 dbbd fe07 a8bd 4f18 d53d
00000080: a338 ecbd 9696 343e 112c 02bd fc33 77be
00000090: ad5b 653d e4fb ad3d 4cdd 173e fb06 65bc
000000a0: 5dea 443d 6bf8 1c3e f3c0 273e 37e2 cfbd
000000b0: 4e1a 653e 40e9 863d bf60 7dbe c9a3 b5be
000000c0: b55d 273e 1158 f0bd 7f83 0f3e a401 2bbe
000000d0: b829 0abd e08c 38be 3782 3fbd 89da 79bd
000000e0: 5daa 33bd 11d4 57be e37c b13d 6b7a 1bbe
000000f0: 0c53 bc3d e3f7 7c3e 1bfd c83d 9101 3a3e

final.weight f4 [1, 64]
-0.20405285 -0.1924728 -0.14342672 -0.109351516 0.21703255 0.07394232 0.2505341 0.13535033
0.10739134 -0.22535375 0.07762323 0.27048844 0.116890654 -0.07039166 0.10113171 -0.0787867
0.24864608 0.15360011 -0.108270235 0.11052386 -0.057358317 -0.26700917 -0.30160096 0.14319254
-0.29255587 0.18007162 0.4179879 -0.2170129 -0.15051195 -0.162583 0.14239143 0.19365604
0.015268328 0.048832607 -0.21560138 -0.18536134 0.26578394 0.25321367 0.21114112 -0.261058
-0.23216966 0.14678511 0.050210226 -0.1732286 0.16968256 -0.13830404 -0.23354906 -0.49072084
0.1399597 -0.22989365 0.089816414 -0.22700356 -0.17445755 -0.1800718 0.25843585 0.116986506
-0.142117 -0.40331045 0.022631701 -0.29750475 -0.16494495 0.22810203 0.029039653 0.20326686
00000000: 3bf3 50be 9717 45be 74de 12be b0f3 dfbd
00000010: c83d 5e3e 126f 973d 0146 803e 4799 0a3e
00000020: feef db3d 22c3 66be eef8 9e3d 767d 8a3e
00000030: 5e64 ef3d 8129 90bd 241e cf3d ec5a a1bd
00000040: 149d 7e3e 5949 1d3e c9bc ddbd 555a e23d
00000050: 8ef0 6abd 6db5 88be 716b 9abe 11a1 123e
00000060: e2c9 95be b264 383e 8302 d63e a138 5ebe
00000070: ce1f 1abe 287c 26be 0fcf 113e c54d 463e
00000080: 0228 7a3c b304 483d 9cc6 5cbe 5dcf 3dbe
00000090: d514 883e 39a5 813e 6135 583e 65a9 85be
000000a0: e2bd 6dbe d64e 163e 3da9 4d3d d762 31be
000000b0: 44c1 2d3e 939f 0dbe 7c27 6fbe c33f fbbe
000000c0: 9851 0f3e 3e69 6bbe abf1 b73d 9f73 68be
000000d0: 00a5 32be be64 38be b451 843e 9f96 ef3d
000000e0: 1e87 11be b57e cebe 1e66 b93c 8b52 98be
000000f0: 54e7 28be 9493 693e 91e4 ed3c 3025 503e

log_stdev f4 [3]
-0.90750366 -0.49209058 0.10915553
00000000: 2952 68bf 4cf3 fbbe ef8c df3d

affine_layers.0.weight f4 [64, 11]
-0.34401578 0.077289805 0.42900395 0.13504185 0.10934102 0.046730984 -0.5065781 0.066589326
0.14564942 -0.002556128 0.15967871 0.20549455 -0.06256783 0.075553656 0.12332541 -0.25090775
-0.37082493 0.20506263 -0.12307853 0.13718238 -0.123720534 0.018483672 -0.31921157 -0.24498649
0.14685692 -0.38573772 -0.17549871 -0.025604611 -0.08359764 -0.17673416 0.12574396 0.19230947
-0.07642846 0.051101595 -0.08433909 0.030151155 -0.53098154 -0.029916707 0.32930404 -0.3394819
0.08593706 0.20515782 0.18062866 -0.4681058 -0.32036936 -0.022359759 -0.117136136 -0.050063018
-0.0498018 0.29603946 -0.19901201 0.39819133 0.07715967 0.09036928 -0.43346608 0.13741325
0.100450955 -0.55505073 0.15913661 0.59013194 -0.53596586 -0.32771668 -0.11516109 0.18864384
0.22972418 0.33786964 0.27579933 0.00016632004 0.20115355 0.20771286 -0.18751389 0.29039127
-0.20246518 0.022174107 0.17881246 0.3776623 -0.25907117 -0.1600336 0.08883536 -0.13413662
-0.110421844 0.18477155 -0.25740606 0.1877321 -0.35680476 0.09282144 -0.05611409 -0.3842763
0.29439452 -0.07364998 -0.20739765 0.33280078 0.18702048 0.295928 0.059107896 -0.20663263
0.022914696 -0.05408907 0.061747383 -0.1731813 0.035584107 0.18538597 0.30339074 0.0052654548
0.13261496 0.1484758 0.22553453 -0.01826414 -0.030962566 -0.19860502 -0.20319417 -0.35791287
-0.059963927 0.042796142 -0.034687977 -0.081988186 0.27968252 0.027046347 -0.23460351 0.10753663
-0.06829152 0.44039407 0.049123053 -0.18794417 -0.06876174 -0.43749878 0.06392754 0.7176901
0.4609491 -0.3029639 -0.03564454 -0.0059648864 0.058413733 -0.2914486 -0.11361945 -0.06444864
0.06913601 0.13468443 0.12798223 -0.1672151 -0.08267388 -0.033884995 -0.00010377246 0.5039824
0.3987128 -0.10529747 -0.064746715 -0.1610202 0.22039124 0.34180957 -0.009269986 0.15953974
0.10803008 -0.10903781 0.11198913 -0.10503559 0.43315125 0.14799389 0.24576057 0.010276581
-0.45928013 -0.3989874 -0.2310594 -0.27004728 -0.04528408 0.023536503 -0.13046841 -0.16673473
0.17915858 -0.044226173 -0.03249451 -0.16338672 -0.32264808 -0.08172861 0.38279822 -0.07029905
-0.36042503 0.0010502688 -0.026297636 -0.05472858 0.013874901 0.13369608 0.76205397 0.062976874
-0.025210697 0.02163982 0.29676956 0.13758858 -0.11698632 0.14990821 0.33705038 0.18321632
-0.045327105 -0.04902693 0.086446755 -0.22464919 0.21359086 -0.27882174 -0.21919453 0.061698288
-0.31875163 -0.20728646 -0.23489863 0.26702437 0.18604498 0.11438111 0.13524704 -0.2951736
-0.3347017 0.0823782 0.29691225 -0.30805272 -0.29558256 -0.307201 -0.1880673 -0.044475645
-0.08889823 0.14393048 0.032689683 0.2565231 0.0040759235 -0.15592867 0.037753463 0.16183926
-0.09527143 0.012979066 -0.15765484 -0.23162583 0.1442162 -0.19065174 0.045572557 -0.05984742
0.0890604 0.13383478 -0.044774894 0.3243824 -0.15370087 0.30564648 0.25595975 0.34899187
0.16216564 -0.3657759 -0.8269453 -0.103514045 -0.3310817 -0.037523974 -0.07875953 -0.14709905
-0.20240536 0.0670817 0.10716181 0.06017781 -0.12992537 -0.068236016 0.0024890357 -0.071596116
00000000: d622 b0be 1e4a 9e3d 68a6 db3e 6948 0a3e
00000010: 2fee df3d fd68 3f3d 1aaf 01bf fc5f 883d
00000020: 1f25 153e b684 27bb d182 233e 2a6d 523e
00000030: 9023 80bd e0bb 9a3d 0892 fc3d fb76 80be
00000040: c4dc bdbe f0fb 513e 9910 fcbd 8a79 0c3e
00000050: 3161 fdbd 126b 973c b36f a3be bddd 7abe
00000060: a961 163e 6a7f c5be efb5 33be c3c0 d1bc
00000070: 3d35 abbd cdf9 34be 06c3 003e c6ec 443e
00000080: 8686 9cbd e84f 513d f9b9 acbd 8eff f63c
00000090: 68ee 07bf e213 f5bc 8a9a a83e 92d0 adbe
000000a0: c5ff af3d e414 523e b8f6 383e 90ab efbe
000000b0: 7407 a4be d02b b7bc 12e5 efbd e10e 4dbd
000000c0: f9fc 4bbd 7c92 973e cec9 4bbe bcdf cb3e
000000d0: e405 9e3d 8713 b93d 44ef ddbe 0fb6 0c3e
000000e0: 3bb9 cd3d ce17 0ebf b5f4 223e e312 173f
000000f0: 0f35 09bf 7bca a7be 94d9 ebbd da2b 413e
00000100: d13c 6b3e 40fd ac3e 9235 8d3e 3266 2e39
00000110: 32fb 4d3e aeb2 543e a403 40be 2aae 943e
00000120: 0853 4fbe 79a6 b53c 9d1a 373e f45c c13e
00000130: faa4 84be d9df 23be 50ef b53d 1c5b 09be
00000140: d924 e2bd c134 3d3e baca 83be d83c 403e
00000150: 1daf b6be 2b19 be3d e3d7 65bd ddbf c4be
00000160: e1ba 963e cdd5 96bd 0d60 54be dd64 aa3e
00000170: 4c82 3f3e e083 973e 1f1b 723d 8197 53be
00000180: 9ab7 bb3c 808c 5dbd d3ea 7c3d 7056 31be
00000190: a4c0 113d d2d5 3d3e 0856 9b3e d689 ac3b
000001a0: 37cc 073e 0a0a 183e 86f2 663e ad9e 95bc
000001b0: 35a5 fdbc 1d5f 4bbe 2212 50be 5b40 b7be
000001c0: bc9c 75bd 024b 2f3d fb14 0ebd 6ce9 a7bd
000001d0: 8c32 8f3e 4d90 dd3c e73b 70be 2a3c dc3d
000001e0: 6ddc 8bbd 557b e13e 4135 493d 7074 40be
000001f0: f5d2 8cbd d7ff dfbe 71ec 823d 8aba 373f
00000200: 8501 ec3e 161e 9bbe 0200 12bd 1875 c3bb
00000210: 3d43 6f3d c038 95be 50b1 e8bd a6fd 83bd
00000220: 2e97 8d3d b7ea 093e c60d 033e 6f3a 2bbe
00000230: ec50 a9bd feca 0abd 6aa0 d9b8 fe04 013f
00000240: 1624 cc3e 33a6 d7bd ed99 84bd 7be2 24be
00000250: 3eae 613e aa01 af3e 24e1 17bc 635e 233e
00000260: e03e dd3d 374f dfbd 8f5a e53d e61c d7bd
00000270: 00c6 dd3e b68b 173e a9a8 7b3e 1b5f 283c
00000280: c426 ebbe 1448 ccbe d69a 6cbe a343 8abe
00000290: cd7b 39bd a0cf c03c 8399 05be 82bc 2abe
000002a0: 5975 373e 8126 35bd f718 05bd d94e 27be
000002b0: 2132 a5be 5461 a7bd 21fe c33e f3f8 8fbd
000002c0: a189 b8be 2ca9 893a 246e d7bc 132b 60bd
000002d0: 8e53 633c a0e7 083e f815 433f 05fa 803d
000002e0: aa86 cebc fe45 b13c 2ef2 973e 05e4 0c3e
000002f0: 8696 efbd 8a81 193e de91 ac3e 0f9d 3b3e
00000300: eaa8 39bd 76d0 48bd ff0a b13d 700a 66be
00000310: 90b7 5a3e b9c1 8ebe 8874 60be 58b7 7c3d
00000320: 6a33 a3be e742 54be 4489 70be 6bb7 883e
00000330: 9382 3e3e a540 ea3d 337e 0a3e fe20 97be
00000340: 055e abbe e7b5 a83d e204 983e 16b9 9dbe
00000350: 9956 97be 7349 9dbe b794 40be 182c 36bd
00000360: 4610 b6bd 8362 133e 9ee5 053d ff56 833e
00000370: 538f 853b c4ab 1fbe 60a3 1a3d 31b9 253e
00000380: ab1d c3bd 26a6 543c 4570 21be 522f 6dbe
00000390: 69ad 133e 363a 43be 4aaa 3a3d 9122 75bd
000003a0: 4d65 b63d fc0b 093e e165 37bd 7315 a63e
000003b0: c363 1dbe b27d 9c3e 280d 833e 10af b23e
000003c0: c00e 263e fb46 bbbe b0b2 53bf 2cff d3bd
000003d0: 8a83 a9be bdb2 19bd ad4c a1bd 22a1 16be
000003e0: 5a43 4fbe 2162 893d a777 db3d 027d 763d
000003f0: 280b 05be 53bf 8bbd 171f 233b fca0 92bd

affine_layers.0.bias f4 [64]
-0.31274843 0.45718938 -0.5064482 0.19340476 0.14416403 0.23047717 0.07084121 -0.4169367
0.2800472 -0.2994891 -0.5036226 -0.10062388 0.25822845 0.14977908 0.21069361 0.1754878
-0.1959027 -0.22833797 -0.10078115 -0.1756322 0.34414896 0.2022638 -0.22942838 -0.17820483
0.038341913 0.23378445 -0.24744804 0.106673285 0.38619444 0.04477396 -0.15032223 0.21248934
0.5856754 0.20150453 0.20977187 -0.13767065 0.3555249 0.69698566 -0.21599737 -0.39415973
-0.07813046 -0.20723744 -0.032149367 0.3192431 0.4850544 0.11076462 -0.2546446 0.3843973
-0.22559194 -0.06705472 -0.53155035 0.20174386 0.1111264 -0.6958872 -0.21280934 -0.45065987
-0.4277154 -0.4473596 0.06244013 0.07344443 -0.3968784 -0.12019269 -0.3221166 -0.28154764
00000000: 9020 a0be ba14 ea3e 97a6 01bf e60b 463e
00000010: bc9f 133e 3502 6c3e 3215 913d ba78 d5be
00000020: 5962 8f3e a356 99be 69ed 00bf e513 cebd
00000030: 8536 843e b05f 193e 11c0 573e 13b3 333e
00000040: b89a 48be 6ed1 69be 5966 cebd edd8 33be
00000050: 4b34 b03e 3e1e 4f3e 46ef 6abe 547b 36be
00000060: 690c 1d3d 3165 6f3e 0563 7dbe 8677 da3d
00000070: 47bb c53e e664 373d 12ee 19be ce96 593e
00000080: d3ee 153f 3457 4e3e 70ce 563e 89f9 0cbe
00000090: 5c07 b63e a76d 323f 6a2e 5dbe 4ecf c9be
000000a0: dd02 a0bd 0d36 54be 0eaf 03bd d573 a33e
000000b0: 0d59 f83e 90d8 e23d c760 82be b9cf c43e
000000c0: 9301 67be fc53 89bd af13 08bf f195 4e3e
000000d0: 3d96 e33d aa25 32bf b1ea 59be e4bc e6be
000000e0: 83fd dabe 510c e5be 39c1 7f3d 096a 963d
000000f0: a533 cbbe 9627 f6bd 78ec a4be 0327 90be

affine_layers.1.weight f4 [64, 64]
0.18899025 -0.0793623 -0.2045198 0.36696383 0.0003136311 -0.50401723 0.016589727 0.026087768
-0.057734635 -0.08855275 -0.21922223 -0.54154325 -0.10310282 -0.2370303 0.31391245 0.2734481
0.10522817 0.24479535 -0.025318274 -0.10773018 0.072023384 0.25997785 0.34873655 0.03515167
-0.48153922 0.1503957 0.3917743 -0.0017570278 -0.15896253 0.4316542 0.39367113 -0.113982186
0.20708461 0.09864843 -0.32407555 0.29084587 0.13175644 -0.1222456 -0.38771796 -0.020308096
-0.034975007 0.31055978 0.12312328 0.1236267 0.37946293 -0.15329155 0.19881943 -0.0675692
-0.27257746 0.08006353 -0.37718323 0.14228274 0.30449083 0.16858271 -0.009530002 0.16005538
-0.021344904 -0.34468678 0.19925919 0.12297219 0.22570974 0.3417353 -0.16307317 0.23439431
0.33813474 -0.031117145 0.6487131 0.13442197 0.08463928 -0.18697706 -0.02901242 0.19446933
-0.22952226 0.30500868 0.28459167 0.038471144 -0.2245289 -0.291979 -0.28841636 0.37866166
0.18094133 -0.5036374 0.14275387 0.05066995 -0.124223895 -0.2571722 0.26827797 -0.24418049
-0.21405625 0.13134108 -0.3153036 -0.025921367 -0.0052523054 0.008654534 0.03864552 -0.1410568
-0.21868183 -0.16138946 0.0085383 -0.09609681 -0.0077699004 -0.16406636 0.17275241 -0.10478499
-0.20515527 0.11087639 0.27722442 -0.16741174 -0.4560454 -0.2735646 -0.20405927 -0.11718169
0.018691614 0.011707014 -0.0064925696 0.043230627 -0.0028355708 0.53847826 0.10556526 -0.20358518
-0.0013497061 -0.077881485 -0.043982204 0.30105752 -0.12015908 -0.17295723 -0.29405364 0.4685477
-0.2626802 -0.18898192 0.1482486 0.03541852 -0.3793629 -0.62878865 -0.02713453 -0.11665175
-0.040214945 0.13880481 -0.0031542466 0.40317708 0.08049927 0.04265443 -0.19099914 -0.49910685
0.15636571 -0.1967186 0.13572042 0.14037733 0.272306 -0.24628732 0.18726395 -0.06574915
0.03850761 0.13799982 0.10196245 0.14234287 0.36943492 0.23066953 0.02245788 0.090487555
0.01705327 0.00055029796 -0.29631007 0.013469739 -0.25957382 0.23647131 0.033179358 0.059243556
0.39538032 -0.16959156 0.29424444 0.04722899 0.18511151 -0.18621145 -0.12802973 -0.15206665
-0.2681327 -0.1128087 -0.28212133 -0.09869592 -0.15085734 -0.15132691 0.013845464 -0.11193139
-0.13157165 -0.08713957 -0.20348072 0.3257056 -0.32395563 0.093035884 -0.004000561 -0.095733315
0.103456095 -0.013895292 -0.17966567 -0.03783446 -0.32410282 0.38554704 0.035901062 -0.2890476
-0.12031737 0.08784364 -0.27555433 0.009582765 -0.27241233 0.4382885 -0.15381616 -0.39368257
0.07305221 -0.06499809 0.031207561 0.35771227 0.15888111 0.22795011 -0.060356576 -0.16730583
0.2096412 -0.14135304 0.12510163 -0.038771108 -0.14083023 -0.25334117 -0.16440094 -0.123578094
0.0077809915 -0.057317827 0.08082701 -0.4352953 0.23470509 -0.035681743 -0.12139277 -0.04507876
-0.25665745 0.08776617 0.36467066 0.011841531 -0.03655183 0.17838547 -0.12847066 -0.10373212
0.014444836 0.03171597 -0.104933895 -0.3682799 0.11622049 0.097323656 0.18008949 -0.70344365
0.121233255 -0.04386141 -0.17532271 -0.036963165 -0.019344935 -0.3003623 -0.23729599 0.41766945
00000000: a986 413e b488 a2bd a36d 51be afe2 bb3e
00000010: db6e a439 4607 01bf 2ee7 873c 04b6 d53c
00000020: 277b 6cbd 255b b5bd cb7b 60be 94a2 0abf
00000030: 9227 d3bd 12b8 72be 22b9 a03e 6401 8c3e
00000040: de81 d73d a2ab 7a3e 4568 cfbc a4a1 dcbd
00000050: ff80 933d d11b 853e 998d b23e 33fb 0f3d
00000060: 4f8c f6be 5501 1a3e a496 c83e 124c e6ba
00000070: 13c7 22be c801 dd3e 438f c93e 7e6f e9bd
00000080: fd0d 543e 3008 ca3d 3bed a5be c0e9 943e
00000090: 29eb 063e e75b fabd f882 c6be 2a5d a6bc
000000a0: f441 0fbd b101 9f3e 0f28 fc3d ff2f fd3d
000000b0: f748 c23e 76f8 1cbe 5297 4b3e b961 8abd
000000c0: 468f 8bbe 59f8 a33d 291e c1be 91b2 113e
000000d0: 39e6 9b3e f2a0 2c3e ba23 1cbc 8fe5 233e
000000e0: 82db aebc c97a b0be 9a0a 4c3e d8d8 fb3d
000000f0: 7420 673e eef7 ae3e a7fc 26be 1005 703e
00000100: ff1f ad3e 62e9 febc 1012 263f eaa5 093e
00000110: 5c57 ad3d ea76 3fbe 74ab edbc f822 473e
00000120: e207 6bbe 192a 9c3e 00b6 913e eb93 1d3d
00000130: e7ea 65be 467e 95be 4fab 93be f1df c13e
00000140: af48 393e 61ee 00bf 122e 123e 4b8b 4f3d
00000150: 1969 febd 13ac 83be bb5b 893e 730a 7abe
00000160: 9031 5bbe 477e 063e 796f a1be 0c59 d4bc
00000170: 881b acbb bfcb 0d3c c44a 1e3d 3271 10be
00000180: 21ee 5fbe 4743 25be 3ae4 0b3c 68ce c4bd
00000190: a69a febb 0301 28be 02e6 303e 8399 d6bd
000001a0: 3914 52be 2913 e33d 5cf0 8d3e fc6d 2bbe
000001b0: c87e e9be a910 8cbe eaf4 50be f4fc efbd
000001c0: 281f 993c c7ce 3f3c 9fbf d4bb 9912 313d
000001d0: fcd4 39bb b6d9 093f 9932 d83d a278 50be
000001e0: 9fe8 b0ba 5480 9fbd af26 34bd 3624 9a3e
000001f0: f715 f6bd b31b 31be 338e 96be 7ce5 ef3e
00000200: 057e 86be 7a84 41be 7bce 173e 0313 113d
00000210: db3b c2be 4bf8 20bf 3c49 debc 1de7 eebd
00000220: 6db8 24bd d922 0e3e 7ab7 4ebb 3a6d ce3e
00000230: cddc a43d 69b6 2e3d 4795 43be ef8a ffbe
00000240: 551e 203e 9a70 49be 4bfa 0a3e 13bf 0f3e
00000250: b16b 8b3e be32 7cbe 1fc2 3f3e 7ea7 86bd
00000260: 28ba 1d3d d34f 0d3e b0d1 d03d 54c2 113e
00000270: 9326 bd3e a234 6c3e 97f9 b73c 8a51 b93d
00000280: 4db3 8b3c df41 103a f4b5 97be 2eb0 5c3c
00000290: dce6 84be 8925 723e 14e7 073d 5fa9 723d
000002a0: 4a6f ca3e 69a9 2dbe 35a7 963e 2f73 413d
000002b0: df8d 3d3e 37ae 3ebe 3a1a 03be 5cb7 1bbe
000002c0: b048 89be 3f08 e7bd 3572 90be 1621 cabd
000002d0: 597a 1abe 71f5 1abe 16d8 623c 493c e5bd
000002e0: b8ba 06be 3b76 b2bd 405d 50be e2c2 a63e
000002f0: 83dd a5be 9989 be3d 2317 83bb d40f c4bd
00000300: cae0 d33d 14a9 63bc 47fa 37be 4ff8 1abd
00000310: cef0 a5be 6c66 c53e fe0c 133d 0cfe 93be
00000320: f468 f6bd 5ee7 b33d 7515 8dbe 0801 1d3c
00000330: a179 8bbe 5a67 e03e fc81 1dbe c390 c9be
00000340: 669c 953d b81d 85bd 00a7 ff3c 1026 b73e
00000350: bbb1 223e c16b 693e 7538 77bd 3852 2bbe
00000360: 2fac 563e dabe 10be a41a 003e 74ce 1ebd
00000370: cd35 10be efb5 81be b858 28be 8316 fdbd
00000380: b0f7 fe3b 19c6 6abd a288 a53d 07df debe
00000390: 8856 703e 0527 12bd c69c f8bd 81a4 38bd
000003a0: 9b68 83be c0be b33d 1db6 ba3e fb02 423c
000003b0: 5fb7 15bd aeaa 363e d08d 03be 8171 d4bd
000003c0: 09aa 6c3c 9be8 013d 95e7 d6bd 2f8f bcbe
000003d0: 0205 ee3d a051 c73d 6169 383e e214 34bf
000003e0: 2449 f83d 06a8 33bd cc87 33be b066 17bd
000003f0: 4579 9ebc 16c9 99be b8fd 72be c5d8 d53e

affine_layers.1.bias f4 [64]
0.15781984 -0.29763758 0.15880138 0.0755628 -0.26259705 -0.3133396 -0.09457311 -0.26228556
0.07599109 -0.18743898 -0.227536 0.011290182 -0.092619896 0.23678896 0.0060564447 -0.15310888
0.1265088 0.2562693 -0.16905679 0.32226694 0.18214275 0.22467293 0.010898595 0.046023227
-0.04858552 -0.070889264 0.041347526 -0.32762274 -0.048253726 -0.31348464 -0.38123778 0.0008764836
-0.11913617 -0.24537356 0.20304461 -0.18514983 -0.033299938 0.1845907 -0.09799341 -0.24532692
0.10931159 -0.41731808 0.053106338 0.12933156 -0.2087933 -0.08236356 0.022610271 -0.019874386
0.25590587 -0.28674945 -0.2496593 0.45467708 -0.09955446 0.05117676 0.4243814 -0.31691
-0.22449714 -0.03993484 0.023305232 0.40056172 -0.092021435 -0.29296666 -0.052518807 0.0024108472
00000000: 869b 213e f463 98be d49c 223e abc0 9a3d
00000010: 1f73 86be 0c6e a0be 8caf c1bd 4b4a 86be
00000020: 37a1 9b3d 01f0 3fbe 32ff 68be 75fa 383c
00000030: 80af bdbd ce78 723e 2475 c63b 93c8 1cbe
00000040: 868b 013e bb35 833e 391d 2dbe 2c00 a53e
00000050: a183 3a3e a910 663e 0590 323c da82 3c3d
00000060: 9c01 47bd 642e 91bd 065c 293d 2bbe a7be
00000070: b3a5 45bd 0f81 a0be 9931 c3be d2c3 653a
00000080: aafd f3bd 3543 7bbe edea 4f3e eb97 3dbe
00000090: 8465 08bd 5805 3d3e c5b0 c8bd fb36 7bbe
000000a0: c1de df3d b7aa d5be 0886 593d 7e6f 043e
000000b0: e9cd 55be 3aae a8bd 2d39 b93c 9ccf a2bc
000000c0: 1806 833e d3d0 92be b0a6 7fbe 6fcb e83e
000000d0: 35e3 cbbd b99e 513d 8548 d93e 0742 a2be
000000e0: 94e2 65be b792 23bd 9dea be3c 6d16 cd3e
000000f0: bc75 bcbd baff 95be f61d 57bd 4eff 1d3b

final_mean.weight f4 [3, 64]
-0.008596114 -0.002092646 0.034330837 -0.009564957 -2.0765687e-05 -0.00018593218 -0.001842208 -0.06661411
0.10532369 0.07156218 0.018861447 -0.040639535 0.032843042 0.020054115 0.058802556 0.01466895
-0.091909364 0.14217904 -0.024243247 -0.049738962 0.019971851 0.04297813 -0.06481454 -0.09575468
-0.08839622 0.00086788856 -0.0054042577 -0.03292993 0.029856218 0.10650719 0.0346857 0.04484505
0.04854353 -0.028859662 0.09752534 -0.11909412 0.0036526457 0.022332849 -0.051220533 -0.03360471
-0.06632129 0.08881461 0.017840192 -0.029501274 -0.019271871 -0.041103195 0.060993697 0.101934046
0.03940579 0.13181803 -0.041016612 -0.0066803014 -0.004020428 0.06727816 0.032017678 0.05472213
0.059858415 -0.019903418 0.05320958 -0.00050539355 -0.030039305 0.0037316973 0.037562907 0.055403188
-0.03249399 -0.054026306 0.020247696 0.0424821 -0.028732024 -0.047049977 -0.041510705 -0.056203205
-0.08679324 0.05539035 -0.03129698 0.111380585 -0.13906772 0.1300039 0.043311022 -0.14850369
-0.026161227 0.046230435 0.15216395 0.11715563 -0.13817783 -0.108936004 -0.061137963 0.12647665
-0.019838244 0.026469875 0.030446634 -0.006291468 0.14122036 -0.028393293 -0.12008671 0.007941187
-0.07289093 0.11607944 0.14139065 0.09167804 0.09572573 0.08184877 0.06400166 -0.13979854
0.055818837 -0.099224366 0.010670076 -0.0281368 0.14153245 -0.022408303 -0.07376477 -0.09519383
0.03744252 -0.037291784 0.16714737 -0.04665371 0.17707384 0.03323953 -0.065630615 -0.018440157
-0.13064012 -0.10584901 0.016750427 0.20072089 0.06407076 -0.12904423 -0.019635357 0.090736166
-0.35526854 0.26520124 -0.11892479 0.06452929 0.119995914 -0.15456025 -0.058834203 0.051940914
0.020712813 0.10291643 0.121780865 -0.042929918 0.2191353 0.21407667 -0.06394212 0.059456598
-0.03791951 0.065878116 -0.08079317 0.2897778 -0.0897782 -0.23293734 -0.031694144 0.076085865
-0.10977612 0.18124583 0.10871518 0.16505861 0.055556048 0.0557448 0.04083959 -0.16224281
0.0011830846 -0.0035633582 -0.03759356 0.13941166 -0.019243827 0.19339067 -0.008093269 0.018203456
0.23813589 0.14935148 0.25199372 0.2279213 -0.065661676 -0.31076103 0.007325832 0.047309157
-0.19835185 0.10090717 -0.111929685 -0.3949864 0.06785735 0.05967472 -0.12074242 0.20101754
-0.42763007 0.11892963 -0.07300265 0.3648892 0.07151904 0.2723477 -0.3328943 0.011559439
00000000: b7d6 0cbc c624 09bb 7e9e 0c3d 56b6 1cbc
00000010: f931 aeb7 caf6 42b9 3e76 f1ba fa6c 88bd
00000020: f2b3 d73d 318f 923d 5283 9a3c a475 26bd
00000030: 6d86 063d 8748 a43c f3da 703d 0956 703c
00000040: fa3a bcbd 6297 113e c699 c6bc 15bb 4bbd
00000050: 029c a33c d609 303d 7cbd 84bd 081b c4bd
00000060: 1409 b5bd 0483 633a 3316 b1bb 89e1 06bd
00000070: 0795 f43c 7120 da3d 9812 0e3d 71af 373d
00000080: 95d5 463d 196b ecbc 5ebb c73d 9ee7 f3bd
00000090: 3a61 6f3b 61f3 b63c 9fcc 51bd 18a5 09bd
000000a0: 75d3 87bd 6fe4 b53d 9825 923c a8ac f1bc
000000b0: 0be0 9dbc d35b 28bd 87d4 793d ccc2 d03d
000000c0: f767 213d 4efb 063e 0901 28bd 6ee6 dabb
000000d0: cbbd 83bb 22c9 893d f824 033d 5024 603d
000000e0: 192e 753d 7e0c a3bc 4af2 593d 637c 04ba
000000f0: fd14 f6bc 7e8f 743b 90db 193d 74ee 623d
00000100: 6b18 05bd b04a 5dbd 7fde a53c b601 2e3d
00000110: 6c5f ebbc 7ab7 40bd 2107 2abd 5535 66bd
00000120: a7c0 b1bd fee0 623d 4331 00bd 811b e43d
00000130: c567 0ebe be1f 053e e666 313d 5a11 18be
00000140: 1250 d6bc 205c 3d3d ded0 1b3e 4aef ef3d
00000150: 7d7e 0dbe d719 dfbd cd6b 7abd 1883 013e
00000160: d083 a2bc 5ad7 d83c 386b f93c a928 cebb
00000170: 129c 103e 0d99 e8bc 05f0 f5bd c11b 023c
00000180: d747 95bd 0fbb ed3d b6c8 103e b2c1 bb3d
00000190: da0b c43d 54a0 a73d 4d13 833d 5927 0fbe
000001a0: 4ba2 643d 2536 cbbd 8bd1 2e3c 257f e6bc
000001b0: e2ed 103e 9e91 b7bc fc11 97bd fcf4 c2bd
000001c0: 545d 193d 45bf 18bd ae28 2b3e f617 3fbd
000001d0: d852 353e 2c26 083d 5869 86bd d00f 97bc
000001e0: 86c6 05be 5ec7 d8bd 3138 893c c789 4d3e
000001f0: 8837 833d 2c24 04be 54da a0bc e2d3 b93d
00000200: c2e5 b5be 75c8 873e d78e f3bd ef27 843d
00000210: 6bc0 f53d 0b45 1ebe 22fc 70bd ffbf 543d
00000220: ebad a93c d9c5 d23d 3f68 f93d 48d7 2fbd
00000230: 0165 603e ea36 5b3e 16f4 82bd c388 733d
00000240: 7d51 1bbd 1beb 863d e476 a5bd c15d 943e
00000250: a2dd b7bd 2087 6ebe b8d1 01bd e8d2 9b3d
00000260: 4dd2 e0bd 8298 393e 10a6 de3d 2005 293e
00000270: bd8e 633d a954 643d 6a47 273d fb22 26be
00000280: bb11 9b3a 3b87 69bb b4fb 19bd eec1 0e3e
00000290: 3ba5 9dbc 3408 463e a199 04bc 6a1f 953c
000002a0: e5d9 733e 98ef 183e 5205 813e 3464 693e
000002b0: a179 86bd 121c 9fbe 880d f03b 3fc7 413d
000002c0: bf1c 4bbe 6ba8 ce3d 643b e5bd a83b cabe
000002d0: cbf8 8a3d 7b6d 743d cd47 f7bd 8bd7 4d3e
000002e0: 54f2 dabe 6191 f33d 6a82 95bd c2d2 ba3e
000002f0: 9378 923d 2871 8b3e 1f71 aabe cd63 3d3c

final_mean.bias f4 [3]
-0.014735474 0.16627392 -0.16033408
00000000: 0f6d 71bc b643 2a3e 9e2e 24be

exp_avg f4 [64, 11]
-0.0006951496 0.0015451036 -0.0013503039 0.0008094335 -0.00013634712 0.0010844303 0.00027975874 5.135489e-06
-0.0014370593 0.0010623919 -0.00065105874 0.0004192136 -0.0009569847 0.000836987 -0.00030962995 -0.00036949085
-0.0007430597 0.00039497972 -0.0007292436 0.0017060487 -0.0015972905 -0.0004886218 -0.00084870163 0.0011064877
-0.0016758165 0.0015972282 0.0006961775 0.0013833799 -0.0006898499 0.00077577354 -0.0020573954 0.0019453311
-1.3833635e-05 0.0010137445 -0.0017635416 0.0024913906 -0.0010619095 -0.0003075104 -0.0020035908 0.00050212006
-0.00025172342 0.0031088481 -0.002345423 0.00045335034 -0.00020219643 0.00026232758 -0.0008007119 0.00024695322
0.00015138922 0.000491691 -0.00016167479 -0.0002594355 -0.0005926585 0.00039042477 0.00015615464 -4.3185028e-05
-0.00046512575 0.0005200709 -5.4826687e-05 0.00016941124 -0.0008432304 0.00013234158 -0.00026622618 0.00036903837
-0.00040319306 -7.285822e-05 9.070773e-05 0.0005862704 0.00010173324 0.00015414915 -0.0004026297 5.1749594e-05
0.0005132058 0.00033625524 -9.260758e-06 -3.4735058e-05 0.00014540069 -0.00074691174 0.000567018 -0.00093727896
-3.690245e-05 -0.000736404 0.00069848646 0.00012930398 -0.0005141098 5.515112e-06 -0.0008737529 -0.00050831074
-0.000299255 0.0008940842 -0.00087441504 -7.381565e-05 -0.00035455634 0.0009388333 0.0004440993 0.0005199019
-0.0009171247 0.00090847106 0.000178295 -0.00044197094 0.0016052701 -0.0015927355 -0.0011970649 -0.0018824891
0.0022156767 0.0011011083 0.00063522544 -0.0003132576 0.00016145769 -0.00048020575 0.00034391132 -0.0015255064
0.0009419299 -0.0016724664 -0.0008240752 -0.0013872496 0.0009183368 -0.00094160065 0.001980003 -0.0024394207
-9.567326e-05 -0.0005381868 -0.0012677301 -0.00037880204 0.0014190602 0.0013285185 0.00011968407 -0.0018495421
-0.0003130862 0.0022739929 -0.0010296794 -0.0016081815 -0.0005944761 -0.0003900808 -0.00024319286 0.0011790728
0.0012680251 -0.00025037595 -0.0018436876 -2.693483e-05 -0.0008324473 0.00038990492 0.00024194023 0.00027771818
-0.0007223173 0.00059811183 6.2230996e-05 0.0004975198 -0.0007670951 2.805264e-05 -0.00029679894 0.00040678482
-0.0003013402 -1.6699436e-06 -8.30534e-05 0.00062078185 -0.00045532794 -0.0013328677 -0.0023461762 0.0009911724
0.0015943523 8.093393e-05 0.0011680565 -0.0015263833 -0.00077390904 -0.000775656 0.00072865374 -0.0005238762
0.0002178833 -0.0002633691 0.0005456792 1.5209482e-05 0.0008316686 0.00025310583 0.00021430114 -0.0006468687
0.00023452083 -0.00047550024 0.0008406371 6.541403e-05 0.0004216703 -0.00034723672 -0.0004695028 0.00045451298
0.0003284057 -7.3139934e-05 0.00015895837 -0.0016952801 0.0008962563 -0.0025599159 0.0008131616 0.00037471863
0.001166232 -0.0010742119 5.745672e-05 -0.003958104 0.0020869817 0.0003184402 -3.8278118e-05 -0.001477702
0.0006675531 0.00030416666 0.0007264155 -0.0013514509 -0.00045219046 -0.0010432601 0.0016264302 -0.0016410304
-0.0008573741 0.0008323302 7.032849e-05 0.0012202116 -0.0016684711 -0.0019869609 -7.974781e-05 0.001739808
-0.00011480188 0.0011244415 -0.0012298124 0.00054300216 0.001008161 -0.0009878044 0.00090918445 -0.00024075557
0.00034507437 -0.000883971 3.7611175e-05 -0.00049655576 0.0012038212 -0.00028764742 0.00012146497 8.454514e-05
-0.00022023745 0.00037740413 0.0002620769 0.00028854606 -0.0004417297 -0.00020674492 -0.00025390298 0.00015448732
-0.00015679385 -0.00015859763 -0.00070832146 7.424154e-05 -0.0013240058 0.0020949258 0.002177762 0.00092230627
-0.0029024535 0.0002575398 -0.0017964221 0.0018710038 -1.5433294e-05 -0.0009923053 0.0019937714 -0.0016492406
00000000: b33a 36ba 1385 ca3a aefc b0ba 2a30 543a
00000010: 67f8 0eb9 7123 8e3a 95ac 9239 8451 ac36
00000020: b55b bcba f53f 8b3a d0ab 2aba e6c9 db39
00000030: 28de 7aba 3f69 5b3a d455 a2b9 39b8 c1b9
00000040: e4c9 42ba 4815 cf39 b62a 3fba 7f9d df3a
00000050: 2d5c d1ba db16 00ba 677b 5eba 9107 913a
00000060: 12a7 dbba 165a d13a ae7f 363a 8752 b53a
00000070: 0bd7 34ba 485d 4b3a 5ed5 06bb 7bfa fe3a
00000080: 0317 68b7 9fdf 843a a326 e7ba 9946 233b
00000090: c52f 8bba 5939 a1b9 ad4e 03bb b5a0 033a
000000a0: bff9 83b9 d1bd 4b3b abb5 19bb a7af ed39
000000b0: b104 54b9 0389 8939 dee6 51ba 8079 8139
000000c0: 3cbe 1e39 d3e4 003a 3f87 29b9 d804 88b9
000000d0: a45c 1bba edb1 cc39 71bd 2339 9221 35b8
000000e0: 1fdc f3b9 5e55 083a b5f5 65b8 fca3 3139
000000f0: 3c0c 5dba 2cc5 0a39 4694 8bb9 7e7b c139
00000100: a863 d3b9 76cb 98b8 573a be38 f1af 193a
00000110: 9e59 d538 19a3 2139 0b18 d3b9 b40d 5938
00000120: a988 063a 6a4b b039 a75e 1bb7 7cb0 11b8
00000130: b376 1839 66cc 43ba efa3 143a bab3 75ba
00000140: b4c7 1ab8 3c0b 41ba a21a 373a c695 0739
00000150: 53c5 06ba 740e b936 910c 65ba 2840 05ba
00000160: 54e5 9cb9 fa60 6a3a 0039 65ba 7acd 9ab8
00000170: bfe3 b9b9 091c 763a 00d6 e839 074a 083a
00000180: 326b 70ba 7626 6e3a b3f4 3a39 56b8 e7b9
00000190: ed67 d23a 56c3 d0ba d5e6 9cba dabd f6ba
000001a0: e334 113b 1053 903a 4285 263a b93c a4b9
000001b0: f84c 2939 20c4 fbb9 ff4e b439 80f3 c7ba
000001c0: d8eb 763a a936 dbba c006 58ba 5fd4 b5ba
000001d0: 8abc 703a c0d5 76ba f0c2 013b b0de 1fbb
000001e0: 31a4 c8b8 1b15 0dba f729 a6ba f399 c6b9
000001f0: c2ff b93a af21 ae3a e5fe fa38 566c f2ba
00000200: b825 a4b9 4507 153b 4ff6 86ba 9ec9 d2ba
00000210: 9ed6 1bba c283 ccb9 9601 7fb9 1e8b 9a3a
00000220: dd33 a63a e444 83b9 e4a7 f1ba 1bf2 e1b7
00000230: 9838 5aba 276c cc39 56b1 7d39 b49a 9139
00000240: e559 3dba 9bca 1c3a 0382 8238 fd6b 023a
00000250: e116 49ba 9652 eb37 ae9b 9bb9 bc45 d539
00000260: 32fd 9db9 d322 e0b5 f42c aeb8 f7bb 223a
00000270: 15b9 eeb9 9eb3 aeba 4ec2 19bb 3aea 813a
00000280: 96f9 d03a 13bb a938 7919 993a ed10 c8ba
00000290: 28e0 4aba 6555 4bba 2003 3f3a bd54 09ba
000002a0: 9a77 6439 cd14 8ab9 e90b 0f3a 3a2c 7f37
000002b0: 5604 5a3a 4ab3 8439 06b6 6039 a092 29ba
000002c0: b5e9 7539 904c f9b9 335e 5c3a e42e 8938
000002d0: a113 dd39 530d b6b9 9927 f6b9 b34b ee39
000002e0: de2d ac39 b462 99b8 10ae 2639 2934 deba
000002f0: bef2 6a3a 43c4 27bb 5a2a 553a e275 c439
00000300: 41dc 983a 92cc 8cba affd 7038 fcb2 81bb
00000310: bec5 083b 52f4 a639 d18c 20b8 74af c1ba
00000320: bbfe 2e3a 8f78 9f39 eb6c 3e3a 2b23 b1ba
00000330: fa13 edb9 00be 88ba f12d d53a d817 d7ba
00000340: 67c1 60ba bc30 5a3a 527d 9338 82ef 9f3a
00000350: 9ab0 daba ac37 02bb 483e a7b8 450a e43a
00000360: cac1 f0b8 ff61 933a a831 a1ba 4258 0e3a
00000370: 4524 843a 3779 81ba 5656 6e3a 5573 7cb9
00000380: 19eb b439 4aba 67ba b1c0 1d38 4b2b 02ba
00000390: 89c9 9d3a 62cf 96b9 02bb fe38 d44d b138
000003a0: 8aef 66b9 53de c539 5e67 8939 ff47 9739
000003b0: f597 e7b9 abc9 58b9 481e 85b9 e0fd 2139
000003c0: 0769 24b9 3a4d 26b9 a6ae 39ba 20b2 9b38
000003d0: 438a adba 064b 093b c9b8 0e3b edc6 713a
000003e0: 1737 3ebb 6806 8739 ec75 ebba 783c f53a
000003f0: bf76 81b7 3e10 82ba efa9 023b 552b d8ba
