WocaR-PPO/src/release_models/WocaR-PPO/wocar_walker.model (torch_old, 223426 bytes, 51 tensors)

affine_layers.0.weight f4 [64, 17]
000000 26 5a b4 bc 24 e3 9f be bf 25 df 3d 2a 02 24 bd
       -0.022015642 -0.31227982 0.10895871 -0.040041126
000010 02 72 2e be 02 d1 b2 3e d1 4c 68 bd e9 a5 e0 bd
       -0.17035678 0.34925085 -0.056713883 -0.10969145
000020 63 51 40 be 3c 9d f8 bd a6 d6 26 bf 26 99 a9 3e
       -0.18781047 -0.12139365 -0.6517128 0.33124655
000030 9b 50 4b 3d ca 5c fa 3c 07 eb 0b 3a 2f 60 a7 bd
       0.04963742 0.030561823 0.0005337451 -0.081726424
000040 4f 5f e3 bc fa da 2c 3f 2a 18 48 bd 71 47 75 3e
       -0.027755408 0.6752163 -0.04885117 0.23953034
000050 90 95 af 3d 02 ed 33 3d de 9b d2 be b8 a2 61 3d
       0.08573449 0.0439272 -0.41134542 0.05508682
000060 78 f1 b1 3d bd 89 ba 3c d0 61 f9 3d 73 ed cc be
       0.08688635 0.022770757 0.121768594 -0.4002491
000070 c1 06 16 bd 3d 84 a7 3c 7e c9 a0 bc 9d 98 ba 3e
       -0.036627535 0.020448798 -0.019627329 0.3644456
000080 9f ff 11 3d f4 12 32 bd 24 f7 06 bd ce fe 4e bd
       0.03564417 -0.043475106 -0.032950535 -0.05053597
000090 5a 65 0a 3d 91 54 aa 3e 79 96 49 be 2a ca dd 3d
       0.033788063 0.33267644 -0.19686307 0.10829575
0000a0 78 48 2e 3e a2 c9 02 3f 50 25 c5 bd a2 21 b7 3d
       0.17019832 0.5108892 -0.096262574 0.08941962
0000b0 0a 60 90 3e 64 c5 7d be 63 5f 20 be 2b 5f 97 3e
       0.28198272 -0.2478233 -0.15661387 0.29564795
0000c0 23 6d 7d 3e 36 bc 4a 3d 68 32 fb 3d c0 54 24 bc
       0.24748664 0.0494959 0.122654736 -0.010029972
0000d0 4a aa db be f1 bc cd 39 66 b7 e1 bc 95 18 01 be
       -0.42903358 0.0003924142 -0.027553272 -0.12607034
0000e0 13 a7 76 3e 2c 66 9b 3e b8 25 1a be 69 e0 4a 3c
       0.24087171 0.30351388 -0.15053451 0.012382605
0000f0 28 37 2e bd 7e 9a 98 be 2a c4 0f 3e 63 6a 5e 3e
       -0.04253307 -0.29805368 0.14039674 0.21720271
000100 d8 0a a1 bc 3f 67 5e 3e d3 31 aa 3c 78 74 9b 3b
       -0.019658491 0.21719073 0.020775711 0.0047441088
000110 55 ae 31 3e 74 e3 56 be 4f 9e d0 bd 47 c1 27 be
       0.17351659 -0.20985204 -0.10186445 -0.16382323
000120 8a 4e 4c 3e f1 28 2b bd 94 bc 25 3c 4c a8 09 be
       0.19951835 -0.04178709 0.010115761 -0.13443106
000130 4e e5 ee be 99 25 8b 3c 19 f3 14 3e 53 57 f9 3c
       -0.4665932 0.016985701 0.1454586 0.030437147
000140 b6 5b 77 3e 72 c1 6a bc 0b 19 13 be a0 10 76 bb
       0.24156079 -0.0143283475 -0.14365022 -0.003754653
000150 62 fe 06 bc 00 06 99 bd c6 b1 ed 3d bc be b6 3b
       -0.0082393605 -0.074718475 0.11606173 0.0055769365
000160 cc 9c 82 3e f1 0b 06 bb ed f4 22 3f 84 99 21 be
       0.25510252 -0.0020453895 0.6365498 -0.15781218
000170 44 ee 62 3e 6b aa 80 be d3 f0 5d 3e 93 75 ed 3e
       0.22161204 -0.2513002 0.21673898 0.46378765
000180 38 8b 9b bd 9c 99 1d 3e ec 8c 0e 3d 1f 24 a2 bd
       -0.07594913 0.15390629 0.034802362 -0.07917046
000190 da d9 60 3c 94 31 11 3d 86 f7 3f 3e ec 0e e0 bd
       0.013723815 0.035447672 0.18746766 -0.10940346
0001a0 8a 81 b0 bd 12 e5 09 3f 5d 1f ca 3d fe bf 45 3f
       -0.086184576 0.5386516 0.09869263 0.7724608
0001b0 de 7c 40 3e fd 17 07 3e 16 5a 4c be 9a 4f df 3b
       0.18797633 0.13192745 -0.1995624 0.006814909
0001c0 f7 63 63 3b 27 1e 76 be 17 39 a2 ba 1b 71 b0 3d
       0.0034697035 -0.2403494 -0.0012376633 0.08615323
0001d0 a7 3a f7 3e 80 0f 77 3d 89 7a ac bd ae 0f 26 be
       0.48286936 0.060317516 -0.08421809 -0.16216919
0001e0 b1 76 c7 3e 0b b1 3f be 7c d6 3c be 61 cd c8 3d
       0.38957742 -0.1871988 -0.18441194 0.09804798
0001f0 f4 99 0f be 24 a7 ad bc 24 50 87 3c 5f 19 59 be
       -0.14023572 -0.021197863 0.016517706 -0.21201085
000200 2a 0c a1 bd ba 1e 9a 3c 50 9a 31 be 76 32 1b be
       -0.07863648 0.01881348 -0.17344022 -0.15155968
000210 20 f8 23 3c 4e 3b a5 3e e0 b1 b5 3d 21 5e 9f 3b
       0.010007888 0.32271808 0.088718176 0.004863516
000220 f0 d0 a1 3e 02 59 be 3d bd 60 e7 bc eb 02 02 bf
       0.3160472 0.09294321 -0.02824437 -0.507857
000230 12 2d 09 3c bf b2 83 be 1e e3 85 3d eb c5 81 3e
       0.008372562 -0.2572231 0.0653746 0.25346312
000240 7c 08 12 3f db 05 7f 3d 00 d1 a7 be 2a ba a8 bc
       0.57044196 0.062261444 -0.32776642 -0.020596582
000250 29 06 b5 bc 07 97 71 bd b1 58 b7 39 70 86 3d bc
       -0.022097664 -0.05898192 0.0003497056 -0.011567697
000260 66 90 a5 3d d7 1d 49 3e 85 55 7c be 6b 69 2e ba
       0.080841824 0.19640289 -0.24641998 -0.0006653282
000270 c4 1b 6b bd e4 ad 31 be de 09 5c 3e 66 08 98 3e
       -0.057399526 -0.1735149 0.21488139 0.29693907
000280 6b 61 c6 bd 01 52 40 3b f7 8b 9c bd 1b 05 7a bc
       -0.0968655 0.0029345753 -0.07643884 -0.015260006
000290 2b 19 08 be 4e 8a 92 bd 57 d9 d8 3d 67 25 8e 3c
       -0.13290851 -0.07155286 0.10588329 0.01735182
0002a0 e7 3b 2b 3d 03 d1 12 bc 8c 70 2c 3d 21 8a 14 bf
       0.041805174 -0.008960965 0.04209952 -0.5802327
0002b0 04 ba c2 bd 95 11 6e be 6a f0 59 3d 73 a7 0a 3f
       -0.09508136 -0.23248895 0.053207792 0.5416176
0002c0 45 ae 2b 3d c2 7c ae bd 38 a9 78 bc 93 0f a2 3d
       0.041914243 -0.085198894 -0.015177064 0.07913127
0002d0 63 97 64 3d 92 9b d3 bd 11 c2 3a be 3c d8 0a bd
       0.055808436 -0.10332407 -0.18238093 -0.033897623
0002e0 12 51 78 3d 83 8a b0 bd fd 93 91 bd 0b 8d 4f be
       0.06062419 -0.08620169 -0.07108305 -0.20268647
0002f0 e3 ab 3b bf 30 42 2a 3e 31 1d d5 3c 5c d7 03 3e
       -0.73309153 0.16626811 0.026014896 0.12875122
000300 0f 6f 5f 3e a6 07 a8 bd 1a c8 30 be bc 2f dc be
       0.21819709 -0.08204584 -0.17263833 -0.43005168
000310 33 90 c8 3c 87 b7 d0 3c 66 6e 27 be 72 c6 3d be
       0.024482822 0.025478138 -0.16350707 -0.18532732
000320 cc 2d 47 be c1 80 41 3e cf df 89 3d 93 6e 17 bd
       -0.19451064 0.18896772 0.06732141 -0.036970686
000330 d3 fc 3d be 9c db ff 3e b3 fe 04 3e 8f 7f 1d be
       -0.18553476 0.49972236 0.12987785 -0.15380691
000340 cb 63 8a bd 44 94 45 bc af 98 71 3e b6 08 33 be
       -0.06757315 -0.012059275 0.235934 -0.17483792
000350 d5 38 1c 3e 30 29 08 3d bf 7c 7c be a2 57 a0 bc
       0.15256055 0.033242404 -0.24656962 -0.019573037
000360 1f 6f 90 3d fa ca 16 bd e6 64 d8 3d 4e 17 bd 3c
       0.07052445 -0.036814667 0.1056612 0.023082402
000370 74 13 75 3c 98 d3 f4 3e 55 4d de be cc c9 a0 3e
       0.014958251 0.47817683 -0.43418375 0.3140396
000380 a6 d9 44 3e 98 39 6e 3c b2 b5 5c be d6 b0 cc bd
       0.19223651 0.014540099 -0.21553686 -0.09994666
000390 b4 12 e0 bd 2e 58 0e bf 6d 06 b0 bd 09 6e f4 3d
       -0.10941067 -0.556033 -0.085949756 0.1193505
0003a0 27 58 8d bd b0 14 52 bc 97 f6 9d bc 6f 99 3e 3d
       -0.06901579 -0.012822315 -0.019282622 0.046533044
0003b0 f9 e7 c0 3b 42 56 22 bc 07 48 f1 be d2 31 c6 3d
       0.0058870283 -0.009908261 -0.47125265 0.09677471
0003c0 bf db 6a 3a 71 74 d5 3d 12 83 3e 3c 68 6f ff be
       0.00089591363 0.104226 0.011627929 -0.49889684
0003d0 95 d8 fb ba 8d be c1 be c2 61 a2 3d a9 a3 75 3d
       -0.0019214327 -0.3784069 0.07928802 0.05997053
0003e0 7b 81 f6 bd db 93 60 3c c9 03 e3 bd a8 5c 12 bd
       -0.12036415 0.0137071265 -0.11084706 -0.035732895
0003f0 e7 ab 84 bd 3e a8 1e ba f1 c8 7d bc 58 6c b6 3d
       -0.064781 -0.0006052292 -0.015489803 0.08907384

affine_layers.0.bias f4 [64]
000000 42 d3 1a 3e 8f 88 2b 3f 31 93 14 be 50 af e1 3e
       0.15119651 0.67005247 -0.14509274 0.44079065
000010 be c5 0a bf 62 73 26 bf 49 f1 90 be f3 f2 aa be
       -0.5420798 -0.6501981 -0.28309086 -0.3338848
000020 5a 9a 03 bf 53 f3 9c 3e ca 58 23 bf 3b 0d d2 3e
       -0.51407397 0.30654392 -0.63807356 0.4102572
000030 e9 ed a8 3e 0b 0b 37 be 39 05 87 be bb 16 17 3f
       0.3299401 -0.17875306 -0.26371172 0.5901906
000040 11 84 55 3d b7 a3 e1 be a4 a2 08 3f 95 68 dd be
       0.0521279 -0.44070217 0.5337317 -0.43243852
000050 bb 58 9c 3d fb 9f 14 bf 4f 96 41 3f 54 e1 41 3e
       0.076341115 -0.5805661 0.7561998 0.18933612
000060 8d 78 0b be b9 d1 d1 be 8a ac 36 bf 35 6e 0a bf
       -0.13620205 -0.40980318 -0.71357024 -0.5407441
000070 9d e3 12 be 6c 07 91 3e ac 78 db be 3c 47 77 bd
       -0.1434464 0.28325975 -0.42865503 -0.06037067
000080 9a 0d dc be 27 96 76 3e a2 32 26 3d 9c 87 c5 be
       -0.42979127 0.24080716 0.04057563 -0.38580024
000090 25 bb 8f 3e e6 27 2b 3e d1 08 e9 bd b5 34 04 3f
       0.28072467 0.16714439 -0.11378635 0.51642925
0000a0 bb 5d 52 3e 7b 50 6f be 64 83 f2 bc a2 d8 63 bf
       0.20543568 -0.23370545 -0.029603668 -0.8900243
0000b0 20 c7 26 3f 72 52 26 3d 0a 5e 88 3e 8d 19 41 3f
       0.6514759 0.04060597 0.26634246 0.7542961
0000c0 ec 08 d8 3e 8e 29 18 3f af 02 c9 be 19 98 e9 3d
       0.42194307 0.5943841 -0.3925986 0.114059635
0000d0 8c 0a e6 3e de d1 16 bf 80 e0 fe 3e eb 98 a4 bd
       0.44929922 -0.5891398 0.49780655 -0.08036979
0000e0 76 2c 30 be c0 72 be be 8b 1e 20 3f 68 75 b4 be
       -0.1720446 -0.37196922 0.62546605 -0.35245824
0000f0 39 aa 98 3e 19 62 9e be 96 6d 7d bf 16 e3 4b bf
       0.2981737 -0.30934218 -0.9899534 -0.7964338

affine_layers.1.weight f4 [64, 64]
000000 e0 08 e6 bd 5b 15 3d bd 0b 8f 46 bd 9c 9e 3e 3e
       -0.112321615 -0.046162944 -0.04847626 0.18615192
000010 22 06 a7 be dd 0c 26 3e 05 c4 b7 3e 66 ce ee bd
       -0.32621866 0.16215844 0.3589174 -0.11660461
000020 a6 61 86 bc d1 ca 92 3e c2 83 0f 3f 18 cb a1 3e
       -0.016403984 0.28670362 0.5606042 0.3160026
000030 52 d4 8d bd 0e d0 d3 bc cd 62 12 3d b3 63 71 3e
       -0.069252625 -0.025856044 0.035738755 0.23573188
000040 79 fb 0e be f8 93 1a bf d8 9a 90 be 1a 73 98 3e
       -0.13963117 -0.6038203 -0.28243136 0.29775316
000050 84 d6 94 3d 26 0e d7 3d 42 28 db be 12 60 9d 3c
       0.07267478 0.105007455 -0.42804152 0.019210849
000060 70 c4 98 bd 72 27 39 bd e2 87 6c 3e c0 2d ed 3e
       -0.074593425 -0.045203634 0.2309871 0.46323967
000070 c7 a1 df 3b 35 93 d7 3d 28 e4 03 3f 64 67 09 3e
       0.0068247053 0.105261244 0.51520014 0.13418347
000080 a6 c7 ab 3d 70 8c 59 be 35 30 78 be 13 69 85 3d
       0.08387689 -0.21244979 -0.2423714 0.06514182
000090 78 01 98 be a4 58 ca 3d 83 72 89 3d 55 96 94 3e
       -0.2968862 0.09880188 0.067112945 0.29020944
0000a0 1b db c7 bc 41 b5 87 bd 44 d3 fb 3d df e5 97 be
       -0.02439647 -0.06626368 0.12296155 -0.29667565
0000b0 23 b7 73 3e 0d 52 39 3e c7 0d 28 bd cd e2 d8 3e
       0.2380033 0.18097706 -0.041028764 0.42360535
0000c0 4b 91 2b 3d a0 01 f8 bc c3 9f 24 3e dd 20 01 3f
       0.04188661 -0.030274212 0.1607657 0.5044077
0000d0 c9 2e bc 3e c2 cd 7d 3e 14 a7 41 be 7d 59 c3 3d
       0.36754444 0.24785522 -0.18911391 0.09538553
0000e0 e2 c3 a1 bd 77 58 69 bc ea 26 ca bd 14 73 80 be
       -0.0789869 -0.014242283 -0.098707035 -0.25087798
0000f0 ef 7e c5 3e 98 ed 99 bc 57 14 b1 bb b6 4e ca 3c
       0.38573405 -0.018790051 -0.005404036 0.024695735
000100 f1 c1 9e bd 9e a5 2d 3e e0 90 0d 3e a8 c9 91 3e
       -0.07751835 0.16957709 0.13824797 0.28474164
000110 04 29 6a bd 76 ac f1 bd ca 92 7c be b7 e3 4d be
       -0.05716802 -0.118004724 -0.2466537 -0.20106398
000120 0a 3e 45 be cb d2 c6 3e 7c 86 63 be cf 49 8c 3c
       -0.19261947 0.38832697 -0.2221927 0.017125038
000130 0b 80 5d be b1 7e 83 3e 94 5d b7 be ba b3 e8 3d
       -0.21630876 0.25682595 -0.35813582 0.11362405
000140 b4 64 ac bd 25 59 0d be 8e 07 b4 be 29 c7 c0 3d
       -0.08417645 -0.13803537 -0.35162014 0.09412987
000150 2c 62 5e be 24 fd 9b be 6a b5 3d 3d d4 f1 06 3f
       -0.21717137 -0.30466568 0.046315588 0.5271275
000160 14 f3 24 be 05 b5 0a bf 7f 6d 49 be f3 0f 3a bf
       -0.16108352 -0.54182464 -0.19670676 -0.72680587
000170 e2 a2 65 bb 68 ae 90 3d e6 65 f9 3c 31 ad b9 3d
       -0.0035039713 0.07064515 0.030444097 0.09066237
000180 06 63 03 be 16 4d fb bd 9f 87 00 3d a9 2e 0b bf
       -0.12830743 -0.12270562 0.03137934 -0.5436807
000190 40 d2 29 be 9b 61 37 3d d4 6b e6 3e 31 cb ac 3d
       -0.1658411 0.04477082 0.4500414 0.08437193
0001a0 4f db 36 3e 12 c5 4c be 90 8f ab be d7 6e 94 3b
       0.17857097 -0.19997051 -0.33507967 0.0045298147
0001b0 af 5a 17 ba c8 3c 08 bc b7 eb 4b bc 03 0b 8a 3e
       -0.0005773706 -0.008315273 -0.0124463355 0.26961526
0001c0 67 d7 12 be 32 47 ce 3e c1 0d c0 bc aa 4d 9c 3d
       -0.14339982 0.40288693 -0.023444058 0.07632001
0001d0 44 a9 0a 3d 38 9c a2 be 33 f2 41 3f 4d b3 a8 3e
       0.03385283 -0.3175981 0.7576019 0.32949296
0001e0 5e 47 65 be 6d 3a 3b bc 43 9d 8f 3e 47 d7 b1 be
       -0.22390506 -0.011427504 0.2804967 -0.34734556
0001f0 c6 95 a7 3e fa 4c 5e be 32 c6 93 bd 34 16 fa be
       0.32731456 -0.21709052 -0.07215537 -0.48845065
000200 8d 7f 2f bd 10 66 8e 3e 5b 87 4d be 22 47 e2 bd
       -0.04284625 0.27812243 -0.20071165 -0.11048724
000210 60 06 0e bc 66 50 b9 bd 5f d9 71 3e 7f 09 63 3c
       -0.008668512 -0.09048538 0.23618077 0.0138572445
000220 ac 60 83 3e a5 f5 8f 3d 46 da 2f 3e ae 1b 01 be
       0.25659692 0.07029275 0.17173108 -0.12608215
000230 50 a0 d8 bd cc 8c 5f bc 2a f7 62 3d a1 40 24 3e
       -0.10577452 -0.013644408 0.055411495 0.16040279
000240 c4 c9 cc bd b9 53 80 bd 6a 12 d8 3d 58 4a c8 3e
       -0.09999421 -0.06265969 0.10550387 0.3911922
000250 97 2d 20 3f 66 0b ce 3c 60 c5 5a bd 14 94 54 be
       0.62569565 0.02515192 -0.053410888 -0.20759612
000260 3b df 4b 3e 34 9f 43 be d8 3e af 3e 89 60 9d 3e
       0.19909374 -0.191037 0.34227633 0.30737713
000270 a9 9b 94 be 15 51 64 bd 89 2a 4e be 33 50 5b 3e
       -0.2902501 -0.05574139 -0.20133413 0.21417312
000280 a6 a3 ed be 8f 5c 86 be 46 d9 ce bd 42 bd d4 3e
       -0.46413916 -0.26242492 -0.10100035 0.41550642
000290 40 a9 e1 3e b2 92 95 be d3 41 90 be 7a f2 50 be
       0.4407444 -0.29213482 -0.2817522 -0.20404997
0002a0 f5 ca 91 bd 0b 7c 04 bf 8b 7c 80 3e a7 42 bb 3e
       -0.07118789 -0.51751775 0.2509502 0.3657429
0002b0 c1 5d 38 be 62 8a fa 3d 7b 0d ed 3e 81 94 88 be
       -0.18004514 0.12233426 0.46299347 -0.266758
0002c0 14 17 df bd c4 ca 93 bd 3f dc a2 bd 74 de 3c be
       -0.10893074 -0.07216409 -0.07952165 -0.18444234
0002d0 7e c6 a8 3e f3 0d 82 3e aa b9 bc be 3e fd 11 3e
       0.32963938 0.25401267 -0.368604 0.1425676
0002e0 b1 fe 3a 3c 1b 44 e9 3e f3 96 a6 bd a8 d5 4d 3e
       0.011413262 0.45559773 -0.0813426 0.20101035
0002f0 0d eb 35 3e 4d 46 52 3c 2e bc f6 3d 36 77 ad 3c
       0.17765446 0.012834144 0.12047611 0.021175008
000300 34 27 99 3e 98 ee 74 3e 62 e5 83 3e da c4 04 be
       0.29912722 0.23919141 0.25760943 -0.12965718
000310 e9 9a a0 3e ec 24 dc 3d 5d 94 fc 3c d9 e0 08 3e
       0.31368187 0.1074923 0.030832464 0.13367023
000320 99 31 f5 be 34 9f b7 be 0c 04 4e 3e 46 e3 ab 3c
       -0.47889403 -0.3586365 0.20118731 0.020982396
000330 a2 05 aa be f7 29 f5 bd ea c6 e9 3b 50 84 08 be
       -0.33207422 -0.11970895 0.007134308 -0.13331723
000340 5e 1a 8a 3d 03 6a 3e 3e c7 cb c9 be a4 f2 63 be
       0.067433104 0.18595128 -0.39413282 -0.22260529
000350 1b 49 c8 bd 00 b5 16 3e 1c 29 6c bc ff 60 aa be
       -0.09779569 0.14717484 -0.014414098 -0.33277127
000360 78 a9 35 3e 15 46 51 bd 87 bc e5 be 59 f1 63 3d
       0.17740428 -0.051092226 -0.44870397 0.05565009
000370 43 c2 9b bd 11 fc a8 be f4 62 d8 3e bd bb 04 bd
       -0.07605412 -0.3300481 0.42262995 -0.032405604
000380 e2 2c 37 bd 62 8e e0 3d de 51 d3 be 89 d1 23 3d
       -0.044720538 0.10964657 -0.41273397 0.03999475
000390 a0 61 63 be 42 6e a0 be 90 41 21 be 1e 53 ac 3e
       -0.2220521 -0.3133412 -0.15747666 0.33657163
0003a0 1b 61 44 bd 6e f2 84 3e cb 61 2d 3e 4b aa 01 3e
       -0.04794417 0.2596621 0.16931836 0.12662618
0003b0 ae 18 28 be cc 6b 84 3e 2d c3 0e be 69 05 4b 3e
       -0.16415665 0.25863492 -0.13941641 0.19826283
0003c0 74 b6 98 3d 72 b6 74 bd a1 b9 ff bd 93 0c 62 3e
       0.07456675 -0.059744306 -0.12486578 0.22075109
0003d0 9c 44 ad be 03 87 0f 3e 5a 4b c9 3e 13 96 b7 be
       -0.33841407 0.14016347 0.393153 -0.35856685
0003e0 6a 6a 06 bd 43 43 76 bc a8 10 8f bb c0 1a 0f be
       -0.032816328 -0.015030685 -0.0043659993 -0.13975048
0003f0 0a 18 25 be 03 18 7e 3d e6 4e 96 be 65 f4 70 bd
       -0.16122451 0.062034618 -0.2935707 -0.058826823

affine_layers.1.bias f4 [64]
000000 a9 f7 bb bd 5d e4 9e 3e 4a 7f 47 3c d0 54 38 bd
       -0.09178097 0.31033602 0.012176344 -0.04500276
000010 47 1f 98 3c f1 c6 82 3d 81 70 05 bd 4a 58 02 3e
       0.018569602 0.06385601 -0.032577995 0.12728992
000020 12 9b 44 3e 0a 72 94 3d fd ea b8 bd a9 60 93 3d
       0.1919978 0.07248314 -0.090291955 0.07196171
000030 25 c5 11 3e 7c 3a eb bd 8d 08 ef bd ce 3c 59 be
       0.14235361 -0.114857644 -0.11671553 -0.21214601
000040 e7 84 0c be 77 6a a3 3c cd 63 d5 3e cc f1 bc bd
       -0.13722573 0.019948227 0.41677704 -0.092258066
000050 c9 e4 44 3e a2 6c 08 3d 32 10 33 3d e9 a2 10 bd
       0.192279 0.033306725 0.043716617 -0.035311613
000060 0f 32 c6 bd 4b 03 bd bd ce f0 be be b3 cd 2b be
       -0.09677517 -0.09229144 -0.37293094 -0.16777687
000070 0b 07 63 bc 1a bf 35 3e 81 5f b7 bd a1 10 d8 be
       -0.01385666 0.1774868 -0.08953763 -0.42200187
000080 8e cb 6c 3e b1 9c ba bc b0 c2 ce be d8 62 01 3d
       0.23124525 -0.022779794 -0.4038291 0.031588405
000090 e7 d8 27 3e 25 95 23 3d 33 ba d2 bb 0d e2 12 3e
       0.16391335 0.039937157 -0.006430888 0.14344044
0000a0 e6 97 4c bd 75 63 3e be f3 de 1f be 53 84 6e be
       -0.04994955 -0.18592627 -0.15612392 -0.23292665
0000b0 10 d1 ea bb f9 c9 05 be 88 fb 9e bc 94 46 e6 bc
       -0.0071660355 -0.13065328 -0.019407049 -0.028109826
0000c0 6c 57 e7 be b1 d2 90 bd e2 0b 7f 3a 1b 1a d7 bd
       -0.45183885 -0.07071436 0.00097292487 -0.10503026
0000d0 05 b5 2e be 80 5e 36 be 2d dd 5c 3d b7 bc 5b 3d
       -0.17061241 -0.17809486 0.053921867 0.05364677
0000e0 57 57 59 3e 58 2f 08 3f 45 1c 01 b9 74 5b 6e be
       0.21224724 0.5319724 -0.0001231293 -0.23277074
0000f0 2e f5 b1 bc d6 9d 75 3c 97 27 9e 3e 18 fc 84 3e
       -0.021723356 0.014991244 0.3088958 0.25973582

final.weight f4 [1, 64]
000000 de ea 57 be ff 53 30 3e 77 6f 56 3e bb be 1a 3e
       -0.21085688 0.17219542 0.20940958 0.1511182
000010 0f 4b 5c bd 09 34 07 3e eb 2b 85 3e bc 0a 70 3e
       -0.05378252 0.13203444 0.2601007 0.23441595
000020 65 16 33 3d 1e c4 5f 3d 4d cc 5c be 9b b2 18 3e
       0.04372253 0.05463039 -0.2156231 0.14911883
000030 a8 14 d7 3d 9e 6b 4a be c5 08 31 be fb c4 da bd
       0.10501987 -0.19767615 -0.17288502 -0.10682102
000040 6c 95 32 be 52 6b a9 3d 64 b2 fc 3e 01 60 5b bd
       -0.17439812 0.08272423 0.4935485 -0.053558353
000050 35 e2 c6 3d 00 9c f3 3d 2b 07 2e 3e 00 9f 02 be
       0.09711114 0.11894989 0.16994922 -0.12755966
000060 00 eb 09 be be e6 37 be a3 ca ce be 0f 16 38 be
       -0.13468552 -0.17959115 -0.40388975 -0.17977165
000070 c3 4c e7 bd 1d f5 3b 3e a5 33 ec bd bf 10 45 be
       -0.11293938 0.18355222 -0.11533288 -0.1924467
000080 cc 1a d4 3d 0f c0 03 be 4b 69 89 be b9 06 64 3e
       0.103566736 -0.12866233 -0.26838145 0.2226819
000090 92 44 84 3e 1c 1a 02 be 88 04 38 3e fd 2d 3c 3e
       0.25833565 -0.12705272 0.17970479 0.18376918
0000a0 ac 00 05 3d 58 fb 0d be da 9a d1 bd 1a d4 11 be
       0.032471344 -0.13865411 -0.10234614 -0.14241067
0000b0 7d 9e 17 3e 93 f7 4a be 0b d6 0e 3e c9 be 2e be
       0.14806552 -0.19821005 0.13948838 -0.17064966
0000c0 b0 a0 12 be d9 64 d3 bd 41 9a 72 be be 87 bb bd
       -0.1431911 -0.103219695 -0.23691656 -0.0915675
0000d0 c6 80 f8 bd fd 77 cd bd 80 27 57 3e 24 12 48 be
       -0.121339366 -0.100326516 0.21011162 -0.1953817
0000e0 a8 06 34 3e da c5 46 3e 37 f7 38 be a9 d3 f6 bd
       0.17580664 0.19411412 -0.18063055 -0.1205209
0000f0 26 b0 10 be e0 9a ff 3d 0f 45 8f 3e f2 73 18 3e
       -0.14129695 0.12480712 0.27982375 0.1488798

log_stdev f4 [6]
000000 af 21 73 bf be de 4c bf b0 62 4d bf a4 47 5b bf
       -0.9497327 -0.8002738 -0.8022871 -0.8565619
000010 75 fb 6a bf 63 c7 7c bf
       -0.9178994 -0.9874174

affine_layers.0.weight f4 [64, 17]
000000 37 42 29 3f fb 46 b5 3e 84 3c 99 3d 37 9d f2 be
       0.6611666 0.35405716 0.074822456 -0.4738557
000010 de 84 0c 3e 8e b6 98 3d 5e 6f 0e 3e 7b cc e6 3d
       0.1372256 0.074566945 0.1390967 0.1126947
000020 ed 7c 10 bf 90 6a 40 be 1e 63 d1 be f3 0d f8 bd
       -0.5644062 -0.1879065 -0.40895933 -0.121120356
000030 06 16 70 be 04 30 0f 3f 57 25 3c be 05 d2 8c be
       -0.23445901 0.5593264 -0.18373619 -0.27503982
000040 bc 25 d2 3c 9d 9b 24 bc fe 6b fe 3e 19 e4 12 be
       0.025652759 -0.010046867 0.49691767 -0.14344825
000050 71 f5 54 be a4 b7 59 bd 4d 6c d4 3d 6c 5a 0c bc
       -0.20796753 -0.05315365 0.10372219 -0.00856648
000060 51 33 a3 be 7a 02 c6 3d 75 1d 7a 3c 36 02 88 3e
       -0.3187509 0.09668441 0.015265812 0.26564187
000070 51 fa b3 3e 1f 42 04 be 25 af cf bc 94 cd 58 3e
       0.35151914 -0.12915848 -0.02535207 0.21172172
000080 bd e1 1a be 79 79 e4 3d 82 c1 16 3d 71 dd bc be
       -0.15125175 0.111559816 0.036805637 -0.36887696
000090 fd a8 b5 bd 75 f4 9e be a4 f8 4e 3d b5 e5 90 3e
       -0.088701226 -0.3104588 0.05053009 0.28300253
0000a0 0b 56 cf be c7 9e 3c 3e 90 02 36 be 4b 96 8c be
       -0.40495333 0.18419944 -0.17774415 -0.27458414
0000b0 c4 cd 07 be 46 87 5f 3e 1b 4b fa be 10 d7 1d 3e
       -0.13262087 0.21828946 -0.48885426 0.15414071
0000c0 9e 2b 30 be da 6c ae be ee 13 eb be 3b 5a 15 3c
       -0.17204139 -0.34067422 -0.45913643 0.009115751
0000d0 d8 95 97 be d7 bf d9 bc 9f 33 ca 3d ef 91 5d 3e
       -0.2960651 -0.026580734 0.09873127 0.216377
0000e0 e1 52 f6 be ad 07 b1 bd 71 b7 7b be ca c4 2e be
       -0.48110107 -0.08644042 -0.24581696 -0.17067257
0000f0 a1 8a 5a bd b9 90 8b 3e 4f c0 f7 3e 10 52 94 be
       -0.053354863 0.27258852 0.48388907 -0.2896886
000100 58 ad 20 be ad 8f 10 3e 17 11 43 be 72 7b ac bd
       -0.15691125 0.14117308 -0.19049488 -0.08421983
000110 26 4c 1f be 8d 34 1f be 84 7e fb bd c6 47 0a 3e
       -0.15556392 -0.1554739 -0.1227999 0.13503942
000120 fb f5 a2 3b c5 5b 88 be ac 50 03 bf ea a2 d5 be
       0.004973171 -0.26632515 -0.5129497 -0.41725856
000130 ab 9c 97 bc d5 64 34 bf 1c ce dc bd 12 63 52 bd
       -0.018507322 -0.7046636 -0.107815 -0.051364012
000140 7e 9c d9 3e 15 fb 86 3e de c5 25 3e 62 99 5d bd
       0.42502207 0.26363435 0.16188762 -0.054101355
000150 a9 e6 2f bf 21 4f f6 3d 0e 04 58 be 33 86 d7 be
       -0.68711334 0.120268114 -0.21095297 -0.42094573
000160 61 74 b8 3e 4b 15 73 bd cf f3 c0 3e 6b 02 ae bd
       0.3602629 -0.05934648 0.3768601 -0.08496555
000170 c5 2e e2 be 11 89 ed bd d9 81 93 3d 10 31 e3 be
       -0.44176307 -0.11598409 0.07202501 -0.4437337
000180 0f 42 8b be 7e 5b 93 bc a9 e5 bb be 24 d3 b9 3d
       -0.27198836 -0.017987963 -0.36698654 0.09073475
000190 dc 89 96 3d ee 22 2a 3d 0a 86 80 3e e0 ab 21 3f
       0.07350513 0.041537218 0.25102264 0.63152885
0001a0 31 78 9b bd b1 af e2 3e 61 a8 b6 bd 28 c2 41 3d
       -0.07591284 0.44274667 -0.089188345 0.047304302
0001b0 6c b9 0b 3f 0e 1a 94 3e 68 af 55 3e f4 7b 3d 3e
       0.54579806 0.28926128 0.20867693 0.18504316
0001c0 12 fd 8d be 07 39 80 be ad 55 3a be ba 87 94 3d
       -0.2773214 -0.25043508 -0.18196745 0.0725245
0001d0 6c e2 de 3d 85 af 9e be f5 fe 8a 3e 56 b5 fe 3e
       0.1088303 -0.30993286 0.27147642 0.49747723
0001e0 5f e9 9a 3d 57 b0 2b bd be 53 c9 3e 23 c3 9b be
       0.07564043 -0.041916218 0.39321703 -0.30422315
0001f0 9f 53 b7 3d ec 65 b2 bb 1e 34 54 3e f3 c8 8e 3d
       0.08951496 -0.005444279 0.20723006 0.06971922
000200 f0 6a 85 3e 01 9a df 3d 33 05 1f 3e a1 27 ef bc
       0.2605815 0.10918046 0.15529327 -0.029193701
000210 b0 9f f8 be fd e5 81 be 3c 4a 27 3d 43 e1 be bd
       -0.48559332 -0.2537078 0.04084228 -0.09320309
000220 3e a0 fc bd 5f 67 05 be e7 98 ca 3d d3 cb fa bd
       -0.12335251 -0.13027714 0.09892445 -0.12245908
000230 15 cd 22 3e 0e 65 bc 3e 2c 4a 85 bd 7c 40 62 3e
       0.15898545 0.3679585 -0.06508288 0.22094911
000240 71 67 c1 be 24 e3 cb 3d 43 03 23 3e 05 c2 1b be
       -0.37774232 0.09955433 0.15919213 -0.15210731
000250 7b 56 6f bd a3 03 0a 3f 29 9d a9 3e 4c 09 05 be
       -0.058432084 0.539118 0.33127716 -0.12991828
000260 19 5c 68 be 8e 27 99 be 89 9a 8d bb 82 ad d0 be
       -0.22691382 -0.2991299 -0.0043214005 -0.40757376
000270 21 e3 3a 3f 60 2c 59 3d 4f 46 84 3e 1b e4 b3 3d
       0.7300282 0.053020835 0.2583489 0.08783742
000280 4b f9 9b be 2e 57 12 bd 98 b7 63 3c f3 58 07 3e
       -0.30463633 -0.035727672 0.013898753 0.13217525
000290 2c 19 9b bd 6d 1f cf 3e 28 ef bb bc 72 57 34 bd
       -0.075731605 0.40453663 -0.022941187 -0.044028707
0002a0 6b 0f fc be 8e 02 25 bd 13 fb 61 be a8 0f cc 3e
       -0.49230513 -0.04028564 -0.22068433 0.39855695
0002b0 e8 6d bc bd 40 7d 8a 3e 13 4b 3d bf c1 43 eb 3e
       -0.092006505 0.27048683 -0.7394268 0.4595013
0002c0 e6 ec 6d bd dc e0 05 3e ac 4d da be 05 5e b0 3d
       -0.058087252 0.13074058 -0.42637384 0.08611683
0002d0 15 e8 64 be ed 7b 5d be e1 f0 b5 3c 49 09 c5 3e
       -0.22354157 -0.21629305 0.022209587 0.38483647
0002e0 94 70 86 be 98 97 4f 3d a6 2d 24 3e 17 3b bb bd
       -0.26257765 0.05068168 0.16033038 -0.0914213
0002f0 a6 cc 40 bf 01 1e 8e bd 2d ba 19 3e 2b d9 21 bb
       -0.7531227 -0.069393165 0.15012427 -0.0024696093
000300 ea 96 94 bd 75 84 20 be 67 a9 f3 bd 7f 5f 03 be
       -0.07255347 -0.15675528 -0.11897545 -0.12829398
000310 9a 5e 80 bd 28 0b a5 bd 96 b9 f5 3e 52 bd de bd
       -0.06268044 -0.080587685 0.47993153 -0.10875954
000320 38 46 4d bd 5c 53 cc 3d cd ca f4 bd 66 c4 72 3e
       -0.050115794 0.09976837 -0.11952744 0.23707733
000330 e8 65 90 3e 91 99 33 3d f1 d1 e2 3d f0 84 bd bd
       0.28202748 0.043847624 0.110751994 -0.092538714
000340 13 cd 82 be 22 f7 a4 3e 40 44 11 be 4f a6 96 3e
       -0.25547084 0.32219797 -0.14186192 0.29423758
000350 56 50 d2 bd c3 8f 86 3c 22 52 d3 bd f3 a0 13 3f
       -0.10269229 0.016425973 -0.103184 0.57667464
000360 8c fb b4 3e 29 7e 22 be 23 d3 51 3f 38 28 ee be
       0.35348165 -0.15868439 0.81962794 -0.4651506
000370 3e c8 8b be f0 aa 51 3e 82 5e 4f 3e 27 33 8b be
       -0.2730121 0.20475364 0.20250896 -0.27187464
000380 61 86 9c 3d 5f fd 55 3e 57 e2 5a 3e 1e 76 07 3e
       0.07642818 0.20897435 0.21375404 0.13228652
000390 16 0b 8c be 0e 93 38 be 86 c3 31 3f ad d3 d2 3d
       -0.27352208 -0.18024847 0.6943897 0.1029428
0003a0 0d 21 b3 bd 0b eb b6 3d ef ca 25 be bc 96 6f be
       -0.08746538 0.0893155 -0.16190694 -0.23397344
0003b0 66 78 a3 3e 38 75 3d 3e af f6 61 be b7 b3 1e 3e
       0.31927794 0.18501747 -0.22066759 0.15498243
0003c0 00 0d 26 3e d3 c7 cf 3e 1e c2 38 3e 54 df b5 bd
       0.16215897 0.4058214 0.180428 -0.08880487
0003d0 01 e9 05 bd 07 7b cc be b1 e4 2b 3e 31 62 50 3e
       -0.032692913 -0.39937612 0.16786458 0.20349957
0003e0 fa b4 d0 bd 32 08 5f be 2f 3d 76 3e 7f c1 c8 be
       -0.101907685 -0.2178047 0.24046777 -0.39210126
0003f0 f6 b9 2f 3e 71 31 a4 3e fc f4 77 be 6d a0 f4 3e
       0.17160782 0.3206897 -0.24214548 0.47778645

affine_layers.0.bias f4 [64]
000000 2b c1 92 3e 8c 13 83 3e 3c 33 6b be fc 13 0f be
       0.28663 0.2560085 -0.22968763 -0.13972467
000010 90 38 40 be 17 52 fb be 9c 5e 5c bc 32 f1 d6 be
       -0.18771577 -0.49086067 -0.013450291 -0.41980892
000020 25 42 2f be 49 93 e7 be b3 26 a5 be fd 94 8b bc
       -0.17115076 -0.45229557 -0.32256088 -0.017038817
000030 89 26 ef 3d 0d 63 25 bc 82 74 be 3e b9 89 5b 3f
       0.11677272 -0.010094416 0.37198263 0.85757023
000040 30 3f c6 be d2 d4 af bd 89 49 bb be e9 e9 e9 be
       -0.38720083 -0.08585514 -0.3657954 -0.45686272
000050 4a d6 cd 3e c9 10 a1 be d0 3b 11 be 3d d8 9d bd
       0.40202552 -0.3145812 -0.14182973 -0.0770726
000060 bf 32 c2 3e d4 43 59 be 1e d4 b0 3d 23 d8 6a be
       0.3792934 -0.2121728 0.08634208 -0.22934012
000070 06 75 f6 be 1d 1b d6 be c6 12 18 3f 31 82 23 3d
       -0.48136157 -0.4181756 0.59403646 0.039919082
000080 4a 89 88 3e d3 b3 b1 3d b8 e8 dc be 9a c6 af 3e
       0.26667243 0.08676877 -0.431463 0.34331208
000090 fc 1e 31 3c 2f 50 10 be 16 a6 61 3e 2f ac 4e 3e
       0.01081061 -0.14093088 0.22036013 0.2018287
0000a0 30 f4 f8 3d 9d ec 27 be 3c 38 33 be 7f 2b 4d be
       0.1215595 -0.16398855 -0.1750192 -0.20036124
0000b0 4e 4f bd 3d 92 1f 5e 3e 7b 5e 03 bd 91 1f ec bd
       0.09243642 0.2169173 -0.032072525 -0.11529458
0000c0 ca bd 05 be a9 66 83 be 14 39 d8 be 66 a6 10 bf
       -0.1306068 -0.2566426 -0.42231047 -0.56503904
0000d0 08 84 bb be 93 dd 3f be 8a c5 99 be 46 d8 a4 3d
       -0.3662417 -0.18736868 -0.30033523 0.080490634
0000e0 7e 4d a1 3e 05 21 17 bf 17 13 f5 3d dd 57 fe 3e
       0.31504434 -0.5903476 0.11966532 0.4967641
0000f0 75 bd b6 3e cf af 8c 3e 4f 17 e7 be 70 70 64 3e
       0.3569142 0.2747788 -0.4513497 0.22308517

affine_layers.1.weight f4 [64, 64]
000000 79 63 90 be 84 d6 0d 3f cb 20 9d bd 34 82 a8 be
       -0.28200892 0.5540545 -0.076722704 -0.32911837
000010 f2 4c 88 3e 70 52 c9 3d 14 28 09 bd 46 b4 13 bf
       0.26621205 0.09830177 -0.033485487 -0.5769695
000020 50 28 bc bd ba 5e 79 bd 10 63 c5 bd 79 0b 22 be
       -0.091873765 -0.060881354 -0.09638035 -0.15824689
000030 2e 50 b2 be ee 5d fd 3c 8d 40 0c bb be b0 a9 3d
       -0.34826797 0.030928578 -0.002140078 0.08285664
000040 2f b5 4f be 10 4f 78 be cb e1 29 be 2c ca 5c be
       -0.2028396 -0.2424891 -0.1659004 -0.21561497
000050 81 58 96 3d da 88 0a 3f 5a ea 94 3d ed 86 1b be
       0.073410995 0.5411507 0.072712615 -0.15188189
000060 a0 14 7d bd 80 0f 0d 3e cf 5e 0a 3e 73 fa 5e 3d
       -0.061787248 0.13775444 0.13512729 0.054438066
000070 12 29 b8 bb 2c 0f ad be 2f cd 3b be 92 bc 47 3d
       -0.0056201303 -0.33800638 -0.1833999 0.04876382
000080 16 47 87 3d f6 42 de bd 16 88 45 be 7d a3 82 be
       0.066053554 -0.108526155 -0.19290194 -0.25515357
000090 a3 7c 3b be 12 f5 21 be 3d ca 4c be b7 d9 51 3e
       -0.18309264 -0.15816143 -0.19999023 0.20493208
0000a0 a5 2c f2 bd 20 ac 09 be 84 39 08 bf 52 68 8b 3e
       -0.118249215 -0.13444567 -0.5321276 0.27228028
0000b0 c6 46 05 3e a0 4b fe bd 84 b4 9d be ff 87 31 3f
       0.13015279 -0.12416768 -0.30801785 0.6934814
0000c0 72 2e fa be 4e 58 47 be a4 4f 9f 3e 3a 05 0e 3d
       -0.4886356 -0.1946728 0.31115448 0.034672953
0000d0 98 13 d4 be ee 1c 01 bf 1f b1 fa 3d 88 47 e8 3d
       -0.414212 -0.5043477 0.122408144 0.113417685
0000e0 08 6c 4b 3e cf 67 91 be f8 7c b2 be d3 52 d2 bd
       0.1986543 -0.28399512 -0.3486097 -0.10269704
0000f0 34 bf b2 3e cf 33 87 bd c0 44 88 be 56 9d 57 be
       0.349115 -0.066016786 -0.26614952 -0.21056113
000100 85 80 8d 3e 0e 41 da bd 4c fa 68 be 2e 12 97 bd
       0.27637115 -0.106569394 -0.2275173 -0.073765144
000110 f9 91 9b 3d 38 bf 00 3f 3f 79 94 3e 32 bd 97 3d
       0.075962014 0.50291777 0.28998753 0.07409133
000120 23 c0 d6 be 15 e5 27 3e da 22 ed 3e 66 04 84 be
       -0.41943464 0.16395982 0.46315652 -0.25784606
000130 84 3f 2e 3e 0d 93 c5 be bc 1b ad bc 3a 1c ad be
       0.17016417 -0.38588753 -0.021131389 -0.33810598
000140 17 38 dd 3e 9f c5 08 3f 3f bf 80 3e e3 02 5a 3e
       0.43206856 0.53426546 0.2514591 0.21290164
000150 36 df f7 3d d8 ab a0 3d 7d 3d f6 3e e6 a6 3e be
       0.12103121 0.078452766 0.48093787 -0.18618354
000160 20 9f f3 be e1 72 e6 3e 3e 20 b4 be d2 34 ba 3d
       -0.4758234 0.4500952 -0.3518085 0.09092106
000170 9d f1 01 3f 05 bb 07 bf 4a 38 5b bd 87 f1 97 be
       0.507593 -0.53019744 -0.05352048 -0.29676458
000180 c7 f9 96 bd 5c 0c e2 3d 69 5b 9c 3e 7e eb a1 3d
       -0.0737186 0.110375136 0.3053849 0.07906245
000190 f3 32 bb be b1 a3 a0 3d e1 fa b2 bd b1 a0 3f 3e
       -0.3656231 0.07843722 -0.087392576 0.18713643
0001a0 20 5a 51 be 57 42 5f 3d 88 4b 82 3d 74 90 87 be
       -0.20444536 0.054506626 0.06362063 -0.26477396
0001b0 cb df bb be d9 d8 cd 3d 28 1f a6 bd 3c 75 07 bd
       -0.36694178 0.10051126 -0.08111411 -0.033070788
0001c0 2d 4d 1b bd ec 0a 11 be c6 5b 28 bd ce be c8 3d
       -0.037915397 -0.14164323 -0.041103147 0.09802018
0001d0 29 3d 50 be b1 cb 76 be ed 59 58 3e 31 34 26 be
       -0.20335831 -0.2410114 0.21128054 -0.16230847
0001e0 de 51 54 be 4b 69 8e 3e f8 c0 9a 3e ec dc c7 3d
       -0.20734355 0.27814707 0.30225348 0.097589344
0001f0 a0 1f 99 be 61 ed a5 3d c3 51 df 3d 99 34 ef be
       -0.2990694 0.08101917 0.10904267 -0.46719816
000200 a2 0b ae bd 1b 25 35 3e 54 12 31 be d8 b0 44 be
       -0.084983125 0.17689936 -0.17292148 -0.19208086
000210 9e 0a fd bb 88 ce 34 be 28 8a a6 bd 3a dc 46 3e
       -0.007722213 -0.1765691 -0.0813182 0.19419947
000220 51 5f 81 3e 47 4f 01 3e 45 6f 84 3d f8 9b 0e bf
       0.25268033 0.12627898 0.064665355 -0.5570674
000230 e5 b1 3a 3e ee dd 7d 3e f8 f6 0d 3e 45 7f 2c bd
       0.18231924 0.2479169 0.13863742 -0.04211356
000240 97 10 0e 3e fe ce d7 3e 2a c9 a9 be 7e f5 a5 3e
       0.13873516 0.4215011 -0.33161288 0.32413858
000250 17 cf 18 bd c1 46 80 3e 26 50 e6 3d 10 91 e0 3a
       -0.03730687 0.2505398 0.11245756 0.0017133076
000260 b9 88 20 bf 85 cf b4 3e 12 35 92 be 12 cd cc 3c
       -0.6270862 0.35314575 -0.28556114 0.025000129
000270 d5 b8 11 3f cb a7 4c bd c0 16 d0 be 19 c5 f2 bd
       0.56922656 -0.049964707 -0.40642357 -0.11854
000280 5f 6a 55 3e 82 81 eb bb 2c 22 a8 3e c0 30 96 3c
       0.20841359 -0.0071870694 0.3283857 0.018333793
000290 d6 6e dc bd 12 90 ca 3d 00 a4 a1 3e c5 0a 6d be
       -0.10763328 0.098907605 0.31570435 -0.2314864
0002a0 ad 79 00 3e df 97 82 3e 5f 0a d3 3e fa d0 6f 3d
       0.12546416 0.25506493 0.4121885 0.058548905
0002b0 f5 26 9f be a6 26 08 3e b0 13 a1 be c5 97 57 3e
       -0.3108441 0.13295993 -0.31460333 0.21053989
0002c0 38 44 77 3e 22 b0 b5 bd b9 53 04 3f 84 e1 8d 3e
       0.24147117 -0.08871485 0.5169025 0.27711117
0002d0 90 c9 05 bf 53 87 05 bf e3 13 1b bd d0 9f 7d be
       -0.52260685 -0.52159613 -0.037860762 -0.24767995
0002e0 5d 98 7f be 78 f3 03 be 58 e2 c8 3a ae 43 5f be
       -0.24960466 -0.12885845 0.0015326245 -0.21803162
0002f0 7d cb d5 be 8d a0 12 be 12 c4 93 3d 8b 42 1a 3e
       -0.41756812 -0.14319058 0.07215132 0.15064447
000300 cf 08 cf be ae 79 65 bd a8 0d 64 3d 54 e6 48 3d
       -0.40436408 -0.056024246 0.055677086 0.049047783
000310 fd 60 b0 be 7c aa 93 3e eb a0 1c 3e ba 2d 76 3e
       -0.34448996 0.28841007 0.1529576 0.24040881
000320 e1 75 f8 bd d6 ad 48 3e 63 b8 8f bc 36 21 75 be
       -0.121318586 0.19597563 -0.017543977 -0.2393845
000330 18 36 a7 3d a4 54 c0 3e cc 25 a0 3e e1 0d f7 bd
       0.081646144 0.37564576 0.31278837 -0.12063194
000340 8e 94 cb 3e 3a df 20 3e 9a f7 e9 bd 7e 10 88 3b
       0.39761776 0.15710154 -0.114241794 0.0041523566
000350 4e f3 c3 be 28 1d 9e be 78 11 07 3f 94 37 76 be
       -0.38271564 -0.3088162 0.5276103 -0.24044639
000360 cf fa d5 be 13 87 8f 3e e9 e1 e2 3e f8 d7 25 3b
       -0.41792914 0.2803274 0.4431298 0.002530573
000370 ac 95 1f 3d c5 c0 bd 3e 9e e5 06 bf a1 b9 5f 3d
       0.038961098 0.37061134 -0.5269412 0.05462039
000380 cc ec d6 bd 99 44 09 3e db fa 75 3e d6 0b 51 bd
       -0.10494384 0.13405074 0.24021475 -0.05103668
000390 60 d1 c8 3c 4c ad 50 3e af db 80 be d5 81 f1 3e
       0.0245139 0.20378608 -0.25167605 0.47169366
0003a0 bc 40 34 bf 11 83 44 3e 74 d9 fb bd 05 25 a9 3e
       -0.70411277 0.19190623 -0.12297335 0.33036056
0003b0 19 a9 96 be f4 5a 4c bd 0a 42 da bd 4c 25 73 3e
       -0.29425886 -0.049891427 -0.10657127 0.23744696
0003c0 24 32 82 3d 11 d0 b9 3d 92 2a 03 3f d1 a0 80 bd
       0.0635722 0.09072889 0.5123683 -0.06280673
0003d0 dd 77 81 be f9 cc 67 be c8 22 97 3d 5a 6b ce 3e
       -0.2528676 -0.22636785 0.07379681 0.40316278
0003e0 08 3c 6a 3e 34 7a 91 3d c2 28 0e 3e 5a 09 7c be
       0.22874463 0.071033865 0.13882735 -0.24612942
0003f0 f0 84 97 be 22 aa 39 be c9 d2 3f 3c 2d 3b e6 3c
       -0.2959361 -0.18131307 0.01170797 0.02810439

affine_layers.1.bias f4 [64]
000000 30 ff 9b 3e 56 e2 20 bd 1a 11 0a be a0 00 02 bf
       0.3046813 -0.03927835 -0.13483086 -0.50782204
000010 97 2d bb be 96 7c ed bd 6c 22 db bd 29 41 5a be
       -0.3655822 -0.115960285 -0.10699925 -0.21313919
000020 ee f5 6f 3d 55 d8 50 be 05 1b 0f 3e a2 b5 4b be
       0.058584146 -0.20395024 0.13975151 -0.19893506
000030 39 2f 81 be 64 bf 40 be ea 74 1f be 9e 16 d5 bb
       -0.2523134 -0.1882301 -0.15571943 -0.0065029403
000040 33 43 9e 3d 18 3a aa 3c d9 6e 22 3e 84 76 69 3e
       0.07727661 0.020779654 0.15862598 0.22799116
000050 4d 04 cd 3e 0d d0 e7 be 3a 38 a3 3e 06 ad 86 bd
       0.40042344 -0.45275918 0.31878835 -0.0657597
000060 6c a3 f2 3d 17 1d a5 3e 09 a6 88 3d e5 03 4e 3e
       0.118475765 0.32248756 0.06672294 0.20118673
000070 04 20 68 3e 20 2b 5e 3e 22 6c be bd 07 1d 15 be
       0.22668463 0.21696138 -0.092979684 -0.14561854
000080 0e b4 e2 3c 28 50 aa 3e d8 c1 10 be bf 85 59 be
       0.027673747 0.3326428 -0.14136446 -0.21242426
000090 74 6f a1 bd ee 7a 26 bc c4 35 a1 bd a0 73 0a 3f
       -0.07882586 -0.010161145 -0.07871583 0.5408268
0000a0 a8 81 56 be d4 e8 8c 3e 81 bf ed 3d 0e 1e 96 bd
       -0.20947897 0.27521384 0.11608792 -0.07329951
0000b0 ee 7a 97 be 48 88 a4 be 2c f2 8e 3d fa af 28 3e
       -0.29585975 -0.32135224 0.06979784 0.1647338
0000c0 a3 a9 b4 3d af fb ef 3d f8 d3 80 be d9 c5 3b 3e
       0.08821418 0.11717927 -0.2516172 0.18337192
0000d0 81 f0 49 be a5 e9 5c bd 80 43 9e be d0 44 91 be
       -0.19720651 -0.05393376 -0.30910873 -0.28372812
0000e0 fe 8b 58 3e ba 53 fc be e7 5a aa 3e 4d b1 5d 3e
       0.21147153 -0.49282628 0.33272478 0.21649666
0000f0 29 e4 22 3d 9b 79 6f 3e a1 7c 95 bd 58 05 03 bf
       0.03976837 0.23386233 -0.07299162 -0.5118003

final_mean.weight f4 [6, 64]
000000 d4 b1 d1 3d 57 31 ac 3d 3d b9 59 bc a2 25 2f be
       0.10238996 0.08407848 -0.013288793 -0.171042
000010 df 8e f5 bd 7d 8c 8f 3d 31 c7 10 bc 70 69 f3 bd
       -0.11990141 0.07009218 -0.008836553 -0.11885345
000020 9f 76 b7 3c 26 96 cd bd d6 25 e7 3d aa aa ef bd
       0.02239543 -0.10038404 0.112865135 -0.117024735
000030 3f 46 a0 bd fd f3 37 be af 80 63 bd cd 18 cb ba
       -0.078258984 -0.17964168 -0.055542644 -0.0015495062
000040 31 12 ac bd b1 69 19 3e 6b 8d 1e bd de 30 04 bd
       -0.08401907 0.14981724 -0.038709085 -0.032273166
000050 a5 2b b7 bd 85 ff 91 3d 1d 83 17 be 12 c6 f2 3c
       -0.089438714 0.071288146 -0.1479611 0.029635463
000060 13 ed 29 3b f1 6e 2c 3e d1 65 8d be fd 8d 81 3d
       0.002592866 0.16839196 -0.27616742 0.0632591
000070 77 c7 27 3e b6 9e 71 3d 8c 94 39 bd fc 4d a5 3d
       0.16384684 0.05898925 -0.04530768 0.08071515
000080 42 17 52 3c 0d 0a 8b 3d 85 4f 7d 3b 06 33 77 be
       0.012822928 0.067890264 0.0038652134 -0.24140558
000090 21 c8 05 3e 6b cb 14 be c4 eb f8 bd 59 08 38 3e
       0.13064624 -0.14530723 -0.12154344 0.17971934
0000a0 39 98 7d bd f6 09 41 3e 59 40 9e 3d 3a 53 fc 3c
       -0.06191275 0.18851456 0.07727117 0.030801404
0000b0 52 d8 28 3e 48 22 e7 bd 01 0f c6 3d 21 8f 37 3e
       0.1648877 -0.112858355 0.096708305 0.17925693
0000c0 e0 68 21 bd 71 44 33 bd 1c ca 09 be a0 73 a0 3d
       -0.039406657 -0.043766443 -0.13456005 0.07834554
0000d0 a6 03 61 bd b9 c1 09 be 86 76 51 3d 26 2e 92 bd
       -0.05493512 -0.13452806 0.051138423 -0.07137708
0000e0 a5 17 8e bd 9f cb e3 bd df 0f 85 3c a4 fc e6 3b
       -0.069381036 -0.11122822 0.01624292 0.00704916
0000f0 5f 0e 75 bd 54 ce 13 3e d6 39 30 be 57 98 83 be
       -0.05982816 0.14434177 -0.17209563 -0.25702164
000100 9f b3 26 be 6e c4 be bd d5 0e 03 3e fb 3f 67 3e
       -0.16279458 -0.0931481 0.12798627 0.22583
000110 30 e3 9b be 2d ea 8e bd 50 68 59 3d 25 2b 69 bd
       -0.30446768 -0.06978259 0.053077996 -0.05692591
000120 92 86 15 3e fc c0 1e 3e 14 0e 9e 3e 97 d0 0e be
       0.14602116 0.15503305 0.30870116 -0.13946758
000130 ad 55 fb bc 49 74 e2 bd e4 c9 47 be f4 af e6 bd
       -0.030680502 -0.11057336 -0.19510609 -0.11264029
000140 5f 70 dc 3d 31 3d 21 3e 34 a0 27 bd 84 44 e6 3c
       0.107636206 0.15745999 -0.040924266 0.028108843
000150 a8 31 4e be bc d1 07 bd 45 48 33 3d 1b 7d ff bd
       -0.2013613 -0.033159003 0.043770093 -0.12475034
000160 86 59 4d 3d 05 eb 8c bd df 83 42 3d e9 eb 1b 3e
       0.050134204 -0.06880764 0.047489043 0.15226711
000170 a0 1a 1b bd a3 23 9b 3d 41 eb 63 3e d2 f3 6f be
       -0.03786719 0.075751565 0.22257711 -0.23432854
000180 6d eb 5b 3d 8d 59 17 3d 52 80 45 3e b4 3b 99 3d
       0.053691316 0.036950637 0.19287232 0.074820906
000190 20 a6 2c 3e 6e 11 1d bc fd 52 73 3d 0b a2 63 3e
       0.16860247 -0.009586675 0.059405316 0.22229783
0001a0 4c ce 05 3e 98 d6 2e be 5b c6 86 3d ff 68 7e be
       0.13066977 -0.17074049 0.06580802 -0.2484474
0001b0 07 73 eb bd 32 ad 90 bd 9e 0d 9a 3d cc 24 90 bd
       -0.11496549 -0.070642844 0.075221285 -0.070382684
0001c0 0b 11 c9 bc 95 6e 9a bc ea 2d 9f 3c fc d3 3b 3d
       -0.02454426 -0.018851558 0.019431073 0.04585646
0001d0 b4 33 cd 3d 73 ed 10 be 55 8f 4f be 34 42 bb 3d
       0.10019627 -0.1415308 -0.2026952 0.091434866
0001e0 b4 0d aa 3c be 94 77 be ef a6 26 3e 1b 5e 2b 3d
       0.020758487 -0.24177834 0.16274618 0.041837793
0001f0 cc af f2 bd 00 3e 21 bd 7a b1 14 be 7d 5c 81 3d
       -0.11849937 -0.03936577 -0.14520827 0.06316469
000200 62 4e 03 be ab 53 81 be cb 2b ef 3d 2b e7 86 be
       -0.1282287 -0.25259146 0.11678275 -0.26348242
000210 0b c6 e0 3c dc c6 0f be 68 b5 c9 3d 41 18 46 3e
       0.027438184 -0.14040703 0.098490536 0.1934519
000220 d6 dc a9 3c dd ba 6a 3e 59 a9 2b 3d 53 c2 d5 3d
       0.020735186 0.22922845 0.04190955 0.10437455
000230 7a 36 56 be e1 9b c3 bd 62 a0 f1 bd f8 7b a8 3d
       -0.20919219 -0.09551216 -0.11798169 0.0822677
000240 e0 7d 39 3c 27 fc 32 bd 9c 36 09 3e c8 a5 75 bd
       0.011321515 -0.043697502 0.13399738 -0.059972554
000250 c8 00 25 be b8 16 16 be a5 2b 09 bd 6e f3 45 3e
       -0.1611358 -0.14657104 -0.03348889 0.19331142
000260 fc 84 f3 bd fb 11 04 3e b1 98 23 bd 45 25 e8 3a
       -0.11890599 0.12897484 -0.03994054 0.0017711302
000270 4d f1 d6 3d 6d 8c 82 be e1 c6 69 3d 1d 64 cf bd
       0.10495243 -0.2549776 0.05707443 -0.10126517
000280 71 8e 65 3e 89 d3 9e be 43 b6 2e bd ea 79 f5 bd
       0.22417618 -0.31020764 -0.042654287 -0.11986144
000290 92 90 f7 3c 52 67 1a be 34 27 03 bd e2 cb 21 be
       0.030220304 -0.15078476 -0.03201981 -0.15800431
0002a0 6c cb da 3c 2a 16 5f bd 26 91 40 3d 19 c8 36 be
       0.026708327 -0.054464497 0.047013424 -0.17849769
0002b0 b0 f8 c9 3d 04 8e 1e be 52 1c c8 bd 25 4e ff bb
       0.098618865 -0.15483862 -0.09771027 -0.007791298
0002c0 c2 09 ce bd dd 36 a9 3d 0e e2 cb bd 1b 46 38 3e
       -0.10060455 0.082624175 -0.09955226 0.17995493
0002d0 98 d4 b1 bd c4 c4 fe 3c 09 59 2e be 31 f8 da bd
       -0.08683127 0.031099685 -0.17026152 -0.1069187
0002e0 59 26 d8 3d 58 a8 5b bd 61 81 47 3e 5f 55 66 3e
       0.10554189 -0.053627342 0.19482948 0.22493504
0002f0 7d a4 e7 3c f5 07 3f bd ee 96 f4 bd 21 26 60 bd
       0.028276676 -0.046638448 -0.1194285 -0.054723863
000300 bf ea bb bd 0c 1e 43 be c0 69 27 3e e1 82 23 3e
       -0.09175634 -0.1905443 0.16348934 0.15967895
000310 21 fc 9d be bb 55 41 3d 43 82 5a bd 1d 0c 8f 3d
       -0.30856422 0.0472009 -0.053346884 0.06984732
000320 c9 5d d0 bc 90 2a 77 3e ac 60 04 3d 9d 13 af bd
       -0.025435345 0.2413733 0.032318756 -0.08548663
000330 f8 8e 4a bc 2a 48 39 3e 07 5f 1b 3e d8 26 51 be
       -0.012363188 0.18093935 0.15172969 -0.20424974
000340 1d d2 67 3c 66 25 f4 bd 6a 4a 2c be 7b 8a 34 be
       0.014149216 -0.11921196 -0.16825262 -0.17630951
000350 2a 4c a3 bb 54 39 3e 3d 17 5d 9f 3c b3 8c c2 3c
       -0.0049834447 0.04644139 0.019453568 0.023748731
000360 bb 1d f4 bd 6d 87 bc 3d 44 b5 59 3e a4 75 f2 bc
       -0.11919733 0.09205518 0.21260554 -0.029597111
000370 02 e9 2c be 1e 34 81 3d 10 89 8c 3d e8 a7 da 3c
       -0.1688576 0.06308769 0.0686208 0.026691392
000380 d8 01 b2 bd f9 54 ff 3d 5a 98 62 3e cb d6 15 3e
       -0.08691758 0.12467379 0.2212843 0.14632718
000390 75 5e 4f 3d c6 65 52 3e 72 71 2c bd 18 ad 4c bd
       0.05062719 0.20546636 -0.042100377 -0.049969763
0003a0 30 7a 46 3c 02 fb d8 bc b6 ab 5a be 11 20 b8 3c
       0.012114093 -0.026486877 -0.21354565 0.022476228
0003b0 2a 55 39 3e 24 74 d7 3d c9 76 b3 bc 42 26 04 bd
       0.18098894 0.10520199 -0.021907227 -0.032263048
0003c0 51 21 8d bd 7c 12 04 be 6c 27 79 3e d8 cd c5 3e
       -0.0689112 -0.12897676 0.24331445 0.3863361
0003d0 8f 4c 05 be 7b 67 9a 3d 92 71 8e be d7 5d a9 bd
       -0.13017486 0.075392686 -0.27821022 -0.08269852
0003e0 d0 e7 ba bc 3f bd 6e be 16 c4 06 3e b8 2d 0e 3e
       -0.022815615 -0.23314379 0.13160738 0.13884628
0003f0 f8 a8 2d be 79 1e 1f bd f7 87 39 bc 26 73 bb bd
       -0.16958988 -0.03884742 -0.01132392 -0.09152822

final_mean.bias f4 [6]
000000 64 06 92 3e a2 a5 ec 3d 06 59 06 3c ea 8a a5 3c
       0.285205 0.115550295 0.008199936 0.020207841
000010 76 1c 49 3e 97 fa 8e 39
       0.19639763 0.00027271055
